Reinforcement-Learning/Math-RL-Book-Code/log/DQN/DQN_model_v0.pth (torch, 337382 bytes, 24 tensors)

net.0.weight f4 [128, 25]
00000000: 37ef a13e 5bfd ac3e b4fb 8e3e 1940 4a3e
00000010: 8862 71be 2f75 6abe 4830 17be 5efc 03be
00000020: 1e51 75be 5aee 76be 17b3 643e 5630 923d
00000030: df4e 5abe e2b2 093e 0926 bc3a fbe3 f03e
00000040: f1ee 333e 0935 7ebe 003a 1cbc ed48 2ebe
00000050: b7ad 3d3f e813 1cbd e5f0 d13d 8af0 68be
00000060: 6dd8 123e a2b5 c43d bec7 ab3d 82f3 233e
00000070: 84a3 82bb d51a bf3e ecb6 643e 006d 1b3a
00000080: ac86 6cbd fb49 14be 03af 543e 9490 9a3e
00000090: 509a bb3c b2ca 883d 0ba1 3dbe 0523 973d
000000a0: eca1 e83e 8bba 113e 3299 983d 319b 003e
000000b0: da3a e33d 6814 ed3e 1c1f 07be b4db 72be
000000c0: 4ca8 72be 9079 a43c 8f6b 533e b8b3 62be
000000d0: edb7 8ebd bc74 1e3c 85a9 d83d 84cd 083f
000000e0: 4d1d e4bd 408f 06bb 3a9b ff3e f595 1dbd
000000f0: e274 153f 0dda 33be 3c21 a03e 7bd9 81be
00000100: d402 80be fffa 423f a232 c43d f75d 713e
00000110: 2265 de3d 5ab2 f93d 0ce8 1b3f 94b3 3abd
00000120: 7318 97be c52b 9cbe 68ac 02be 91e0 e8bc
00000130: bf73 bbbd 492d 4bbe 105b 7bbd 61e1 d23b
00000140: 4794 5cbe a511 313e d059 97bc b542 8bbe
00000150: 265d 76be b2f8 67be 778b 093e 3eec 133e
00000160: ab4a 8bbe a555 47be b3f4 74be 1081 00be
00000170: add7 893e b0fb b5bc 9715 9bbd b62c 94be
00000180: dddc 3dbe b78b 0c3e 6707 fa3d 016c 1e3e
00000190: 4f94 a23e 48b4 60bd 1815 e9bc e9b2 913e
000001a0: daba b73e 5186 ca3d 2721 3bbe 47e4 a5bd
000001b0: 67b3 75bc bdb9 ac3d d4b5 713e 4108 153e
000001c0: 748e 6cbd aeac 91bc 743d 833c 4df5 b2bd
000001d0: 809c d6bd 0fac 34be f6fd db3d 596e 163e
000001e0: 0087 14bd 6570 32be cd22 9cbb f06b afbd
000001f0: 2864 8d3c a785 f0bd 8b59 ed3d 9513 e43c
00000200: 440e 593e f784 b03e 7fa8 08be 89c4 443e
00000210: 5355 e1bd a967 c7bd 6a34 08be 65e7 12bd
00000220: 03b9 203e 77bb 2a3e a4cd 503d e738 f0bd
00000230: fa3c 06be e7a4 3b3e 3af5 30be 771a 34be
00000240: c94e 443e 975d f7bd b8f8 15bd 8806 febd
00000250: 782b 0e3f 9512 483e 436a a8bd 67c6 acbe
00000260: c1a7 a9be 700c fdbc 7495 a2be 4724 e0bd
00000270: a835 57bd 28da 40bd 6ece 5abe 649a 66be
00000280: b373 a0be c199 0f3e 3d68 053e 5daf 88bd
00000290: 8768 bdbd 5015 a9be 703a 953c 1c65 393e
000002a0: 6816 0b3d f2cd a13d 4c0b a4be f9a2 263e
000002b0: 94df e93e d479 dc3e 00fd 6abd c34b df3d
000002c0: 81cd 26be 910c 65be 032a dd3d 9a14 fd3d
000002d0: 7287 5bbe 4c36 64bd 04ff 683d 30ab d43d
000002e0: 7c85 6bbe 8d86 6ebe 3ad3 fabd 72b3 a33e
000002f0: d28c 61be 9148 64be 6c25 5abe e02a 5e3c
00000300: 8b74 6ebe 809e f4ba 6b6d 21be 4354 6ebe
00000310: 9233 aa3d 1684 ba3e 4cd6 003f d30d 143e
00000320: 3476 59bd 80c7 6f3c 1a22 fd3d 3afb 9b3d
00000330: f814 1abd 3105 223e 41f2 173e e8b4 cabc
00000340: 479a c2bd caca c43d aec2 9f3d 9594 4c3e
00000350: 2de5 b8bd fe73 ef3d 3ce2 643d 80ec 153c
00000360: c089 0ebe 9a68 e8bd 8d17 10be 5b9d 1fbe
00000370: 0031 48bc 47cd 3ebe cc13 573d fb66 21be
00000380: a8a8 a0bc 2132 063e d295 20be cb87 17be
00000390: dea6 13be 2116 b6bd 26a5 8cbd d02f 00be
000003a0: 205d f9bd a340 ec3e 701b 1dbe 6d58 49be
000003b0: 02dd 3fbe a186 0f3f 7919 38be 5d8c 15be
000003c0: 78f7 f63d 6a89 2fbe a5cd dc3e 8c7e 163d
000003d0: 1070 14be a586 25be 5771 2c3e c549 9a3e
000003e0: f17b 20be 00ff a9ba edf0 49be 0dac bd3d
000003f0: e744 ab3d f20b 0fbe e859 12be eb8d 1abe
0.3162782 0.33787045 0.2792641 0.19751014 -0.23572743 -0.22896264 -0.14764512 -0.12889239
-0.23956725 -0.24114361 0.22333942 0.071381256 -0.2131915 0.13447145 0.0014354597 0.47048935
0.17571618 -0.24824919 -0.009535313 -0.17020006 0.7409319 -0.03810492 0.10251025 -0.22748008
0.14340372 0.09604956 0.08387707 0.1601086 -0.0039867777 0.3732516 0.22335404 0.0005929023
-0.05774562 -0.14481346 0.20769887 0.3018843 0.02290073 0.06679286 -0.18518464 0.07379726
0.45436037 0.14231317 0.07451095 0.12559201 0.110952094 0.4630463 -0.13195461 -0.23716623
-0.23697013 0.020077497 0.20646499 -0.2213887 -0.06968675 0.009671386 0.10579208 0.5343859
-0.11138401 -0.002053216 0.49923116 -0.03847309 0.58381474 -0.17563649 0.31275356 -0.25361237
-0.25002158 0.7616424 0.0957997 0.23571001 0.10859133 0.12192221 0.6090095 -0.045581415
-0.2951084 -0.30502144 -0.1276108 -0.028427394 -0.09152936 -0.19841494 -0.06136614 0.0064355587
-0.21540938 0.17291887 -0.018475443 -0.2719933 -0.24058971 -0.22653463 0.13432108 0.14445588
-0.27205405 -0.19466265 -0.2392147 -0.12549233 0.2692236 -0.02221474 -0.07572477 -0.28940362
-0.18541284 0.13725172 0.12208443 0.15470888 0.31753775 -0.05485943 -0.028452441 0.2845681
0.35884744 0.098889 -0.18274365 -0.08100181 -0.014996386 0.08433864 0.23604518 0.1455393
-0.05775304 -0.017782535 0.016020514 -0.08738194 -0.10479069 -0.1764376 0.107417986 0.14690532
-0.03626156 -0.17425688 -0.0047648908 -0.08565509 0.017259672 -0.11744242 0.115893446 0.027841369
0.21196848 0.34476444 -0.13345526 0.19215597 -0.110026024 -0.097365685 -0.13301244 -0.035865206
0.15695576 0.16673075 0.050977364 -0.11729603 -0.13109198 0.18324624 -0.17281047 -0.1758822
0.19170679 -0.12078398 -0.03661415 -0.124035895 0.5553508 0.19538338 -0.08223393 -0.3374512
-0.331358 -0.03088972 -0.3175465 -0.10944419 -0.052541405 -0.04708305 -0.21367809 -0.22519833
-0.31338271 0.14023496 0.13028045 -0.06674073 -0.09248453 -0.33024073 0.018216342 0.18104976
0.033956915 0.07900609 -0.3203987 0.16273107 0.4567839 0.43061697 -0.057370186 0.10903122
-0.16289331 -0.22368075 0.10799029 0.12357445 -0.21438387 -0.055715844 0.056883827 0.10384214
-0.23000139 -0.23293515 -0.122473195 0.31972843 -0.22026375 -0.22293307 -0.21303338 0.013560027
-0.23286645 -0.0018662959 -0.15764396 -0.23274331 0.083106175 0.364289 0.5032699 0.14458399
-0.053091243 0.014634967 0.1236002 0.07616277 -0.037617654 0.15822293 0.14838506 -0.024744466
-0.09502082 0.096089914 0.07800804 0.19978555 -0.09028087 0.11692046 0.055879816 0.009150624
-0.13919735 -0.11348076 -0.14071484 -0.1558737 -0.012218714 -0.18632995 0.052509114 -0.1576194
-0.019611672 0.1310506 -0.15682152 -0.14797895 -0.14419124 -0.088909395 -0.06867437 -0.12518239
-0.12175965 0.46143064 -0.15342498 -0.19662638 -0.18736652 0.560648 -0.17978467 -0.14604326
0.1205892 -0.17142263 0.43125644 0.03674178 -0.14495873 -0.16164644 0.1684011 0.30134407
-0.1567228 -0.0012969673 -0.19720812 0.09261332 0.083627515 -0.139694 -0.14292109 -0.150932

net.0.bias f4 [128]
00000000: 6d25 303e c649 0b3e e5a0 273e 7b23 043e
00000010: 440f 01be 1d4d 063c 859a 893e 6f0d 453e
00000020: b3fc 26be 29c9 023d 8d25 5a3d b2c9 063e
00000030: d865 4bbe b521 b7be c74c e9bd 3753 babd
00000040: 628e ae3c 026e 703e 5fdf 123e 0094 c23d
00000050: aa43 da3d 1e22 283c d4d4 65be e340 cbbd
00000060: abaa 69be d432 7a3d 234e ac3e b2bb 253e
00000070: f3c1 c43d 557a bd3c 89db d23d f2e9 8c3d
00000080: 22ce 5a3e ca80 123e 44e2 923d 5171 94be
00000090: 6241 f63d 92b5 d23d 273c b5bc 8dd8 d93d
000000a0: 80fb 25be 3f1b fb3d 1f3d 5c3e b417 debd
000000b0: a1b7 8d3d e640 86bd c053 cc3d 84e7 6e3e
000000c0: 35a0 4e3d 9822 303e 0067 003d 75fa 533d
000000d0: 512e 4a3c bd8e 8ebd 2a2f 3bbe 844b febc
000000e0: 1783 4bbe 13d3 60bd 4a84 713e dad8 f73d
000000f0: 0e7c 333e 847b 1b3e 136e 263d f50c 32be
00000100: 6a48 8fbe 81b5 3a3e e85a 01bd 0029 2dbd
00000110: 7ce5 973d 7cef 29bd 8aa5 063e 9adf ae3c
00000120: fa08 13be de35 b93a 42c7 403d aa88 3b3d
00000130: e3aa 22be 52a4 22be f200 9e3d 7b99 e8bc
00000140: 9213 3fbe 0e28 7cbb 8a2e f23d d16a 23bd
00000150: 74f1 543e 4bde 123e c1b2 7f3d caf8 26be
00000160: d966 f73c 7d4c 083d 12b4 dabd d2ea ec3c
00000170: 83e1 593d 5b91 6c3c 4e08 453d 9564 1abd
00000180: 481a 283e 010d b93c fead 5d3d 1f70 853d
00000190: c88a c63d ce88 4ebe 3beb a23c 8977 443e
000001a0: 9f83 7e3e 0d46 b93d c407 33bd 5389 4c3b
000001b0: f116 0ebe 915a eabd ff5c d0bc 46a0 473d
000001c0: 4457 72be a4db 41be 8e30 ed3c 88a6 0cbe
000001d0: 7b6b 4d3d 344a edbd 9719 133e a234 89bd
000001e0: 9ccc 75bd 2690 68be 5dd5 853e 571d 053d
000001f0: 848e 923c c3b4 513d 6f7f c8bd 1995 4abd
0.17201777 0.13602361 0.1636997 0.1290416 -0.1260348 0.008197096 0.26875702 0.19243406
-0.16307335 0.031930123 0.053258467 0.13162878 -0.19863069 -0.35767904 -0.11391597 -0.09097903
0.021308128 0.23479465 0.14343022 0.09500885 0.10657437 0.01026204 -0.22444469 -0.099244855
-0.22819011 0.06108363 0.33653364 0.16184881 0.096073054 0.023129622 0.10295779 0.06880559
0.21367696 0.14306942 0.07172063 -0.28992704 0.120241895 0.10288538 -0.02212341 0.10637007
-0.16209221 0.12261056 0.21507691 -0.10844365 0.0691979 -0.06555347 0.099769115 0.23330504
0.050445754 0.17200696 0.03134823 0.051752526 0.012340144 -0.06960819 -0.1827971 -0.031041868
-0.19874226 -0.054888796 0.2358562 0.12101908 0.17527792 0.15183836 0.04063232 -0.17387755
-0.27984935 0.18233301 -0.031580836 -0.04227543 0.074168175 -0.041488156 0.13149086 0.021346856
-0.14358893 0.0014130434 0.047065027 0.04578463 -0.158855 -0.15882996 0.07715024 -0.028393498
-0.18659809 -0.0038476023 0.11825283 -0.03989679 0.20795232 0.1434261 0.062426332 -0.16305843
0.030200409 0.03327607 -0.10678877 0.028920565 0.05319358 0.014438952 0.048103623 -0.03769358
0.16416276 0.022589209 0.05412101 0.06515526 0.09694439 -0.20169374 0.019887557 0.19186224
0.24854897 0.09046564 -0.043708578 0.0031209781 -0.13875939 -0.114430554 -0.025434969 0.048736833
-0.23666102 -0.18931442 0.028953817 -0.13735402 0.05015133 -0.11586419 0.1436523 -0.06699492
-0.060009584 -0.22711238 0.26139346 0.032498684 0.017890222 0.05119778 -0.09789931 -0.049458597

net.2.weight f4 [128, 128]
00000000: 5419 18be a8ae d93d 990a d03b 6528 e63c
00000010: 90ad 59bd 3b62 263d dd8d 13be ccb8 42bd
00000020: 9dc9 8cbd c748 04be 7e64 c6bb 4a0a c3bd
00000030: 8f19 1dbd 8368 b13d faca 2b3e 34bd d5bc
00000040: 639b 733e e785 6f3d fa76 693c 9300 a03d
00000050: 4e3b 023e 51d4 90bd 6e56 013e 9e1a 4b3d
00000060: a81b 9e3d 2d7f 7e3d a104 913c 3eea 383e
00000070: cade fb3d ed22 8a3e ffb9 973c 7176 243e
00000080: 8659 44bc 01f3 933c ecbd 873d 4980 993d
00000090: b0e9 863d ffce 353c b06f 493d 343d 0f3d
000000a0: 7e90 953d 4143 bf3e 8afb 68bd 5c97 d3bc
000000b0: a3d4 fa3b dba2 003e 943b 163e 7d48 ff3d
000000c0: fefb da3e 9776 4e3e fadb 133d 9e29 f2bb
000000d0: 91ea 9bbc 453c 1a3e cf5c 8b3d 853c 1a3e
000000e0: fd41 b03d 4e69 0d3e 7991 21bd 235b e13c
000000f0: 0b38 73bd a447 293e faf7 1f3e 0046 e0ba
00000100: b536 1e3e 981d 0a3e e51b b93d 2aaa c9bb
00000110: 6264 bfbd 7db0 f53b 815a 973d 91b1 873d
00000120: a8b7 1f3e e132 233e c2c9 febc 9577 07be
00000130: f1f2 aabc 9462 babc 1bd0 213c 89b7 4fbd
00000140: 007a b1bc 9e82 083e c399 083d e6ef 113e
00000150: 85b6 d0bd 493e c3bd 04a5 873e 09db a9bd
00000160: 7803 cebd e030 eb3d cb0c 7c3e 2f67 933b
00000170: b818 d9bd c122 713d 8357 a13e 5cce b73d
00000180: e295 6a3e 7397 1a3e ef0a dc3d 055c 153e
00000190: 71b0 0b3e 4853 98bd 6691 6d3d 88e3 063d
000001a0: 7299 703e 63e6 773d b411 7a3d 0da6 913d
000001b0: fa37 983d 82b0 413c 4ae5 f93d e03f a73e
000001c0: 2631 29be b95b 123e 3947 283e 98f4 7cbd
000001d0: 541e 1d3d 6fde 833d 7c3d 043e f5e7 c83d
000001e0: 6870 76bd d88f 2b3e 01ab 1b3d 5a68 51bd
000001f0: 4e4f b9bd 77d1 83bc 08ef bb3e a568 5fbd
00000200: e912 9fbd bdb3 0a3e 61e3 c4bd a661 513d
00000210: 7fcd 9e3c 032f 233e ad4e 94be be1a 483d
00000220: 5aab 433d 8895 313e fe63 9abe dbb0 ed3c
00000230: ec10 e43c 8b35 e0bd a985 213e bff8 e63b
00000240: aa2a 603e fd94 9dba c603 eabb 41b1 c53d
00000250: 5b6b 88bd c42f 863d e6ad 853c b667 ccbd
00000260: a605 513d 4188 5abe 95d4 c8bd 0bb3 263e
00000270: 0953 67be 54cb 4d3e 1e5a 04be e6d1 87be
00000280: a75b d9bd 5550 63bd 6bed 98bd dba9 223e
00000290: 683f 89be f2aa c83d 2b39 283e 5e0a 1b3a
000002a0: 1a5e 073e d67d 303e dde8 48be 6385 0abe
000002b0: 5203 6abb 9535 b7bd 86e9 2dbd fecd 0f3e
000002c0: 6212 8b3e 5552 c13d 54cb 8e3d b2a3 95bd
000002d0: 8ddf 673d 5800 523e bc4a 04bd a34d 4b3d
000002e0: ebaa 8c3d ebd7 69bc 9d42 0abe a7e4 b2bd
000002f0: d372 a5bd 9214 263d 1137 563d 9e3a 413d
00000300: a380 253d 102f c33c 0533 323e 425d 94bc
00000310: 591e 5bbe 11ec 903d a792 833c 0ea3 7cb9
00000320: 619c 27bc c192 4cbe c354 53bd cdd0 f2bc
00000330: 5823 6f3e 48fc 153c 8a08 82bd 0913 a6bd
00000340: dcd9 e73c db85 d33b 2c3d 1abd f9e3 053e
00000350: 1baa e23c 8d31 aebd 4519 a53e fe94 2cbd
00000360: faf3 12bd 2201 6e3e d496 2cbe fe67 023e
00000370: bce7 503e 5ca6 423b d460 953c 2ef0 063e
00000380: 0551 91bd 6d2a 1d3c 8f95 85be 604a 3c3e
00000390: 9ba9 413e e198 a138 ee34 d4bd 4246 fa3d
000003a0: 8bd8 023d ec44 09bd 2b3e a6bd 9f02 273e
000003b0: de42 4e3e b65d 093e 678b 0c3e 3a07 203e
000003c0: 41c4 273d c537 ea3d 48d5 46be 9f6f b43d
000003d0: 8603 023e f4fc ea3d 2a5d bbbc 9bf4 d4bb
000003e0: 3ecf f6ba 0c70 7e3d b97e 9bbd ee44 89bd
000003f0: 0148 c1bd 19cc 363b 61ce 7abc e24a 45bc
-0.14853412 0.10629016 0.0063489196 0.028095433 -0.053144038 0.040621024 -0.14409585 -0.047539517
-0.06874392 -0.12918387 -0.00605446 -0.09523447 -0.038354453 0.08662512 0.16776648 -0.026091196
0.23789744 0.05847731 0.014249558 0.078126095 0.12717935 -0.07071746 0.12630627 0.04958593
0.07720119 0.062133003 0.017702403 0.18058106 0.12298353 0.2697977 0.018521307 0.16060807
-0.011984235 0.01806021 0.066280216 0.074951716 0.06587541 0.011096715 0.04917878 0.034970477
0.0730295 0.37355998 -0.05688051 -0.02582901 0.007654743 0.12562124 0.14671165 0.12464998
0.4277038 0.20162426 0.036098458 -0.007390215 -0.019032748 0.15062054 0.06804811 0.15062149
0.08606336 0.13809702 -0.039445374 0.027509278 -0.05937962 0.16531235 0.1562194 -0.0017110705
0.15450557 0.13487852 0.090385236 -0.0061543183 -0.093453184 0.0074978457 0.07390309 0.06625665
0.15597403 0.15937378 -0.031102065 -0.1322921 -0.020867797 -0.022752084 0.009876276 -0.050712142
-0.02166462 0.13331077 0.033349764 0.1425167 -0.10191063 -0.09533364 0.26493084 -0.08293731
-0.10059255 0.114839315 0.24614255 0.0044983844 -0.10600418 0.058871035 0.3151208 0.08974907
0.22908738 0.15096836 0.10744273 0.14585884 0.13641526 -0.0743776 0.05799999 0.032931834
0.23496035 0.06052245 0.06105204 0.0711175 0.07432552 0.011821868 0.122019365 0.3266592
-0.16522655 0.14292802 0.1643342 -0.0617567 0.038359 0.0643891 0.1291408 0.09809867
-0.060165793 0.16754091 0.03800488 -0.051124908 -0.09048329 -0.016091092 0.36705804 -0.054543156
-0.07767279 0.13545127 -0.096136816 0.051118515 0.019385098 0.15935902 -0.28966275 0.04885363
0.047770835 0.17342198 -0.30154413 0.029014995 0.0278401 -0.109477125 0.15773644 0.007048696
0.21891275 -0.0012022551 -0.007141563 0.09652949 -0.066611014 0.06552079 0.016318273 -0.09980719
0.051030777 -0.21341039 -0.09806172 0.16279237 -0.22590269 0.20097095 -0.12925002 -0.26527327
-0.106131844 -0.055496532 -0.07467159 0.15885107 -0.26806188 0.0979823 0.16428058 0.00059143256
0.1321949 0.17235503 -0.1962008 -0.13527445 -0.0035707545 -0.08945767 -0.042459033 0.14043424
0.27162462 0.09439532 0.069723755 -0.07306613 0.05660968 0.20507944 -0.032297835 0.049634587
0.068685375 -0.01427267 -0.13501973 -0.08735018 -0.080785416 0.04054696 0.05229861 0.047175042
0.04040588 0.023826152 0.17402275 -0.018110875 -0.21398295 0.07076276 0.01606114 -0.00024093335
-0.010230155 -0.19977857 -0.051594507 -0.02964058 0.23353326 0.009154387 -0.06349285 -0.081090994
0.028302126 0.006455166 -0.037655994 0.13075246 0.027669003 -0.08505545 0.32245842 -0.042134278
-0.035877205 0.2324262 -0.16854411 0.12734982 0.204009 0.0029701209 0.018234648 0.13177559
-0.070955314 0.009592635 -0.26090667 0.18387747 0.18912356 7.705554e-05 -0.10361658 0.12220432
0.031944793 -0.033512995 -0.08117326 0.16309594 0.20142695 0.13414654 0.13725053 0.15627757
0.040958647 0.114364184 -0.19417298 0.088103525 0.12696657 0.11474028 -0.022871573 -0.006498886
-0.0018830074 0.062118575 -0.0759253 -0.067026004 -0.09437562 0.0027892648 -0.015307994 -0.012041779

net.2.bias f4 [128]
00000000: 94d1 213d 4f50 353d 6da6 a43c cffc e13c
00000010: c230 7c3d cdfc 283d 070b debd 11bb 20bc
00000020: 9a42 73bd d38e 55bd f945 543e a95e babd
00000030: d618 82bd 130b a13e 82c4 72bd fea7 93bc
00000040: 1c6a a53d a7af 4bbe 074b 6bbd c41f a73d
00000050: 2046 49bb c035 3abd 003d cebd 6ccc f6bd
00000060: d10b 35bd d7a3 edbc 3de1 28bd f4f1 60bd
00000070: 0340 6cbb 1a0f d9bd b5f1 8b3d 566e c9bd
00000080: bdf1 c2bc 6073 5ebd acde 9e3d 610a 873d
00000090: 20ea b93c 0a7b eabb 62b5 183e 26fa 52be
000000a0: c7a1 29bd a604 4ebd 39d9 c3bd cd6d af3d
000000b0: 152d 64bd 03a9 d83c fb6d 0dbe bebc 1fbd
000000c0: ab34 953d eb2c ba3d e197 d73c 835c 263d
000000d0: 4e7e 09bd d7d0 b93d dec9 a93d 794d 4c3d
000000e0: 03c8 ba3d 4d93 ccbd b9a5 5abd 3721 a7bd
000000f0: ad15 abbb 0919 e13d 9d50 b63d e6cb debd
00000100: f8d1 503d 2065 d2bd a078 86bd fa48 b53d
00000110: 52cd 933e 29bc a5bd fa87 6d3d 69f6 293d
00000120: 69e2 1abd a3ea 60be 7e9b 2c3e 7121 d83c
00000130: c777 f3bd 7d00 55bd 29dc 10bd 18b6 5ebb
00000140: f627 df3d 40e1 183e a611 0bbd 5d31 9abd
00000150: 9d66 513d aff5 d73d 9057 ac3c e2da 363d
00000160: 098a 05be 9b82 87bd 476e 5dbd 90b7 9d3d
00000170: 127f 64ba 64fd a3bc 7b5d 4a3d c2b9 debd
00000180: 4468 9bbc ef95 c13d 1936 c4bd 7d84 4b3a
00000190: c7e1 30be c3fb 203d f612 8dbc bdd4 ea3c
000001a0: b23e 96bd 33ff 513d 46de 583d e481 ce3c
000001b0: d63d e3bd d2d0 7cbd 7708 8d3c a537 69bd
000001c0: 0dec 093c ca44 fa3d 3f08 e73d f53e abbd
000001d0: fa60 edbc 67a6 7d3d b874 0a3d 84fe 83bd
000001e0: 2cf5 273d 2b77 643b 034a b53c 610a 1ebe
000001f0: 8260 bbba 706e 223e 8ddb 1f3e 7c94 763c
0.03950651 0.04426604 0.02009889 0.027586369 0.061569937 0.041256715 -0.10841947 -0.009810225
-0.059389688 -0.05213816 0.20729817 -0.09100086 -0.06352393 0.3145376 -0.059269436 -0.01802444
0.080768794 -0.19891225 -0.0574446 0.08160356 -0.0030711964 -0.045461416 -0.100702286 -0.12050709
-0.044200722 -0.029008789 -0.04123043 -0.054918244 -0.0036048896 -0.105985835 0.06833211 -0.09835498
-0.02379691 -0.05430925 0.07757315 0.065937765 0.022694647 -0.0071557807 0.14912942 -0.20603237
-0.04141405 -0.0502974 -0.09562916 0.08565865 -0.055707056 0.026447779 -0.13811485 -0.038998358
0.07285436 0.09090599 0.026317539 0.04061557 -0.03356772 0.09073036 0.08290456 0.04987857
0.091201805 -0.09989033 -0.0533807 -0.08160632 -0.00522109 0.10991103 0.089020945 -0.10878734
0.05098149 -0.10273194 -0.06565976 0.0885181 0.28867584 -0.08092529 0.057991005 0.04149476
-0.037813578 -0.21964507 0.1685619 0.026383134 -0.1188808 -0.05200242 -0.03536621 -0.0033983048
0.10896294 0.14929676 -0.033952378 -0.075289465 0.05112325 0.10544907 0.021037847 0.044642337
-0.13040937 -0.06616708 -0.054060247 0.077010274 -0.0008716445 -0.020018287 0.049405556 -0.10875274
-0.018970616 0.09452426 -0.09580631 0.0007763578 -0.17273627 0.0393026 -0.017220955 0.028665895
-0.07336177 0.051268768 0.05294635 0.025208421 -0.11095779 -0.061722584 0.01721595 -0.056937832
0.008418095 0.12220152 0.1128087 -0.083616175 -0.028976906 0.06192627 0.033802718 -0.064450294
0.0410053 0.0034861069 0.022130018 -0.15433647 -0.0014295729 0.15862441 0.15611096 0.01505005

net.4.weight f4 [5, 128]
00000000: 7166 af3b 461c 8d3d ae7b 90be 5288 893d
00000010: 0c81 643e 94e8 6abd 4741 9ebd fb5c 9fbd
00000020: aacc 8dbd 69a1 ecbb 289a 8a3d 8138 1d3d
00000030: 508d 1e3c 7f9a c73e c205 363c 63eb 2ebd
00000040: 518d a5bd 9e37 8cbd 12a6 313d 7029 71bc
00000050: 5a4f 103d 3bfa 8d3d 985e ca3d c140 7ebc
00000060: e31c 9f3d 348e 0bbe 9a46 81be d315 1a3d
00000070: 0330 02bd d59a 2bbd d90b 0e3d 6af0 55bd
00000080: 8c89 46be bb6d 03bc 03d9 b2bd 72f1 7abd
00000090: b7b4 233d 9395 03be c8f5 8e3e 71f6 3c3c
000000a0: 02d2 88be 0114 1bbd 98f5 f23b 053b 2d3d
000000b0: a8a2 f23d e5a5 c2bd cb06 2dbd e6e2 6dbe
000000c0: 1f92 0fbe 5f6d 9b3d 1468 aabc d3fb 3abe
000000d0: 47b1 57bc b01c 053b 92d3 85be 442a 933d
000000e0: 780f 003d 1ca5 b5bc c821 84be b382 353d
000000f0: d283 9d3c 170a a2be 9963 f3bc 345c 803e
00000100: d14c 57be fd19 813c 70ef 2cbc ffda 94bc
00000110: 1c6d 083e 98c7 733d 0187 70be 3246 5fbc
00000120: c44b e5bc daec e83d 8761 2d3d 59cf 7dbd
00000130: b799 b2bd 9ff8 dcbc 873c fdbb e848 81bd
00000140: ab45 073e 835b aa3d dada 97bc 746a ed3c
00000150: 6df6 a5bd 5e7b bd3c f131 463c 31c4 6cbd
00000160: f8d6 0f3c 9cf6 2cbe d83f bfbd e91c 47be
00000170: 6666 d1bd c9b0 a43d 2663 6a3d 97dc 05bd
00000180: 8dae 14bd 7eab 9d3d 8974 a13d b14f bfbd
00000190: 4cc6 0dbe 1968 943c b953 2fbd fdad 55bd
000001a0: b291 3f3d e270 8e3d b4df 4fbe 4e46 553a
000001b0: ddb1 543d c894 e7bc 99cc 38be dd6e 4ebe
000001c0: 14ec b9be ceb2 433e d528 4bbe b355 38bd
000001d0: bfed a23c 11d1 27bd 7f73 23bc e114 98bd
000001e0: 026a ccbd 14d2 973c 6767 213c be1d b03e
000001f0: 3504 963d 5604 c63d 1404 dc3d 52ab a63c
00000200: 3613 91be 76fa 31bd c939 28bd 4d68 8d3d
00000210: 98ef cfbd 18dc 723d abb6 0d3d d891 133d
00000220: 8968 873d 1140 193d b4a2 543e a9f6 11be
00000230: 230e df3c a4b6 893e 4372 8f3d 9c95 24be
00000240: dde7 acbd 0962 1e3e f464 05bd ffa1 abbd
00000250: a636 cd3c 264a 46bc 2763 14bc ad6f 753d
00000260: 601b f43c 7f4a 2a3d 1da5 f0bd b629 983d
00000270: 9bdc 673a d19f e03c f8bf 903c 40b1 93bd
00000280: 36c1 cebc 4d25 563d df3c 74bc c61a 25bd
00000290: 16f5 b2bc f76d 07be ba95 d9be 1696 1b3d
000002a0: 38a8 2cbe 33ed 8c3c e99f bb3d cb1f 93bd
000002b0: 1930 d3bd 26fc f7bd 8de3 3abe 69c0 16be
000002c0: 8008 24be 12bf babc 2934 a83c 64f1 533c
000002d0: fb78 923d 5219 97bd 7741 8bbe e4b6 fa3c
000002e0: 1847 f8bd ead7 da3d 46e4 06be 4951 8cbc
000002f0: 286b 25bc 2a73 3ebe f726 9e3c 1b03 2b3c
00000300: 9f59 0ebe a84a 2cbd 1a72 51bc 3a56 b13e
00000310: e5e4 a13e 737c 8b3d 34cc 07be a4b6 acbd
00000320: 69be 70bd 3a86 34bd 80d7 84be 908b 8fbc
00000330: 2e44 c9bd 3a16 90bd ee3d b43d eafc 2e3d
00000340: 7b10 3dbe 2610 66bd 18d0 cabb a540 9e3d
00000350: 9f56 35be 65ff 1b3e bc0d 31bd be51 23bd
00000360: e0c8 7fbc a9c0 3ebe 8891 d7bc 0c1d 19be
00000370: 5ef1 96bc 220e 313d b6b8 2c3d 95fc 5c3d
00000380: e8b6 62bb 4b2c 5a3c 13e5 4dbd 9cfb b43c
00000390: de75 edbd c263 e53d a687 c2bc 48e1 5ebd
000003a0: b75d adbd 43fa b73c 5b1c 1abe c42c ee3a
000003b0: b53c 893c 7c4b a73d 822d a8bd bd36 94bd
000003c0: f8df 01bd ef40 58be fbb9 963e 283b ad3c
000003d0: f78f 0ebb 2124 83bd e1d3 f23c a864 d2bc
000003e0: 741b 83b9 00b6 ecbd 73ed 8c3e 1f23 ba3e
000003f0: f584 afbd 4c85 85be 9302 843e 775a 693c
0.005352788 0.06890158 -0.2821936 0.06715454 0.22314852 -0.05735071 -0.077272944 -0.077814065
-0.06923802 -0.00722139 0.06767684 0.038383964 0.009677246 0.3898506 0.011109771 -0.04270495
-0.080835946 -0.06846546 0.043371268 -0.014719352 0.035231926 0.06932493 0.098813236 -0.015518368
0.077691816 -0.13628465 -0.25249177 0.03761847 -0.03178407 -0.041895706 0.034679268 -0.05223123
-0.19388407 -0.008021767 -0.08732798 -0.061265416 0.039967265 -0.12850027 0.2792189 0.011533366
-0.26722723 -0.037860874 0.007414531 0.042292614 0.118474305 -0.09504298 -0.042242806 -0.23231086
-0.14020585 0.0758922 -0.020801581 -0.18260126 -0.013164825 0.0020311289 -0.26137978 0.07185796
0.031264752 -0.022173457 -0.25807023 0.044314098 0.019227896 -0.31648323 -0.029710578 0.25070345
-0.21025397 0.015759462 -0.010555133 -0.018170832 0.13322872 0.05951652 -0.23489 -0.013627576
-0.02799023 0.11373301 0.042329337 -0.06196532 -0.08720725 -0.02697402 -0.0077281627 -0.06312734
0.1321017 0.08318236 -0.018536974 0.028981425 -0.081036426 0.023130115 0.012096868 -0.05780429
0.00877928 -0.16890949 -0.09338349 -0.19444622 -0.10224609 0.080415316 0.05722346 -0.032681074
-0.036299277 0.07698725 0.078835554 -0.09341372 -0.13845176 0.018116044 -0.042804454 -0.05216788
0.046769805 0.069551244 -0.2030018 0.00081357814 0.051927436 -0.028269187 -0.18046798 -0.20159478
-0.36312926 0.19111177 -0.19839795 -0.045003604 0.019888757 -0.040970866 -0.009976267 -0.07425857
-0.09981157 0.01853279 0.009851313 0.3439769 0.07325021 0.09668796 0.10742965 0.020345364
-0.2833497 -0.04345175 -0.041070733 0.069046594 -0.10153121 0.05929193 0.034598034 0.03602776
0.066117354 0.037414614 0.20765191 -0.1425425 0.02722842 0.26897156 0.070042156 -0.16072696
-0.08442662 0.15467085 -0.03256698 -0.08380508 0.025050472 -0.012102639 -0.009056843 0.059920955
0.02979821 0.04157495 -0.11750243 0.07429831 0.00088448235 0.027419956 0.017669663 -0.07211542
-0.025238615 0.052281667 -0.014907091 -0.040308736 -0.021845382 -0.13225542 -0.42497045 0.03798493
-0.16861045 0.01720295 0.0916136 -0.071837984 -0.10311908 -0.121086404 -0.18250866 -0.14721836
-0.16018867 -0.022796188 0.020532684 0.01293597 0.071519814 -0.07377876 -0.27198383 0.030604787
-0.12122935 0.106857136 -0.13173017 -0.017128604 -0.010096349 -0.18598619 0.01930569 0.010437752
-0.13901375 -0.042063385 -0.012783552 0.34636098 0.31619945 0.06810846 -0.13261491 -0.084332734
-0.05877534 -0.04407332 -0.25945663 -0.017522603 -0.09827457 -0.070354894 0.08800875 0.042721666
-0.18463318 -0.056167744 -0.0061893575 0.07727174 -0.17708825 0.15234144 -0.04322599 -0.039872877
-0.015611857 -0.18628182 -0.026314512 -0.14952487 -0.01842564 0.04322637 0.04216834 0.05395182
-0.0034593884 0.013316224 -0.05026729 0.022092633 -0.11594747 0.11200668 -0.023746323 -0.054414064
-0.0846514 0.022458201 -0.15049879 0.00181713 0.01675258 0.081686944 -0.08211805 -0.07237003
-0.031707734 -0.2111852 0.29438767 0.021146372 -0.002175329 -0.064033754 0.029642047 -0.025682762
-0.0002500672 -0.11558151 0.2752491 0.3635492 -0.085702814 -0.2607826 0.25783214 0.01424276

net.4.bias f4 [5]
00000000: e9e9 383e 6138 bebb fe14 52bd d904 43bd
00000010: 4865 383e
0.1805798 -0.0058050607 -0.05128955 -0.047612045 0.18007386

net.0.weight f4 [128, 25]
00000000: 2fdb a03e d736 ae3e e286 8e3e a1c0 4b3e
00000010: 8862 71be 2f75 6abe 4830 17be 5efc 03be
00000020: 1e51 75be 5aee 76be fe2e 663e 5630 923d
00000030: df4e 5abe 8968 053e cac3 683a a101 f03e
00000040: f1ee 333e 0935 7ebe 003a 1cbc ed48 2ebe
00000050: a2e3 3d3f e813 1cbd ee55 d63d 8af0 68be
00000060: 6dd8 123e cd9b c53d 761e aa3d 23aa 243e
00000070: 4f2c 1dbc c6f5 bf3e cb3e 693e 006d 1b3a
00000080: ac86 6cbd fb49 14be 318d 573e 6b66 963e
00000090: 509a bb3c 6fec 863d 0ba1 3dbe b464 963d
000000a0: 1973 e93e 8bba 113e bc24 9c3d 319b 003e
000000b0: da3a e33d 227b ee3e 1c1f 07be b4db 72be
000000c0: 4ca8 72be 9079 a43c 55bc 523e b8b3 62be
000000d0: f1b2 8bbd 473f c43b 73da d73d da5a 0a3f
000000e0: 4d1d e4bd 408f 06bb 8a01 013f 5a1f 08bd
000000f0: 5ada 133f 0dda 33be c911 a03e 7bd9 81be
00000100: d402 80be 61c6 423f a232 c43d 99c5 713e
00000110: 2265 de3d 5ab2 f93d 2eb8 1b3f 94b3 3abd
00000120: 7318 97be c52b 9cbe 68ac 02be 2fdd d9bc
00000130: 7c81 babd 492d 4bbe 6cd8 7bbd bd75 8b3b
00000140: 4794 5cbe a511 313e d059 97bc b542 8bbe
00000150: 265d 76be b2f8 67be 778b 093e ee0e 143e
00000160: ab4a 8bbe a555 47be b3f4 74be 1081 00be
00000170: c352 8a3e b0fb b5bc 9715 9bbd b62c 94be
00000180: dddc 3dbe aae9 0a3e 8710 f83d 016c 1e3e
00000190: 6c9f a23e 48b4 60bd 1815 e9bc 920a 913e
000001a0: 360e b83e 5186 ca3d 2721 3bbe 47e4 a5bd
000001b0: 67b3 75bc bdb9 ac3d 1502 723e 4108 153e
000001c0: 748e 6cbd aeac 91bc 743d 833c 4df5 b2bd
000001d0: 809c d6bd 0fac 34be f6fd db3d 596e 163e
000001e0: 0087 14bd 6570 32be cd22 9cbb f06b afbd
000001f0: 2864 8d3c a785 f0bd f4eb ef3d 4b8c da3c
00000200: 196e 583e 1344 af3e 7fa8 08be 89c4 443e
00000210: 5355 e1bd a967 c7bd 6a34 08be 65e7 12bd
00000220: 03b9 203e 546f 283e 3d9a 553d e738 f0bd
00000230: fa3c 06be e7a4 3b3e 3af5 30be 771a 34be
00000240: c94e 443e 975d f7bd b8f8 15bd 8806 febd
00000250: 75d0 0d3f 9512 483e 8b3d a8bd 67c6 acbe
00000260: c1a7 a9be 6dae f0bc 7495 a2be ee1b ddbd
00000270: a835 57bd 28da 40bd 68b8 5bbe 05fc 67be
00000280: b373 a0be c199 0f3e 2965 073e 6c50 8abd
00000290: 8789 bcbd 5015 a9be 703a 953c 2171 383e
000002a0: 6816 0b3d f2cd a13d 4c0b a4be f9a2 263e
000002b0: d576 e93e 2684 dc3e 00fd 6abd eb9c df3d
000002c0: c11b 26be 910c 65be 7f0a df3d c5e1 f73d
000002d0: 7287 5bbe 4c36 64bd 04ff 683d ba33 d33d
000002e0: 7c85 6bbe 8d86 6ebe 3ad3 fabd 1e52 a33e
000002f0: d28c 61be 9148 64be 6c25 5abe e02a 5e3c
00000300: 8b74 6ebe 809e f4ba 6b6d 21be 4354 6ebe
00000310: 9233 aa3d 3259 ba3e 5cae 003f d30d 143e
00000320: 3476 59bd 80c7 6f3c 1a22 fd3d 3afb 9b3d
00000330: f814 1abd 3105 223e 41f2 173e e8b4 cabc
00000340: 479a c2bd caca c43d aec2 9f3d 9594 4c3e
00000350: 2de5 b8bd fe73 ef3d 3ce2 643d 80ec 153c
00000360: c089 0ebe 9a68 e8bd 8d17 10be 5b9d 1fbe
00000370: 0031 48bc 47cd 3ebe cc13 573d fb66 21be
00000380: a8a8 a0bc c7be 043e d295 20be cb87 17be
00000390: dea6 13be 2116 b6bd 26a5 8cbd d02f 00be
000003a0: 205d f9bd 9f3d ed3e 701b 1dbe 6d58 49be
000003b0: 02dd 3fbe a884 0f3f 7919 38be 5d8c 15be
000003c0: afb9 ec3d 6a89 2fbe 826c dc3e 8c7e 163d
000003d0: 1070 14be a586 25be 5771 2c3e 298b 993e
000003e0: f17b 20be 00ff a9ba edf0 49be 2e04 c23d
000003f0: 8126 a83d f20b 0fbe e859 12be eb8d 1abe
0.31417224 0.34026214 0.27837282 0.19897701 -0.23572743 -0.22896264 -0.14764512 -0.12889239
-0.23956725 -0.24114361 0.22478864 0.071381256 -0.2131915 0.13028158 0.00088792725 0.46876243
0.17571618 -0.24824919 -0.009535313 -0.17020006 0.74175465 -0.03810492 0.104656085 -0.22748008
0.14340372 0.09648857 0.08306591 0.16080527 -0.0095930835 0.37492198 0.2277786 0.0005929023
-0.05774562 -0.14481346 0.21049954 0.29375014 0.02290073 0.06588065 -0.18518464 0.07343426
0.45595625 0.14231317 0.07624194 0.12559201 0.110952094 0.46578318 -0.13195461 -0.23716623
-0.23697013 0.020077497 0.20579655 -0.2213887 -0.0682124 0.0059889886 0.10539713 0.5404488
-0.11138401 -0.002053216 0.50392973 -0.033233024 0.57755053 -0.17563649 0.3126357 -0.25361237
-0.25002158 0.7608395 0.0957997 0.23610534 0.10859133 0.12192221 0.6082791 -0.045581415
-0.2951084 -0.30502144 -0.1276108 -0.026594726 -0.091067284 -0.19841494 -0.061485693 0.004255979
-0.21540938 0.17291887 -0.018475443 -0.2719933 -0.24058971 -0.22653463 0.13432108 0.1445882
-0.27205405 -0.19466265 -0.2392147 -0.12549233 0.27016267 -0.02221474 -0.07572477 -0.28940362
-0.18541284 0.13565698 0.12112527 0.15470888 0.31762254 -0.05485943 -0.028452441 0.28328377
0.35948342 0.098889 -0.18274365 -0.08100181 -0.014996386 0.08433864 0.23633607 0.1455393
-0.05775304 -0.017782535 0.016020514 -0.08738194 -0.10479069 -0.1764376 0.107417986 0.14690532
-0.03626156 -0.17425688 -0.0047648908 -0.08565509 0.017259672 -0.11744242 0.11714926 0.026678225
0.21135749 0.34231624 -0.13345526 0.19215597 -0.110026024 -0.097365685 -0.13301244 -0.035865206
0.15695576 0.16448718 0.052149046 -0.11729603 -0.13109198 0.18324624 -0.17281047 -0.1758822
0.19170679 -0.12078398 -0.03661415 -0.124035895 0.55396205 0.19538338 -0.082148634 -0.3374512
-0.331358 -0.029380048 -0.3175465 -0.10796343 -0.052541405 -0.04708305 -0.21457064 -0.22654732
-0.31338271 0.14023496 0.13222183 -0.067536205 -0.09205919 -0.33024073 0.018216342 0.18011905
0.033956915 0.07900609 -0.3203987 0.16273107 0.45598474 0.4306957 -0.057370186 0.109186016
-0.16221525 -0.22368075 0.10890674 0.12103609 -0.21438387 -0.055715844 0.056883827 0.103126004
-0.23000139 -0.23293515 -0.122473195 0.31898588 -0.22026375 -0.22293307 -0.21303338 0.013560027
-0.23286645 -0.0018662959 -0.15764396 -0.23274331 0.083106175 0.36396176 0.5026605 0.14458399
-0.053091243 0.014634967 0.1236002 0.07616277 -0.037617654 0.15822293 0.14838506 -0.024744466
-0.09502082 0.096089914 0.07800804 0.19978555 -0.09028087 0.11692046 0.055879816 0.009150624
-0.13919735 -0.11348076 -0.14071484 -0.1558737 -0.012218714 -0.18632995 0.052509114 -0.1576194
-0.019611672 0.12963401 -0.15682152 -0.14797895 -0.14419124 -0.088909395 -0.06867437 -0.12518239
-0.12175965 0.46336076 -0.15342498 -0.19662638 -0.18736652 0.5606179 -0.17978467 -0.14604326
0.11558854 -0.17142263 0.43051535 0.03674178 -0.14495873 -0.16164644 0.1684011 0.29988983
-0.1567228 -0.0012969673 -0.19720812 0.094734535 0.08210469 -0.139694 -0.14292109 -0.150932

net.0.bias f4 [128]
00000000: 993e 303e 1310 0b3e f92b 283e a4fc 033e
00000010: ed13 01be 010c ef3b 19bb 893e dce8 443e
00000020: b3fc 26be 9bea f73c 8127 5b3d 4720 073e
00000030: d865 4bbe b521 b7be 87e7 e5bd 4a24 b8bd
00000040: 5bd8 ab3c b868 6f3e a899 123e 367d c23d
00000050: f1ee da3d 22e5 1e3c 5e3e 63be 5af3 cebd
00000060: abaa 69be fbc9 7a3d a570 ac3e 6663 253e
00000070: 7033 c43d 3cf9 bf3c 1347 cf3d 25ee 8b3d
00000080: ba60 5b3e 787a 123e 8524 943d 7c60 90be
00000090: 7567 f53d a8f2 d23d 60bb a0bc c9dd d93d
000000a0: 6016 25be d9c5 f83d 4956 5c3e 4114 ddbd
000000b0: a4c7 8e3d 7afa 84bd 9923 ce3d 48aa 6e3e
000000c0: e5b8 5c3d 5cc6 2f3e de90 003d 2e50 553d
000000d0: 0041 573c 22f5 90bd 2a2f 3bbe 0b36 f6bc
000000e0: 1783 4bbe a267 60bd 0c1b 713e ae6f f83d
000000f0: a1a1 353e 6a8e 1b3e 11d3 2c3d f50c 32be
00000100: 6a48 8fbe a8c0 3a3e 8bee f6bc a19c 2cbd
00000110: 15b0 973d 770c 22bd 1d06 073e b51c b83c
00000120: 3a73 13be ea52 ba3a 4ba3 413d 338a 3f3d
00000130: 775a 22be 52a4 22be 0586 9c3d dbac dcbc
00000140: 9213 3fbe cf02 63bb 4692 f23d 8bfd 16bd
00000150: acea 543e ea6f 143e 3a75 803d caf8 26be
00000160: 99ae f83c 449d 063d c476 debd b430 e03c
00000170: 0ddf 563d aea7 683c 9f70 3f3d bf46 14bd
00000180: 6a84 283e ce33 c73c 7fb3 573d 16fe 873d
00000190: ca21 c43d ce88 4ebe 5bfb a53c 41d9 433e
000001a0: bd05 7e3e 7950 b93d 7722 33bd b973 5e3b
000001b0: ecce 0bbe 76de e9bd 986c aebc 276d 4d3d
000001c0: d597 71be b551 43be 9248 ec3c 88a6 0cbe
000001d0: d070 473d 46d7 f1bd c39c 123e 55b8 89bd
000001e0: 036f 76bd f360 69be a0c2 853e ed1d 073d
000001f0: 9627 913c fac6 4d3d 876f c7bd 1ed0 62bd
0.17211379 0.1358035 0.16423024 0.12889344 -0.12605257 0.007295132 0.26900557 0.19229454
-0.16307335 0.030263236 0.05350447 0.13195907 -0.19863069 -0.35767904 -0.11225801 -0.089912966
0.02097719 0.23379791 0.14316428 0.09496538 0.10690106 0.009698184 -0.2219176 -0.101050094
-0.22819011 0.06122778 0.3367969 0.16151199 0.095801234 0.023434274 0.10120978 0.06832532
0.21423617 0.1430453 0.07233528 -0.28198612 0.119826235 0.10300189 -0.019620597 0.10638005
-0.16121817 0.121471114 0.2151729 -0.10794879 0.06971672 -0.06493087 0.100653835 0.23307145
0.053887267 0.17165512 0.031388156 0.05207842 0.013138056 -0.070780054 -0.1827971 -0.030055067
-0.19874226 -0.054786332 0.23545474 0.12130676 0.17737438 0.15191045 0.042193476 -0.17387755
-0.27984935 0.18237555 -0.030143043 -0.04214156 0.07406632 -0.03956267 0.13185926 0.022474626
-0.14399424 0.0014215384 0.04727487 0.046762656 -0.15854822 -0.15882996 0.0764275 -0.026937893
-0.18659809 -0.0034639125 0.11844306 -0.03686289 0.20792645 0.14495817 0.06272359 -0.16305843
0.030356692 0.032864824 -0.108624965 0.027366973 0.05245881 0.014200134 0.046738263 -0.03620028
0.16456762 0.024316695 0.052661415 0.0664026 0.09576757 -0.20169374 0.020261457 0.19125845
0.24806876 0.09048552 -0.04373404 0.0033943488 -0.13653153 -0.11419384 -0.021292016 0.050152924
-0.23593076 -0.19074138 0.028843198 -0.13735402 0.04869157 -0.11808638 0.14317612 -0.06724612
-0.060164463 -0.2279089 0.2612505 0.032987524 0.017719071 0.050238587 -0.09738069 -0.055374257

net.2.weight f4 [128, 128]
00000000: 4df7 17be 5c39 da3d 8bd3 e33b 6e17 e73c
00000010: 5baa 57bd 87c4 1d3d 31d3 13be 2f40 47bd
00000020: 9dc9 8cbd 3077 03be 6055 f0bb 60a5 c3bd
00000030: 8f19 1dbd 8368 b13d 82bf 2a3e b9db e0bc
00000040: fd7a 723e 27f7 6d3d adcc 663c 2f93 9f3d
00000050: b521 033e 29dd 8cbd f228 033e 07fd 4a3d
00000060: a81b 9e3d 78ef 7f3d de5f 8f3c bc69 373e
00000070: c759 fc3d 954f 893e 11db 8c3c 31eb 243e
00000080: 4076 42bc ca52 943c e583 873d 6a00 9a3d
00000090: fd20 863d 34c3 343c 3a45 443d 5610 0f3d
000000a0: 3fb6 9a3d 736b be3e 8a68 64bd 5c17 bdbc
000000b0: 33d3 fe3b b99a 003e 8a02 173e 2456 fd3d
000000c0: 1a7f db3e 82d0 4e3e 4969 133d fb63 f2bb
000000d0: a81b aabc 4907 193e cf5c 8b3d f142 1c3e
000000e0: fd41 b03d 3a88 0c3e 7ec9 21bd 4900 ec3c
000000f0: 2acf 6cbd 6ea9 293e c451 1f3e 0046 e0ba
00000100: b536 1e3e 634f 0a3e b172 bd3d 63cb cabb
00000110: c73e c1bd 97b4 043c 74ef 963d 4c21 8a3d
00000120: 38a4 1e3e 78a9 233e 7d2a 02bd bb47 05be
00000130: 3c4b b7bc 9462 babc 1fc5 123c 03d7 4fbd
00000140: 007a b1bc 1773 083e 977c 033d e7be 133e
00000150: 8c47 d1bd 0c94 c1bd bf5f 883e 09db a9bd
00000160: f6e5 c9bd 17f6 e63d f6d5 7b3e db07 b23b
00000170: fb75 d9bd 6033 723d 4b6b a13e 2b4d b73d
00000180: 3604 6b3e 5191 1e3e d494 db3d d06c 153e
00000190: 526c 0a3e 4853 98bd 3d1a 713d 6bc8 063d
000001a0: 658c 723e 2c85 783d 3bca 753d b0fa 8f3d
000001b0: f1f3 9c3d a460 543c c84d f73d 879b a73e
000001c0: cc88 25be 441a 123e 1b50 283e 98f4 7cbd
000001d0: 60e5 133d b381 7d3d ed05 063e 5dca c63d
000001e0: acd2 82bd 1b7c 293e 6f0c 1b3d d0f4 51bd
000001f0: b50c babd e621 85bc 90cd bb3e 5d8f 52bd
00000200: c9b9 9fbd 425e 0a3e 8d73 c4bd cb22 543d
00000210: 05aa 9a3c 7640 203e 594d 94be 455d 413d
00000220: 5aab 433d 41df 313e 4b98 9abe 60cf ef3c
00000230: ec10 e43c 8b35 e0bd 9844 203e 5dbd c23b
00000240: 6bfa 5d3e 5fdb 3fb9 1bd3 f8bb b725 c43d
00000250: 04ed 87bd 3541 873d 685a 8d3c 6eb7 cbbd
00000260: a605 513d c61d 5abe d229 c9bd d525 253e
00000270: e336 66be c506 4c3e 6fd5 03be e6d1 87be
00000280: 0e6c dabd a68c 67bd e0c6 98bd 7948 203e
00000290: bbef 88be b5ad c63d 2cd6 273e f303 a5ba
000002a0: f18a 073e 4f6a 2e3e 0539 48be 7b57 08be
000002b0: c572 49bb 6f07 b8bd e360 2fbd e3ca 0e3e
000002c0: ba53 8a3e fb15 c23d 5101 8d3d 2ae4 96bd
000002d0: d46f 623d 0abb 4f3e bc4a 04bd 0b7b 493d
000002e0: ebaa 8c3d b06e 3cbc ef29 0abe edf7 b1bd
000002f0: eb8d a3bd 6725 253d ddb7 543d 9e3a 413d
00000300: a380 253d 246d b93c bd6e 323e f4a5 95bc
00000310: 6a9f 5bbe ab0f 913d 2e76 6e3c e9a2 223a
00000320: 619c 27bc db1c 4dbe 22ca 51bd 70ab f6bc
00000330: 95df 6f3e 48fc 153c 44bf 84bd 8899 a4bd
00000340: dcd9 e73c fee8 f13b 32b4 1cbd 2727 083e
00000350: 8e48 da3c 2fe9 abbd d641 a53e fe94 2cbd
00000360: 1163 0bbd c4b7 6c3e eed6 2cbe 44b1 043e
00000370: 0b82 533e 6f75 783b 1dfe 893c 3d5b 053e
00000380: 8121 92bd a286 1e3c ffe5 85be a6b8 3b3e
00000390: 62ef 403e e198 a138 0822 d3bd add9 fa3d
000003a0: 1e95 0b3d 4356 0bbd 2b3e a6bd d217 273e
000003b0: 468b 4b3e 5f43 0a3e 7098 0b3e d52e 1f3e
000003c0: 466c 333d 38cc e63d ec60 46be 9f6f b43d
000003d0: ddc3 fe3d da54 e73d db45 a4bc 9bf4 d4bb
000003e0: 8139 87bb 423c 7d3d 5374 9cbd 6ba3 89bd
000003f0: 98db c1bd 5f10 543b ec33 91bc dda3 16bc
-0.14840432 0.10655472 0.006952708 0.028209414 -0.052652698 0.0385175 -0.14436032 -0.048645195
-0.06874392 -0.12838435 -0.0073343962 -0.09553027 -0.038354453 0.08662512 0.16674617 -0.027448522
0.23679729 0.05809703 0.014086884 0.07791745 0.12805827 -0.068781205 0.12808588 0.049557712
0.07720119 0.062484235 0.017501768 0.17911428 0.12321811 0.2681853 0.017194303 0.16105343
-0.011869013 0.018105883 0.06616954 0.0751961 0.06549261 0.011032868 0.047917582 0.03492769
0.07554292 0.37191352 -0.05576376 -0.023082428 0.0077766418 0.12559022 0.14747062 0.12369946
0.42870408 0.20196727 0.03598908 -0.0073971725 -0.02076514 0.14944185 0.06804811 0.15259911
0.08606336 0.13723841 -0.0394988 0.02880873 -0.057814755 0.16568539 0.15558535 -0.0017110705
0.15450557 0.13506846 0.09250391 -0.0061887964 -0.09435802 0.008099697 0.07369891 0.06744632
0.15492332 0.15982616 -0.0317788 -0.13015644 -0.022374742 -0.022752084 0.00895813 -0.05074216
-0.02166462 0.13325153 0.03210124 0.14428292 -0.102187246 -0.09452066 0.26635548 -0.08293731
-0.09858315 0.11277407 0.24593338 0.0054330654 -0.10618206 0.059131026 0.3152717 0.089502655
0.22950825 0.15485121 0.10721746 0.1459229 0.13517883 -0.0743776 0.058862913 0.032905977
0.23686369 0.060673878 0.060007315 0.07030237 0.07663716 0.012962494 0.120753825 0.32735845
-0.16165465 0.14267832 0.16436808 -0.0617567 0.03610742 0.06189127 0.13088198 0.097065665
-0.06387839 0.16551249 0.037853654 -0.051258862 -0.09084455 -0.016251516 0.3668027 -0.051406253
-0.077991076 0.13512519 -0.09592352 0.051790994 0.0188799 0.1564959 -0.28965262 0.04720809
0.047770835 0.17370321 -0.30194315 0.029273689 0.0278401 -0.109477125 0.15651166 0.005942984
0.21677558 -0.00018296902 -0.007593525 0.09577506 -0.06637004 0.06604234 0.017255023 -0.09947096
0.051030777 -0.2130042 -0.0982243 0.16127713 -0.22481875 0.19924457 -0.12874387 -0.26527327
-0.10665141 -0.056530617 -0.074598074 0.15652646 -0.267454 0.09701101 0.16390294 -0.0012589678
0.13236596 0.17032741 -0.19553001 -0.13314621 -0.0030738574 -0.08985793 -0.042817008 0.13944583
0.27017003 0.09476849 0.06885017 -0.073677376 0.05528243 0.20286193 -0.032297835 0.04918961
0.068685375 -0.011500999 -0.13492559 -0.08689866 -0.07986053 0.040318873 0.05193316 0.047175042
0.04040588 0.02263505 0.17425056 -0.01826761 -0.2144753 0.070830666 0.014554543 0.0006204085
-0.010230155 -0.20030539 -0.05121816 -0.030111045 0.23425134 0.009154387 -0.064817935 -0.08037096
0.028302126 0.007382511 -0.038257785 0.13296185 0.026645925 -0.083940856 0.3227679 -0.042134278
-0.034030024 0.23116976 -0.16878864 0.12958246 0.20655076 0.0037911793 0.016844803 0.13023086
-0.071352966 0.009675654 -0.26152036 0.18332157 0.18841317 7.705554e-05 -0.10309225 0.122485496
0.034077756 -0.034017812 -0.08117326 0.1631768 0.19877347 0.13502263 0.13632369 0.15545209
0.04380443 0.112694204 -0.1937291 0.088103525 0.12439702 0.11295481 -0.020052841 -0.006498886
-0.004126728 0.061825044 -0.076393746 -0.06720623 -0.09465712 0.003235839 -0.017724954 -0.0091943415

net.2.bias f4 [128]
00000000: 9e3d 223d aee9 333d 57e5 aa3c cffc e13c
00000010: 3710 7b3d cdfc 283d 070b debd 99fc 24bc
00000020: 9a42 73bd d38e 55bd c32a 543e 6904 bdbd
00000030: d618 82bd 4917 a13e 82c4 72bd 5e76 9bbc
00000040: 8f50 a53d a7af 4bbe 074b 6bbd 1ac2 a63d
00000050: f67d 69bb c035 3abd 3387 d1bd 6ccc f6bd
00000060: d10b 35bd ed38 09bd 949a 27bd f4f1 60bd
00000070: 0340 6cbb 1a0f d9bd b5f1 8b3d 566e c9bd
00000080: 6b3c c3bc a295 61bd fec5 9e3d 64d4 863d
00000090: 20ea b93c 148a fbbb 73d7 193e f500 52be
000000a0: da13 29bd 7208 4fbd fc38 c3bd e3c6 ae3d
000000b0: 0e3e 6fbd 97c4 d63c caf1 0cbe 224d 20bd
000000c0: c8eb 943d eb7c b93d e197 d73c 3cb1 263d
000000d0: 4e7e 09bd 5007 b93d 333f ab3d 8734 473d
000000e0: 15b1 ba3d 4d93 ccbd 404d 5dbd 3721 a7bd
000000f0: ad15 abbb 05da e03d ce78 b53d af22 dabd
00000100: 7ca7 4d3d 6398 d3bd a078 86bd 8065 b53d
00000110: 52a6 933e 29bc a5bd e631 6c3d 55f2 283d
00000120: 69e2 1abd a3ea 60be c109 2c3e 7121 d83c
00000130: b4e3 f4bd 7d00 55bd ed5b 10bd 18b6 5ebb
00000140: f213 e03d 1b91 183e a611 0bbd 5d31 9abd
00000150: 0c31 513d dde4 d73d f006 bd3c cf17 353d
00000160: 098a 05be d4c4 86bd 476e 5dbd 828e 9d3d
00000170: 53b2 a8ba 64fd a3bc 7b5d 4a3d c2b9 debd
00000180: 4468 9bbc 0f65 c03d 1936 c4bd e401 983a
00000190: c821 31be 2b3d 223d 90b5 8cbc a4c1 ea3c
000001a0: b23e 96bd 33ff 513d b10b 583d e481 ce3c
000001b0: d63d e3bd d2d0 7cbd 5732 8b3c 4191 6bbd
000001c0: 10cc 023c e89a fa3d ce77 e63d f53e abbd
000001d0: fa60 edbc 106c 7d3d af17 093d 84fe 83bd
000001e0: 53e4 243d 6493 793b f9ba b53c 610a 1ebe
000001f0: 8260 bbba 3f27 233e dbd8 1f3e 7c94 763c
0.039609544 0.043924026 0.02086131 0.027586369 0.06129476 0.041256715 -0.10841947 -0.01006999
-0.059389688 -0.05213816 0.20719437 -0.09229357 -0.06352393 0.31463078 -0.059269436 -0.01897734
0.08072006 -0.19891225 -0.0574446 0.08142491 -0.0035628057 -0.045461416 -0.10230865 -0.12050709
-0.044200722 -0.033501554 -0.0409189 -0.054918244 -0.0036048896 -0.105985835 0.06833211 -0.09835498
-0.02383252 -0.05507434 0.07752608 0.06583479 0.022694647 -0.0076763723 0.15023594 -0.20508178
-0.041278698 -0.050545163 -0.09532353 0.085340284 -0.05840879 0.026216788 -0.1376411 -0.03913606
0.07271534 0.09057029 0.026317539 0.040696368 -0.03356772 0.09034598 0.08361664 0.04863408
0.09115807 -0.09989033 -0.05402875 -0.08160632 -0.00522109 0.10979084 0.08860932 -0.106511466
0.050208554 -0.103318 -0.06565976 0.0885725 0.2883783 -0.08092529 0.057664774 0.04124673
-0.037813578 -0.21964507 0.16800596 0.026383134 -0.119574934 -0.05200242 -0.035243917 -0.0033983048
0.10941304 0.14899103 -0.033952378 -0.075289465 0.051072165 0.10541699 0.023074597 0.04421216
-0.13040937 -0.06580511 -0.054060247 0.07693197 -0.0012870528 -0.020018287 0.049405556 -0.10875274
-0.018970616 0.093942754 -0.09580631 0.0011597243 -0.17298043 0.039609116 -0.01717642 0.028656788
-0.07336177 0.051268768 0.052745525 0.025208421 -0.11095779 -0.061722584 0.016991777 -0.05751157
0.007983223 0.12236577 0.1125332 -0.083616175 -0.028976906 0.061870635 0.033469852 -0.064450294
0.04025681 0.0038082236 0.022183882 -0.15433647 -0.0014295729 0.1593294 0.15610068 0.01505005

net.4.weight f4 [5, 128]
00000000: e51e b03b e679 8c3d 41fd 90be 5288 893d
00000010: 1acd 643e 94e8 6abd 4741 9ebd d3ba 9fbd
00000020: aacc 8dbd 69a1 ecbb fc32 8b3d 2122 1e3d
00000030: 508d 1e3c fe71 c73e c205 363c e7d4 2fbd
00000040: c70e a8bd 9e37 8cbd 12a6 313d 4685 84bc
00000050: 45f4 143d 3bfa 8d3d d7af c93d c140 7ebc
00000060: e31c 9f3d 4776 09be 1ad8 80be d315 1a3d
00000070: 0330 02bd d59a 2bbd d90b 0e3d 6af0 55bd
00000080: d9a2 47be 2a4b 0bbc 6354 b4bd d28d 7cbd
00000090: b7b4 233d 2ed9 03be 6c3b 8f3e 946b 1d3c
000000a0: 86dc 88be 556f 1bbd 4bdf ec3b 5836 2d3d
000000b0: 2876 f43d 26df c3bd 744d 2dbd 0c87 6ebe
000000c0: 6fce 0fbe 4753 9b3d 1468 aabc 3897 3bbe
000000d0: 47b1 57bc 5978 c33a d39c 85be 3147 913d
000000e0: a8fc ff3c 1ca5 b5bc f387 84be b382 353d
000000f0: d283 9d3c 2411 a2be ffc8 f5bc c5fc 803e
00000100: 4c67 51be ed8a 863c 70ef 2cbc e452 99bc
00000110: 25dc 073e 98c7 733d ddb4 70be f69f 5fbc
00000120: c44b e5bc daec e83d 13ad 2d3d 59cf 7dbd
00000130: a43a b4bd 9ff8 dcbc 3e5f f6bb e848 81bd
00000140: 6e20 083e 819b aa3d dada 97bc 746a ed3c
00000150: df85 a8bd 0832 bc3c 15f1 553c 832b 70bd
00000160: f8d6 0f3c f230 2dbe d83f bfbd a9e0 47be
00000170: 059a d2bd c9b0 a43d 2663 6a3d 97dc 05bd
00000180: 8dae 14bd 60bc 9f3d 8974 a13d d253 c1bd
00000190: a708 0fbe 8515 993c 5a97 2ebd d0df 5bbd
000001a0: b291 3f3d e270 8e3d 6ea4 50be 4e46 553a
000001b0: ddb1 543d c894 e7bc bd7e 39be d3e9 4ebe
000001c0: b6a3 b9be 07a2 433e ddcb 4cbe b355 38bd
000001d0: bfed a23c f2af 2dbd 91a1 26bc e114 98bd
000001e0: 2ff2 ccbd ae81 973c 847c 203c be1d b03e
000001f0: 3504 963d 64f8 c73d e0f1 db3d 52ab a63c
00000200: a539 91be 00b4 2cbd 0768 29bd 4d68 8d3d
00000210: ae4a cfbd 18dc 723d abb6 0d3d 36e9 143d
00000220: 8968 873d 1140 193d 5f95 543e 79c9 12be
00000230: 230e df3c 53b5 893e 4372 8f3d 865a 25be
00000240: b2c8 abbd 0962 1e3e f464 05bd ac03 abbd
00000250: f7b2 c63c 264a 46bc 8b9c 08bc ad6f 753d
00000260: 601b f43c 9131 303d 1d73 f1bd b629 983d
00000270: 9bdc 673a d19f e03c f8bf 903c 40b1 93bd
00000280: af00 cdbc bdfb 583d 79ac 6ebc 3905 25bd
00000290: 16f5 b2bc dcc5 08be 54a8 dabe 3353 203d
000002a0: 8714 2dbe d41b 8f3c 3f5a bc3d 0424 93bd
000002b0: e3ee d0bd acfb f7bd a1e0 3bbe eed6 16be
000002c0: 24f7 24be 40ab b7bc 2934 a83c 86aa 5a3c
000002d0: fb78 923d 487b 96bd f3a9 8cbe 11f3 fc3c
000002e0: e421 f9bd ead7 da3d 95d1 07be 4951 8cbc
000002f0: 286b 25bc 33b6 3ebe d5f9 a03c 1b48 d63b
00000300: c703 19be 96ad 2dbd 1a72 51bc 8579 b13e
00000310: 38f4 a13e 737c 8b3d f27e 08be 6315 afbd
00000320: 69be 70bd 3a86 34bd 2e79 85be 908b 8fbc
00000330: 5b69 c9bd 3a16 90bd 88f1 b43d eafc 2e3d
00000340: 3cdf 3ebe 610b 66bd 18d0 cabb a540 9e3d
00000350: 3c3b 35be ea0c 1c3e f8f0 3fbd ba82 21bd
00000360: e0c8 7fbc e18c 3ebe 8891 d7bc cb4c 19be
00000370: 2aad 94bc 220e 313d b6b8 2c3d 95fc 5c3d
00000380: e8b6 62bb 9c22 513c 13e5 4dbd dcf1 b73c
00000390: ae9e f2bd ea49 e63d 7e91 d1bc efd6 5cbd
000003a0: b75d adbd 43fa b73c a72a 1abe c42c ee3a
000003b0: b53c 893c 7c4b a73d e9bd a7bd 6899 94bd
000003c0: bea4 02bd 78e7 58be 89e8 963e 283b ad3c
000003d0: f78f 0ebb 15c0 81bd a10f f53c a864 d2bc
000003e0: ab7a 5338 5587 edbd 0b29 8d3e 1f23 ba3e
000003f0: f584 afbd f9b7 86be 4302 843e 775a 693c
0.0053747767 0.06859188 -0.28318217 0.06715454 0.22343865 -0.05735071 -0.077272944 -0.07799306
-0.06923802 -0.00722139 0.06796834 0.038606767 0.009677246 0.38954157 0.011109771 -0.04292765
-0.082059436 -0.06846546 0.043371268 -0.016176831 0.036365766 0.06932493 0.09847992 -0.015518368
0.077691816 -0.13424025 -0.25164872 0.03761847 -0.03178407 -0.041895706 0.034679268 -0.05223123
-0.19495715 -0.008501807 -0.08805158 -0.061658688 0.039967265 -0.12875816 0.27975023 0.009608168
-0.26730746 -0.03794797 0.007228767 0.042288154 0.11936599 -0.095640466 -0.042310193 -0.23293704
-0.14043592 0.07584243 -0.020801581 -0.18319404 -0.013164825 0.0014913186 -0.2609621 0.07093657
0.031248406 -0.022173457 -0.2588497 0.044314098 0.019227896 -0.31653702 -0.030003069 0.25192848
-0.20449561 0.016423667 -0.010555133 -0.018716283 0.13267572 0.05951652 -0.23506494 -0.0136489775
-0.02799023 0.11373301 0.042401385 -0.06196532 -0.08800247 -0.02697402 -0.007518678 -0.06312734
0.13293621 0.08330441 -0.018536974 0.028981425 -0.08228659 0.022973076 0.013057967 -0.058635246
0.00877928 -0.16913202 -0.09338349 -0.19519295 -0.10283283 0.080415316 0.05722346 -0.032681074
-0.036299277 0.077996016 0.078835554 -0.094398156 -0.13968144 0.01868702 -0.04262481 -0.05368024
0.046769805 0.069551244 -0.20375225 0.00081357814 0.051927436 -0.028269187 -0.18114753 -0.20206384
-0.36257714 0.19104777 -0.19999643 -0.045003604 0.019888757 -0.042404123 -0.010170356 -0.07425857
-0.1000713 0.018494453 0.009795312 0.3439769 0.07325021 0.097641736 0.10739493 0.020345364
-0.28364292 -0.04216385 -0.041358974 0.069046594 -0.10121666 0.05929193 0.034598034 0.03635522
0.066117354 0.037414614 0.20760106 -0.14334668 0.02722842 0.26896152 0.070042156 -0.16147813
-0.08387889 0.15467085 -0.03256698 -0.0835031 0.024255259 -0.012102639 -0.008338104 0.059920955
0.02979821 0.04301602 -0.11789534 0.07429831 0.00088448235 0.027419956 0.017669663 -0.07211542
-0.02502474 0.05297445 -0.014567488 -0.040288184 -0.021845382 -0.13356727 -0.4270655 0.039141845
-0.16902362 0.017469324 0.091969006 -0.07184604 -0.10201814 -0.121085495 -0.18347408 -0.14730427
-0.16109902 -0.022420526 0.020532684 0.01334632 0.071519814 -0.07347733 -0.2747341 0.030877622
-0.12164667 0.106857136 -0.13263543 -0.017128604 -0.010096349 -0.18624191 0.01965038 0.0065393574
-0.14942847 -0.042401873 -0.012783552 0.34663025 0.31631637 0.06810846 -0.13329676 -0.08549001
-0.05877534 -0.04407332 -0.26069015 -0.017522603 -0.09834548 -0.070354894 0.08835131 0.042721666
-0.18639845 -0.056163196 -0.0061893575 0.07727174 -0.17698377 0.15239301 -0.046860665 -0.03943131
-0.015611857 -0.18608429 -0.026314512 -0.149707 -0.018148977 0.04322637 0.04216834 0.05395182
-0.0034593884 0.012764599 -0.05026729 0.022454195 -0.11846672 0.11244567 -0.025582071 -0.053915914
-0.0846514 0.022458201 -0.15055333 0.00181713 0.01675258 0.081686944 -0.08190519 -0.072558224
-0.03189539 -0.21182048 0.29474285 0.021146372 -0.002175329 -0.06335465 0.029914679 -0.025682762
5.0420564e-05 -0.11598078 0.27570376 0.3635492 -0.085702814 -0.26312235 0.25782976 0.01424276

net.4.bias f4 [5]
00000000: ad17 393e 05a0 c3bb e6e8 4fbd ac03 42bd
00000010: a604 383e
0.18075438 -0.0059700035 -0.05075922 -0.047366783 0.17970523
