Reinforcement-Learning/Math-RL-Book-Code/log/DQN/DQN_model_v0.pth (torch, 337382 bytes, 24 tensors)

net.0.weight f4 [128, 25]
00000000: 2e7b 17be 6296 c03d f4c9 ea3d d7d8 d83c
00000010: 2506 1abe 98c5 03be a03f e3bd 89f4 483e
00000020: b2af 3cbe 8d5e d6bd d788 debd 3d2f 9bbd
00000030: 61a2 423b d44d 643e 7003 04bc 38b1 2cbe
00000040: 9681 aa3d a6f0 873d a0e0 403c 10a1 80bc
00000050: 3f3f 903e 0db9 083e 8e62 eb3d 03b0 b6bd
00000060: 08e6 323d f590 4bbe 0500 46be 6743 debd
00000070: 9564 9b3e 1fba a63e ce2c 10be 3f99 4cbe
00000080: a0fa 2f3c 5095 a1bc d237 3dbe 0c4b 03be
00000090: cebc 17be 0dbf 31bd 0d51 abbd 4b64 42be
000000a0: 2538 11be 38a6 06be 750d 11bc 43a7 efbd
000000b0: 71b7 3b3e 769b 2bbd 4cc9 09be 4b38 a5bc
000000c0: 2893 0bbe 7652 8abd f45d 4abd eaf2 543e
000000d0: c079 543e 0b8f 9fba 6cb0 74bd 48cd 893c
000000e0: 7045 3dbe 0eda 2abe 749c 67bd c78f c8bd
000000f0: 13df aabd ad5a ddbd d874 0fbd 15fc 983e
00000100: 008d eeba 407b 51bd b297 1cbe f333 023e
00000110: b271 3dbe 426b 00be ed2c 843e a157 2b3e
00000120: 2db6 19be d251 c83d 19c1 363e a732 ee3d
00000130: 4b9b 3b3d e6c3 0cbe 3dbc 95bd b737 a2bd
00000140: 0a70 d7bd 6ec1 2bbe 2000 95bd eaa8 c5bd
00000150: 8ff8 403c abee 803e 2071 0dbd 5bed 49be
00000160: 6878 73bd 57db f2bd 0211 5c3e fcd7 763d
00000170: d04e 843e 8041 efbc 60b8 a5bd 1d6d 7e3d
00000180: ab17 3a3e 5952 e33d 69db 2b3e 53d9 44be
00000190: 3a4e 0bbe 52d1 16be a65a f1bd fa55 b13d
000001a0: 0a02 43be 359b 233e 0ebb 843d 7127 313e
000001b0: 3f45 e3bd 27b2 843d 68b7 4d3d 68da 79bd
000001c0: 4844 3ebe 497b 8f3c 2b29 a53c bda2 c2bd
000001d0: 5dca 123e 6b1f 3e3e dd14 00be 5d20 11be
000001e0: 06f1 23be f290 a83d d7f8 3cbe b3cf 2bbe
000001f0: 2707 473e cd18 26be decf 03bd e8ad e0bd
00000200: 50d2 3fbe a392 813e d546 783e c303 dfbd
00000210: e08b 0abd 4990 fcbd 5a53 2d3e 6ad5 1cbe
00000220: 30c4 9fbc b033 febd 4781 f8bd f591 2dbe
00000230: ddd2 8f3d e3f5 aebd eb73 7a3c 0074 9d3b
00000240: 00d6 42bb 31d3 6e3d 2851 afbc 10b5 89bd
00000250: 0378 debd da8f 91bd ef95 4e3d 7fa0 30be
00000260: 729a 073e d82d dd3d a6ee 793e c823 95bd
00000270: a0b5 e0bb acc0 76bd f253 29be 848a 30bd
00000280: 9c1a cdbd 0874 2f3d ddb1 00be cc9a 84bc
00000290: 30c1 443e fe82 03be 187b 1f3d c7f4 a23d
000002a0: 9810 cd3c 8003 4bbc a91a dd3d ea52 c33d
000002b0: 9fc8 7a3e d346 a5bd 0026 2c3c 9c8d a83d
000002c0: 16c1 c0bd 2d5f 13be 2c96 24bc 9aaf 9c3d
000002d0: 92be 173e ed6d e7bd 1dc9 4c3e d3f9 d5bd
000002e0: d5c0 363e 2ddb e0bd 0393 153e 70e8 1bbe
000002f0: 620f c2bd ec7f 993d d14e 6d3e 9000 48be
00000300: 920b 4abe c07c 5e3b 02ed 9b3d a20d 3bbe
00000310: 6def afbd 0e11 bbbd ccb8 673d b5f7 063e
00000320: 2323 f1bd bd2d f0bd b701 0a3d ebba 2abe
00000330: 60ce 45be ab1c 103e 88b1 493d 8db6 373e
00000340: c6b8 0b3d b022 88bc 1b3c 453e 6c93 76bd
00000350: 6059 00be 12c4 2ebe 6eda 5bbd f69f f3bd
00000360: 1ae8 dfbd 4019 3abe 4b3b 293e 0066 d2bb
00000370: 7b89 753e 5856 9b3c eb5d 9f3e e0a0 c9bd
00000380: 8301 c9bd 03d3 29bd e418 0cbe 80e6 3dbe
00000390: 00bc 8bbd 4045 3f3b 1e8a 093e be68 a63d
000003a0: 6a17 8c3d bb39 4abe ccf5 223e db8c 7c3e
000003b0: 6358 e9bd 830f 063c c800 26bd bd50 533e
000003c0: 3ccf 9fbd 8022 d7ba 2ce4 8b3e 127e 47be
000003d0: 40eb 74bd 9e78 11be ac28 313d 67e4 2ebe
000003e0: 1a23 d7bd 027c 9d3d ea71 4a3d c035 8ebd
000003f0: a843 c0bb caae 81bd c04f febd e1c2 70bd
-0.14793083 0.09403683 0.11464301 0.026470585 -0.15041406 -0.12868345 -0.1109612 0.19624533
-0.18426397 -0.10467253 -0.10865944 -0.07577369 0.0029698836 0.22295314 -0.00805746 -0.16864479
0.08325498 0.06637697 0.011772305 -0.0157018 0.28173253 0.13351841 0.11493407 -0.0892029
0.043676406 -0.19879515 -0.19335945 -0.108527 0.30350175 0.32563874 -0.14079592 -0.19980334
0.010740906 -0.019724518 -0.18478325 -0.12821597 -0.14818117 -0.04339509 -0.083650686 -0.18983571
-0.14181574 -0.13149345 -0.008853306 -0.117018245 0.18331696 -0.041896306 -0.13455695 -0.020168444
-0.13630354 -0.067540094 -0.049406007 0.2079579 0.20749569 -0.0012173367 -0.05973856 0.016821519
-0.1848352 -0.16684744 -0.05654569 -0.09793048 -0.08343329 -0.10808311 -0.03502354 0.29879823
-0.001819998 -0.05114293 -0.15292242 0.1271513 -0.18500403 -0.12540916 0.25815526 0.16732647
-0.15010901 0.09781231 0.17847098 0.11630755 0.045802396 -0.13746604 -0.07311294 -0.07920783
-0.10519417 -0.16773006 -0.072754145 -0.096513584 0.011778011 0.2518209 -0.034531713 -0.1971945
-0.059441 -0.11858242 0.21490863 0.060264573 0.2584138 -0.029206038 -0.08091807 0.062115777
0.18173091 0.11099691 0.16782917 -0.19223528 -0.1360406 -0.14728287 -0.11784868 0.08658977
-0.19043747 0.15977176 0.0648099 0.17300202 -0.11097192 0.06479292 0.050223738 -0.060999304
-0.18580735 0.017514842 0.020161232 -0.09503696 0.14335008 0.18566673 -0.12507959 -0.14172502
-0.16009912 0.08230771 -0.184543 -0.1677845 0.19436322 -0.16220398 -0.03218066 -0.1097067
-0.18732572 0.25307187 0.2424577 -0.10889389 -0.0338248 -0.12332208 0.16926327 -0.15315786
-0.01950273 -0.12412202 -0.12134033 -0.1695021 0.07022641 -0.08542993 0.015286426 0.004805088
-0.0029729605 0.058306877 -0.021401003 -0.06723988 -0.10862734 -0.07107516 0.050435957 -0.17248724
0.1324251 0.107997596 0.24407443 -0.07282215 -0.006857589 -0.06024234 -0.16535929 -0.04310085
-0.10014841 0.042835265 -0.1256785 -0.016187094 0.1921432 -0.12842938 0.03893575 0.07956844
0.025032327 -0.012390971 0.10796101 0.09537299 0.24490593 -0.08070149 0.010507107 0.08230135
-0.09411828 -0.14391775 -0.010045569 0.07650681 0.1481879 -0.113002636 0.19998594 -0.10448041
0.17846997 -0.109793045 0.14606862 -0.15225387 -0.0947559 0.07495102 0.23174597 -0.19531465
-0.19730976 0.0033948869 0.07613565 -0.1826692 -0.08590589 -0.09134112 0.05657272 0.1318043
-0.1177428 -0.11727474 0.03369304 -0.16672866 -0.19317007 0.14073436 0.049241573 0.17940731
0.03411176 -0.016618103 0.1926121 -0.060199186 -0.12534094 -0.17066982 -0.053675108 -0.118957445
-0.10932942 -0.18173695 0.16526525 -0.0064208508 0.23978226 0.01896207 0.3112634 -0.098451376
-0.098147415 -0.041461002 -0.1368137 -0.1854496 -0.068229675 0.0029185563 0.13431594 0.08125447
0.068404034 -0.19748585 0.15914077 0.24663107 -0.113938116 0.008182409 -0.04052809 0.20636268
-0.07803199 -0.001641348 0.2732252 -0.19481686 -0.059794664 -0.14206168 0.04325168 -0.17079316
-0.10504742 0.07689668 0.049425043 -0.06943846 -0.0058674403 -0.063321665 -0.12417555 -0.0587796

net.0.bias f4 [128]
00000000: aaa9 d53d f377 e53b 1410 5abb 12ad 663d
00000010: 6f94 dd3d 4ee0 e93d a2cf bd3d bea3 ac3d
00000020: 1b0a e43d a268 de3d 1006 213d 64f8 763e
00000030: 62ae cc3d 1aa3 0d3e 2f9e 39be b074 563d
00000040: 6da0 c23c 9ac5 0f3e a75a f43c 7144 883e
00000050: 8888 b23c 14b6 563e 2855 2ebe f4de 153e
00000060: 8d7d 363e f79a 753e 94ab 833e f675 293e
00000070: df02 5d3e e6d4 9e3d 0917 223e 47ba ae3d
00000080: 777d 383d 475c 3c3e f83c 073c 084b 31be
00000090: cc08 593d e77f b73d 3778 423e a470 753e
000000a0: 7113 153e ffbe 0f3e 9f8f 513e 23d7 813e
000000b0: 6462 9a3d 0bb2 56bd dffd 343e 8cd2 ac3d
000000c0: 0f8a 8d3d 4085 bf3b 2d49 133e 1413 bf3d
000000d0: 762b 5c3e 8c17 38bd b8b2 343e cab5 183e
000000e0: a09d 07bc eb6c 593d 4dd9 273e db46 c83d
000000f0: 7c58 1d3e 5f7c 1f3e 830c ad3c 16f2 433e
00000100: 609a 223e 995d 4ebe 038e 4e3e 7e55 f03d
00000110: 136d 9d3d 113e 383d 8b48 063e 1832 713e
00000120: 3549 c7bb 9427 e53d 9193 e03d f2bf 8a3e
00000130: 38c5 f83c 40fc 683e 4de1 d83d d170 d13d
00000140: 9934 a93d 17d6 4f3e 8206 b6bc 433b 203e
00000150: 37c6 683b be56 303d 0bf3 4e3b 5052 933d
00000160: 4ff1 063e bd13 e23b 59b9 213d 6c70 1f3e
00000170: 83ca 7f3e 440b 4a3b e0ea 9bbd 6519 183e
00000180: fd64 b63d e4fe 0b3e a2c5 48be 90f9 36be
00000190: a4ee c83c d98f e63d fd63 023e e205 d93d
000001a0: cec1 dc3d 110c 243e 1f35 dd3d a083 fb3d
000001b0: cb5b 383e a7c3 3e3e 604a 023e 7c58 e43d
000001c0: 4855 0dbd 31b2 053e 3513 803e 92f4 9bbc
000001d0: 3751 ed3d 9d34 55bc f769 d63d 3ede 323e
000001e0: 37de 233c 942f 6f3e cc75 803d 3441 083e
000001f0: 92a2 4f3e ea81 433d 79ac 003e 3b56 f03c
0.104327515 0.0070028245 -0.0033273743 0.056317396 0.10819327 0.11419736 0.092681184 0.08429669
0.1113474 0.10859801 0.039312422 0.24118191 0.099941984 0.1383175 -0.18126749 0.052357376
0.023758138 0.14040223 0.029828383 0.26614717 0.021793619 0.20967895 -0.17024672 0.14635831
0.17821331 0.23984896 0.2571684 0.16548905 0.21583126 0.07755451 0.158291 0.08531623
0.045041528 0.18394576 0.008254282 -0.17313778 0.052986905 0.08959942 0.18991171 0.2396875
0.14558198 0.14037703 0.20464943 0.2535945 0.07538298 -0.05241589 0.17674969 0.08438596
0.06911098 0.005844742 0.14383383 0.09329811 0.21500954 -0.04494433 0.17646301 0.14913097
-0.008277327 0.053082388 0.16391487 0.097791396 0.15365785 0.15574788 0.02112413 0.19135317
0.15879202 -0.20152892 0.2017136 0.11735056 0.0768682 0.044981066 0.1311361 0.23554265
-0.006081725 0.111891896 0.10965646 0.27099568 0.030367479 0.22752476 0.10589848 0.10226596
0.08261985 0.20296513 -0.0222199 0.15647607 0.0035518536 0.043051474 0.003157797 0.07193434
0.1317799 0.0068993256 0.039483402 0.1557023 0.24979596 0.0030829469 -0.07613158 0.14853437
0.08905981 0.13671452 -0.19606641 -0.17868638 0.024527855 0.112579055 0.12733455 0.10596825
0.10779153 0.16020228 0.10801148 0.12280965 0.18003766 0.18629323 0.12723684 0.111496896
-0.03450516 0.13056256 0.25014654 -0.019037519 0.11587756 -0.013013032 0.1046943 0.17467591
0.010001711 0.23357993 0.06272468 0.13306123 0.2027686 0.047731318 0.12565793 0.029337993

net.2.weight f4 [128, 128]
00000000: 8adc e4bb 67e4 903d 3961 6f3d 1f93 8abd
00000010: 5757 4e3c 632e 463c 978f d8bd b2e5 bbbc
00000020: 23d9 64bc e9f0 803d e11c 9dbd 6e6f 493d
00000030: 8a3c 98bd c7f6 b8bd f52f a83d e809 7fbc
00000040: 90be 8abd 033b 8f3d 6ac8 093c 476f d7bd
00000050: 349b 77bc 62e9 88bd 698d af3d 9395 603d
00000060: 9ed7 bdbd 320c 9fbc 1e90 98bc 2474 87bc
00000070: 0eaa 03bd 8b09 edbc 1753 f13b 5a16 48bd
00000080: c786 79bd d8ff 4c3d 77ff 9ebd 602a 84bc
00000090: 328f 423d 6ccd f83c 0a71 d0bd 736c 6d3b
000000a0: 002d 94bd 7380 49bd 94d6 89bd d0a9 1b3d
000000b0: cff7 1d3d e634 aebd 391a a1bc 680c a6bc
000000c0: 31ef c23c f0cc c5bd 73be d5b8 4055 45bd
000000d0: 7b64 9cbd 28b1 c03b bf6f 69bd 7408 893d
000000e0: e544 66bd e358 8b3d 175a d4bd b639 5abd
000000f0: bc44 2d3d 6249 8d3c 2100 90bd 6f19 6abd
00000100: 43de 05bc 2377 913d dd30 403d 6c09 fdbb
00000110: 801a 6dbd 9ddd 053d ea14 0d3d e09a c1bd
00000120: 7916 9bbd def4 61bd 044d c4bd 8480 a13c
00000130: 64f3 75bd 9d20 b6bd 457c 69bd d03f 74bc
00000140: ec51 2cbd a849 233d 36f0 9e3d 7f2b 223c
00000150: 7ba3 8b3d 9f40 aa3d 0b12 463d cc17 d4bd
00000160: 51e2 6f3d dd94 c6bc 8f6a d6bc b1f8 f2bb
00000170: a48e 133d fa86 0e3d 39a2 023d a007 53bc
00000180: 4fad 95bd 5f3f c1bd 9f21 2abd b613 94bd
00000190: 673e df3c 2ad3 003d 577d 763d facd afbd
000001a0: e7ec a73d 297b 36bd 4f35 873d 84e8 88bd
000001b0: d437 cf3c 4cb0 a5bc 3a43 a43a 3b4d f2bc
000001c0: 063a 97bd 1509 7dbd 0e9f 60bc eb8b f83c
000001d0: 27cf 3bbd de9b 393d 6b4f cf3c 90fb 143b
000001e0: f86a bbbd 0069 1b3d f1a3 2abd ffb4 623c
000001f0: d079 563d d9c2 353d c6aa 6f3d 422e 3e3d
00000200: a9a8 9b3d a3f0 1f3d 4a44 8bbd 2034 bc3d
00000210: 14c8 54bd 6bd9 27be 16f1 a9bb 55cd e13c
00000220: f399 4a3d 5607 86bd a8dc b0bc 4361 193d
00000230: 5421 8a3e 1291 f33d 9b2b 66bd fe9e bf3d
00000240: 1105 32be 7984 e13d 1461 d93d f3ef 313e
00000250: b854 f43c e0bb a73c 3098 b5bc 69c6 a03c
00000260: 9edc 6bbe 2d74 823c e292 b83d b6ae df3d
00000270: 359b 9c3b 9788 ec3d 7f9e 593d eb4a 743e
00000280: 84c5 9e3d 81b8 103e 1dd2 19be 0a8d 253d
00000290: 00d6 b63d cb7f 2dbe 3af8 89bc 57d7 643d
000002a0: 792a 19bc 06b0 543d d9b2 253e bb2f d13d
000002b0: 7788 053e c718 933c a35c 36bd 29c8 273e
000002c0: 51c9 3dbd 7823 133d 13c1 f33d 36eb 2b3e
000002d0: b78c 013e a826 e23c 5f16 043d 7c35 b63c
000002e0: 4e21 60bd e5be 0b3e 7e69 f43d da62 82be
000002f0: 1321 a33d 7ef7 72bc 3a9b 33bd e83e c83d
00000300: 6065 163e 44c2 8cbd 6e4d a43d ca9f 9e3d
00000310: 4c54 a33e b8bd 323e bf69 b3be 1198 a33c
00000320: 30f9 233e d3fb bfbc afdf 4f3d c497 183e
00000330: a800 c33d 1227 c13d 85ff 6d3d 480f 9cbe
00000340: b45c ba3d df1a 483e cc4c c53e 3980 b63d
00000350: 7c7e f139 44bb 58be a35e a33d b01e 01bd
00000360: c199 aa3e 23eb f43d 6900 313d 2f41 313e
00000370: af6d 013d e9b5 783b 9e93 a2bd 81a6 143e
00000380: f157 343e 08de d93d 28ef a93c 89e4 873d
00000390: 9866 203e c3a7 7dbe bca8 0c3e e2ba af3e
000003a0: 3085 9fbe 75b8 203e 9464 f03c c59d 003e
000003b0: ab29 8b3e 780d b43d 615a ecbd 5b84 2d3d
000003c0: 814b 9a3d 1a15 7f3d 7907 973d 2127 2cbe
000003d0: 357c 6dbd caae 7b3e 8ba9 bd3d a0e8 c13d
000003e0: bf7a 66bd c359 9d3d cd2c 3e3e b6d9 833d
000003f0: f615 053e 2d22 0fbe ddb1 5abe cbe0 9cbd
-0.006984298 0.07074814 0.058442328 -0.06766342 0.012594066 0.01209602 -0.105742626 -0.022936676
-0.013967785 0.0629595 -0.07671524 0.049178533 -0.07433422 -0.09031444 0.08212272 -0.015566327
-0.06774628 0.069936775 0.008409599 -0.10519271 -0.015112687 -0.06685139 0.08571894 0.054830145
-0.09269641 -0.019414995 -0.018623408 -0.016534872 -0.0321446 -0.028935215 0.0073646414 -0.04884944
-0.06091955 0.05004868 -0.0776357 -0.016133487 0.047499843 0.03037139 -0.101778105 0.003622797
-0.072351456 -0.049194764 -0.06730381 0.038003743 0.038566407 -0.08506183 -0.019665824 -0.020269588
0.023795696 -0.09658229 -0.000101921054 -0.048177004 -0.07636353 0.0058804937 -0.056991335 0.066910654
-0.056218047 0.06804063 -0.10368746 -0.053277694 0.04230188 0.017246906 -0.070312746 -0.05715316
-0.008170667 0.07102802 0.0469216 -0.0077220704 -0.0578866 0.03268205 0.034443773 -0.09453368
-0.07572646 -0.055165164 -0.09585002 0.019714601 -0.06004657 -0.08892939 -0.05700328 -0.014907792
-0.042070314 0.039865166 0.0776066 0.009898066 0.06818291 0.08313107 0.04835705 -0.103561014
0.05856544 -0.024240905 -0.026173858 -0.0074149 0.036024705 0.034796692 0.03189299 -0.012880236
-0.073084466 -0.09435915 -0.04153597 -0.07230322 0.027251435 0.03145138 0.060178127 -0.08584209
0.081994824 -0.04455105 0.06601965 -0.06684974 0.025295176 -0.020225666 0.0012532242 -0.029577842
-0.07384114 -0.06177624 -0.013709797 0.030340156 -0.045851853 0.045314662 0.025306424 0.002273295
-0.09151262 0.037941933 -0.041660253 0.013837098 0.052362263 0.044375274 0.05851247 0.046430834
0.07600529 0.03904785 -0.068001345 0.091896296 -0.051948622 -0.16391532 -0.0051862104 0.02756373
0.049463224 -0.06544368 -0.021589592 0.03744627 0.26978552 0.11892904 -0.05619393 0.09356497
-0.17384745 0.11011595 0.10614219 0.1737669 0.029825553 0.020475328 -0.022167295 0.01962586
-0.23033378 0.015924538 0.09012391 0.10921995 0.0047792443 0.1154949 0.05312967 0.23856704
0.07752517 0.14132883 -0.15021558 0.04041771 0.08927536 -0.1694328 -0.016841996 0.055869427
-0.009348505 0.05192568 0.16181506 0.10214182 0.13040338 0.01795615 -0.04452194 0.16384949
-0.04633457 0.035922498 0.1190206 0.16788945 0.12651335 0.027606323 0.032247897 0.0222423
-0.05471926 0.13647039 0.119341835 -0.25466043 0.07965293 -0.014829515 -0.043849207 0.097776234
0.14687109 -0.06872991 0.08022581 0.07745321 0.3190025 0.17455184 -0.35041615 0.019969972
0.16013026 -0.023435509 0.05075043 0.14901644 0.095216095 0.0943128 0.05810501 -0.3048041
0.09099713 0.195415 0.38535154 0.08911175 0.0004606134 -0.21165186 0.07977035 -0.031523407
0.3332043 0.11958911 0.04321328 0.17310022 0.031598743 0.0037950224 -0.07938312 0.14516641
0.17611672 0.10638052 0.020743921 0.066353865 0.15664136 -0.24771027 0.13736242 0.34322268
-0.31156301 0.15695365 0.029344834 0.12560184 0.27180228 0.087916315 -0.11540676 0.042362552
0.075339325 0.062275983 0.07374472 -0.16811801 -0.05797978 0.24578395 0.092608534 0.09468198
-0.056269404 0.07683136 0.18571778 0.064380094 0.12996659 -0.13977881 -0.21356912 -0.07660063

net.2.bias f4 [128]
00000000: c641 4f3d af24 cf3d 2105 3b3d 907b f73d
00000010: ed7a 75bd 865c d53c 42c9 3abd df6b 333d
00000020: e612 553d 4b7b b53d 8e49 51bd a6a9 6abc
00000030: e92f 30bd e54d cb3d 9f21 4ebd 7294 0d3c
00000040: 5fa3 283d f875 593d fd0b e63d 0740 963c
00000050: d7dc 173c 52a2 8ebd f192 bc3d 1204 e73d
00000060: c478 943d 0aba cdbc 8f78 e53d d0c4 8f3d
00000070: 91f5 50bd caf2 0d3e e6df 563d 68fe 98bc
00000080: a1ea 52bd 043a 403d 1ef4 12bd 8405 ab3d
00000090: 4022 fd3d 51ee 323d 2086 343e 6f84 3a3d
000000a0: d831 b3bd 258e 3b3d 7027 4e3d e1c3 9a3d
000000b0: 0eac 963c 394b 863b 8d59 aa3d a49a 8abd
000000c0: c0cc 873d ea05 e53d 9ab8 a03c b66e 793d
000000d0: e104 13bd 8a11 dd3c 9bcc 3a3d f93b 5e3d
000000e0: d5c7 99bd a350 f43d 81bd 353d 5c5a b4bc
000000f0: 1aac b93d 6044 b03d 28b7 21bd f6d6 4c3d
00000100: c006 e83a 3c27 9f3d 6a19 5fbd 7bb3 bbbd
00000110: 89c0 0e3d 6c63 c03d c5ea c03d 581a 1e3d
00000120: 78ba 383d 31b1 8c3d c847 d73c a010 adbd
00000130: 303c 92bd c07e 85bd ad79 a3bc b71d a2bd
00000140: 22da 483d 25bf d13c fb60 b93c 6d20 983d
00000150: e2bc 8bbd 7f3a 043d 52cb 943d f927 893d
00000160: 283e 9abd 142c 60bd 06b5 8cbd 68d1 40bc
00000170: 3b2b dd3b 1172 8fbd 75b6 babd 5356 9dbc
00000180: 6f61 fe3d f5c2 123c 7a9e 003e 3082 bfbd
00000190: 4a1b bf3d ed8b 83bd cd2f a93d 4b81 5c3d
000001a0: 918c b8bd 5e07 8c3d da4e 673d a20b 923d
000001b0: 09a6 b8bd a7cc e63c d30a 853d ca86 373c
000001c0: 9391 c13c a334 b83c f13f 373c 88ee 34bb
000001d0: 178a bb3c 48b1 d63d 7b9b 303d 0197 a73d
000001e0: c1a6 dd3d 1712 223d 4056 9b3c 1dc7 93bc
000001f0: fe3d 763b a1bc 203e 3b57 94bd 9415 003c
0.050599836 0.10114419 0.04565919 0.120841146 -0.059931684 0.026045095 -0.04560209 0.043804046
0.052019976 0.08861407 -0.051095538 -0.014322674 -0.04301444 0.099269666 -0.050325032 0.008641349
0.041171428 0.05309102 0.11232755 0.018341077 0.009268961 -0.06964554 0.09207714 0.11280073
0.07249597 -0.025113124 0.11204635 0.07019961 -0.05101544 0.13862148 0.05245962 -0.018675998
-0.05149329 0.046930328 -0.03587734 0.083506614 0.12360048 0.043684307 0.1762929 0.045536455
-0.08749741 0.045789856 0.05033058 0.07556892 0.018392589 0.0040983227 0.08317862 -0.067677766
0.0663085 0.11182769 0.019619275 0.060896598 -0.035893325 0.026985902 0.045605283 0.054256413
-0.07508818 0.11929443 0.044370178 -0.022015743 0.09066029 0.086067915 -0.039481312 0.05000969
0.0017702207 0.07771155 -0.054467596 -0.091650926 0.034851585 0.09393963 0.09419779 0.038599342
0.045099705 0.06869734 0.026279345 -0.084504366 -0.07140386 -0.06518316 -0.01995548 -0.07915824
0.049036153 0.02560384 0.022629252 0.0742806 -0.06823136 0.03228235 0.07265343 0.06697077
-0.075313866 -0.054729536 -0.06870465 -0.011768676 0.0067495382 -0.07004178 -0.09116832 -0.019206202
0.12420928 0.008957614 0.12560454 -0.09351003 0.09331377 -0.06423173 0.082610704 0.05383424
-0.09011186 0.06837343 0.056471683 0.07131125 -0.09016044 0.028173758 0.06496205 0.01120157
0.023628986 0.022486037 0.011184678 -0.0027607996 0.022892995 0.104830325 0.043117028 0.081830986
0.108228214 0.039568033 0.018962026 -0.01803928 0.0037573571 0.15696956 -0.072432004 0.007817645

net.4.weight f4 [5, 128]
00000000: b716 273d bd41 903d 4c93 b2bc 1e1d b6bd
00000010: 5e8e 993d caa2 8b3c e623 8b3d dc19 b3bd
00000020: 31b7 3a3b dde3 e63b 62fa 78bd d543 6d3e
00000030: bed2 503d 8ad5 f03d d059 38bd 19eb 613d
00000040: 2c0b ddbd 4c1f d6bd cd7d 2c3d a445 863d
00000050: a4dd a43c 869a a13d da9b 5abd 5843 03be
00000060: ec99 62be 0276 12bd a9f2 60bd 5f8d 483d
00000070: 4364 22bc 3c96 8ebd 4ca1 ea3c e2d4 76bd
00000080: ce50 693d 932b 7e3d 624d cabc f669 c7bd
00000090: 6edf 06be dc89 e0bd 848b 15be 498f 653d
000000a0: ac47 8cbd 1d4c 06bc 5515 6abe 5eac 553e
000000b0: 7aac 8a3d 11e8 b03d b19d 03be 51ab 243d
000000c0: 1ae5 1bbd 7791 873d 15b2 57be 71c2 3c3d
000000d0: e146 2f3d 76c0 93bd 2ef5 e23d 3b77 22bd
000000e0: 2966 18ba 7ad9 a7bb 6e13 b43e 04f6 c9bc
000000f0: 274c d2bd 43da 82be 267e 6abd e6bd 09be
00000100: 1cfb 88bc 7a60 6abe 7e39 9e3c 0ff8 2b3d
00000110: 799e 253d 0504 a3bd 5e5a 06be 8d9e 1ebd
00000120: a523 c63c 6b26 0cbe cfe9 703d e2aa d6bc
00000130: e5d7 8d3d 7e4a 153d 46f9 12be b4f7 babc
00000140: 466b a5bd fe16 113d 3daf 4ebc 56fa 83bc
00000150: b5d1 ccbc b0b6 563d 9581 23be dded 67bd
00000160: 4add 193d 40c2 a6bb ae59 563d 9b10 8039
00000170: 2b4f 82bd b49e 003d d4de 8f3c 43cf a4be
00000180: f380 b5bd e486 47bd 3abf 77bd 8d4b 7dbd
00000190: af86 69bb 708f c83b d873 0abe e094 cbbc
000001a0: 2f34 9b3d ca8b 13be 38b7 0d3d 31cc f9ba
000001b0: a6e6 8f3d 13c9 683e a6c3 7cbe 2619 5a3d
000001c0: b9ef 0fbd e08a 11bc b9d6 fb3a d97d 933d
000001d0: 6199 5f3d 8d9b 31bd eb8d b43c 6953 21bc
000001e0: c403 53bd c23c 17be 19b3 8abc 4a64 6dbc
000001f0: aecf 47bd 3981 6abe f6d4 a4bd 631b e5bd
00000200: ed05 503d c382 1f3d 3b80 3c3d 4694 563c
00000210: d079 e1bb a51e d5bd c6b9 853d 52a1 3cbb
00000220: 48f0 913c 7d63 09be a1b7 8c3d 5756 28be
00000230: d29d 1dbd b515 01be 5c7f 45bd 033e 3bbd
00000240: 29e8 85bd 56fb 973c 4e42 babd 19a1 18bd
00000250: 7c31 ea3c a058 75bc aa9e bdbc 52e3 96bd
00000260: 2897 063d 5bf7 a7bd 0aa8 5abd f990 303d
00000270: 5008 a63c b6b9 c7bd dbd2 1abd c0d7 163b
00000280: bb5f a3bd 8921 0dbe 574f 953d 5999 1cbd
00000290: 1c51 c73c 2454 8d3d ebe8 8c3e 20bc abbd
000002a0: e21d 413d 3294 df3d 33b6 ff3d 9771 17be
000002b0: d200 1abe 7917 5b3e d373 26be 1637 0d3d
000002c0: cd1e a4bd 27e1 9bbd 2d53 93bd e0ff 5ebe
000002d0: 0047 adbd 8f46 fcbd a8db 2d3e 96cd 893d
000002e0: b03c 333c 8475 b7bd a50e ca3e 7cc6 883c
000002f0: d968 08be f1a3 b03e 4e65 90bd 5f12 8fbd
00000300: 704d 823c eb0f e83d 9093 923b fae3 783d
00000310: 5713 4fbd 1ef1 403e f8a8 0ebe aac7 95bd
00000320: b2c7 843d 3acb d2bd e919 03be aaeb 6f3d
00000330: 8419 c0bc 6ae8 86bd 9f1f 1fbe 26d6 123d
00000340: 0ed0 513d 6d3c 67bd 10b9 05bb 9b64 f2bd
00000350: 1315 a53d 794a 1abd 867c b93c 7eed 8e3d
00000360: 1a92 4a3d 02bb aabd a5f4 923d 35ad 84be
00000370: 7285 97be ac4b a23c 1daa 983d e986 e1bd
00000380: b2a7 ddbd 5708 8fbd a6b2 b1bc 5b07 a4bb
00000390: f6d2 e5bd 2c0e 103d 2660 4bbd 400f 14ba
000003a0: 30c8 0b3d 0f16 41bd 509a cc3b c2e2 15be
000003b0: 381f 06bd 9205 03be d3af 6fbe 024a d2bc
000003c0: 39b9 853d 44f2 04bd f1fc 023d f88c 473c
000003d0: 2230 02bd d527 0fbe fd55 e13b 798d 17be
000003e0: 0368 14be f426 1fbd cddb 16bd 44c8 803d
000003f0: 5489 2c3d 353d 943e e01b 28bd a748 40bd
0.040793147 0.070437886 -0.021798752 -0.088922724 0.074978575 0.017045397 0.067939565 -0.08745167
0.0028490538 0.0070462064 -0.06078566 0.23170407 0.05098223 0.11759479 -0.045007527 0.055155847
-0.107931465 -0.10455188 0.04211216 0.06556252 0.020125218 0.07890801 -0.053371288 -0.12818658
-0.22129029 -0.035757072 -0.05491892 0.048962947 -0.0099116 -0.06962249 0.028641365 -0.060261615
0.056961827 0.062053274 -0.024695102 -0.09737007 -0.13171169 -0.109637946 -0.14604002 0.05604485
-0.06849608 -0.008196858 -0.228597 0.20866534 0.067711785 0.08638013 -0.12853123 0.040202443
-0.038060285 0.06619542 -0.21064027 0.04608387 0.042792205 -0.072144434 0.110819206 -0.03966449
-0.0005813563 -0.005122361 0.35171074 -0.024653442 -0.10268431 -0.25557145 -0.05724921 -0.13451347
-0.0167213 -0.22888365 0.019314524 0.041984614 0.040434334 -0.07959751 -0.1312041 -0.038725425
0.024186919 -0.1368653 0.058816727 -0.02620453 0.06925944 0.036447994 -0.14352903 -0.022823192
-0.080771014 0.035422318 -0.012615022 -0.01611058 -0.02500234 0.052420318 -0.159674 -0.05662333
0.037564553 -0.0050890744 0.05233162 0.00024426435 -0.06362756 0.03140135 0.017562307 -0.32189378
-0.08862486 -0.048712626 -0.060485102 -0.06183963 -0.0035633256 0.0061206147 -0.13520753 -0.024851263
0.075783126 -0.14408794 0.03459856 -0.0019058046 0.070264146 0.22732954 -0.24684009 0.05324664
-0.035140727 -0.008883208 0.0019213773 0.07201738 0.054589633 -0.043361235 0.022040328 -0.009846547
-0.051517263 -0.14769271 -0.016931104 -0.014489243 -0.048782043 -0.22900857 -0.080484316 -0.11186864
0.0507869 0.038943063 0.046020728 0.013096875 -0.0068809763 -0.104062356 0.06529574 -0.0028782678
0.01781477 -0.13416858 0.06870962 -0.16439186 -0.038480587 -0.12605937 -0.048217162 -0.045713436
-0.06538422 0.018552464 -0.09094678 -0.03726301 0.02858805 -0.014974743 -0.023146946 -0.07367577
0.032858998 -0.08201476 -0.05338291 0.043107007 0.020267636 -0.097522184 -0.037798744 0.002301678
-0.079772435 -0.13782324 0.072905235 -0.03823218 0.024330668 0.06900814 0.27521452 -0.08385491
0.04714764 0.10916938 0.124859236 -0.14789425 -0.15039375 0.21395673 -0.16255121 0.034476362
-0.08013687 -0.07611304 -0.07193599 -0.21777296 -0.08460808 -0.123181455 0.16978323 0.067286655
0.010939762 -0.08957961 0.39464298 0.016696207 -0.13321246 0.34500077 -0.07050572 -0.06985926
0.015906066 0.11331161 0.004473157 0.06076429 -0.050555553 0.18841979 -0.13931644 -0.073134735
0.06483401 -0.10292669 -0.12802853 0.058574356 -0.023449667 -0.06587298 -0.15539406 0.03584876
0.051223807 -0.05645411 -0.0020404495 -0.11835595 0.0806066 -0.03766868 0.022642385 0.06978892
0.04945574 -0.0833645 0.071755685 -0.25913396 -0.29593998 0.019811474 0.074543215 -0.1101206
-0.10823001 -0.069840126 -0.021691632 -0.0050057597 -0.11221878 0.035169765 -0.04965224 -0.00056480244
0.03412646 -0.047140177 0.0062439814 -0.14637282 -0.032744616 -0.12795094 -0.23406915 -0.025670055
0.06529469 -0.032457605 0.031979505 0.012179606 -0.031784184 -0.13980038 0.0068767057 -0.14800061
-0.14492802 -0.038855508 -0.036830712 0.06288198 0.042123154 0.28952947 -0.04104221 -0.046944287

net.4.bias f4 [5]
00000000: 6bd2 aebd fb94 9abd 5ea2 f2bd 54dc 85bd
00000010: 64d4 04bd
-0.08536228 -0.07547947 -0.11847375 -0.06536165 -0.032429114

net.0.weight f4 [128, 25]
00000000: 2e7b 17be 6296 c03d f4c9 ea3d d7d8 d83c
00000010: 2506 1abe 98c5 03be a03f e3bd 89f4 483e
00000020: b2af 3cbe 8d5e d6bd d788 debd 3d2f 9bbd
00000030: 61a2 423b d44d 643e 7003 04bc 38b1 2cbe
00000040: 9681 aa3d a6f0 873d a0e0 403c 10a1 80bc
00000050: 3f3f 903e 0db9 083e 8e62 eb3d 03b0 b6bd
00000060: 08e6 323d f590 4bbe 0500 46be 6743 debd
00000070: 9564 9b3e 1fba a63e ce2c 10be 3f99 4cbe
00000080: a0fa 2f3c 5095 a1bc d237 3dbe 0c4b 03be
00000090: cebc 17be 0dbf 31bd 0d51 abbd 4b64 42be
000000a0: 2538 11be 38a6 06be 750d 11bc 43a7 efbd
000000b0: 71b7 3b3e 769b 2bbd 4cc9 09be 4b38 a5bc
000000c0: 2893 0bbe 7652 8abd f45d 4abd eaf2 543e
000000d0: c079 543e 0b8f 9fba 6cb0 74bd 48cd 893c
000000e0: 7045 3dbe 0eda 2abe 749c 67bd c78f c8bd
000000f0: 13df aabd ad5a ddbd d874 0fbd 15fc 983e
00000100: 008d eeba 407b 51bd b297 1cbe f333 023e
00000110: b271 3dbe 426b 00be ed2c 843e a157 2b3e
00000120: 2db6 19be d251 c83d 19c1 363e a732 ee3d
00000130: 4b9b 3b3d e6c3 0cbe 3dbc 95bd b737 a2bd
00000140: 0a70 d7bd 6ec1 2bbe 2000 95bd eaa8 c5bd
00000150: 8ff8 403c abee 803e 2071 0dbd 5bed 49be
00000160: 6878 73bd 57db f2bd 0211 5c3e fcd7 763d
00000170: d04e 843e 8041 efbc 60b8 a5bd 1d6d 7e3d
00000180: ab17 3a3e 5952 e33d 69db 2b3e 53d9 44be
00000190: 3a4e 0bbe 52d1 16be a65a f1bd fa55 b13d
000001a0: 0a02 43be 359b 233e 0ebb 843d 7127 313e
000001b0: 3f45 e3bd 27b2 843d 68b7 4d3d 68da 79bd
000001c0: 4844 3ebe 497b 8f3c 2b29 a53c bda2 c2bd
000001d0: 5dca 123e 6b1f 3e3e dd14 00be 5d20 11be
000001e0: 06f1 23be f290 a83d d7f8 3cbe b3cf 2bbe
000001f0: 2707 473e cd18 26be decf 03bd e8ad e0bd
00000200: 50d2 3fbe a392 813e d546 783e c303 dfbd
00000210: e08b 0abd 4990 fcbd 5a53 2d3e 6ad5 1cbe
00000220: 30c4 9fbc b033 febd 4781 f8bd f591 2dbe
00000230: ddd2 8f3d e3f5 aebd eb73 7a3c 0074 9d3b
00000240: 00d6 42bb 31d3 6e3d 2851 afbc 10b5 89bd
00000250: 0378 debd da8f 91bd ef95 4e3d 7fa0 30be
00000260: 729a 073e d82d dd3d a6ee 793e c823 95bd
00000270: a0b5 e0bb acc0 76bd f253 29be 848a 30bd
00000280: 9c1a cdbd 0874 2f3d ddb1 00be cc9a 84bc
00000290: 30c1 443e fe82 03be 187b 1f3d c7f4 a23d
000002a0: 9810 cd3c 8003 4bbc a91a dd3d ea52 c33d
000002b0: 9fc8 7a3e d346 a5bd 0026 2c3c 9c8d a83d
000002c0: 16c1 c0bd 2d5f 13be 2c96 24bc 9aaf 9c3d
000002d0: 92be 173e ed6d e7bd 1dc9 4c3e d3f9 d5bd
000002e0: d5c0 363e 2ddb e0bd 0393 153e 70e8 1bbe
000002f0: 620f c2bd ec7f 993d d14e 6d3e 9000 48be
00000300: 920b 4abe c07c 5e3b 02ed 9b3d a20d 3bbe
00000310: 6def afbd 0e11 bbbd ccb8 673d b5f7 063e
00000320: 2323 f1bd bd2d f0bd b701 0a3d ebba 2abe
00000330: 60ce 45be ab1c 103e 88b1 493d 8db6 373e
00000340: c6b8 0b3d b022 88bc 1b3c 453e 6c93 76bd
00000350: 6059 00be 12c4 2ebe 6eda 5bbd f69f f3bd
00000360: 1ae8 dfbd 4019 3abe 4b3b 293e 0066 d2bb
00000370: 7b89 753e 5856 9b3c eb5d 9f3e e0a0 c9bd
00000380: 8301 c9bd 03d3 29bd e418 0cbe 80e6 3dbe
00000390: 00bc 8bbd 4045 3f3b 1e8a 093e be68 a63d
000003a0: 6a17 8c3d bb39 4abe ccf5 223e db8c 7c3e
000003b0: 6358 e9bd 830f 063c c800 26bd bd50 533e
000003c0: 3ccf 9fbd 8022 d7ba 2ce4 8b3e 127e 47be
000003d0: 40eb 74bd 9e78 11be ac28 313d 67e4 2ebe
000003e0: 1a23 d7bd 027c 9d3d ea71 4a3d c035 8ebd
000003f0: a843 c0bb caae 81bd c04f febd e1c2 70bd
-0.14793083 0.09403683 0.11464301 0.026470585 -0.15041406 -0.12868345 -0.1109612 0.19624533
-0.18426397 -0.10467253 -0.10865944 -0.07577369 0.0029698836 0.22295314 -0.00805746 -0.16864479
0.08325498 0.06637697 0.011772305 -0.0157018 0.28173253 0.13351841 0.11493407 -0.0892029
0.043676406 -0.19879515 -0.19335945 -0.108527 0.30350175 0.32563874 -0.14079592 -0.19980334
0.010740906 -0.019724518 -0.18478325 -0.12821597 -0.14818117 -0.04339509 -0.083650686 -0.18983571
-0.14181574 -0.13149345 -0.008853306 -0.117018245 0.18331696 -0.041896306 -0.13455695 -0.020168444
-0.13630354 -0.067540094 -0.049406007 0.2079579 0.20749569 -0.0012173367 -0.05973856 0.016821519
-0.1848352 -0.16684744 -0.05654569 -0.09793048 -0.08343329 -0.10808311 -0.03502354 0.29879823
-0.001819998 -0.05114293 -0.15292242 0.1271513 -0.18500403 -0.12540916 0.25815526 0.16732647
-0.15010901 0.09781231 0.17847098 0.11630755 0.045802396 -0.13746604 -0.07311294 -0.07920783
-0.10519417 -0.16773006 -0.072754145 -0.096513584 0.011778011 0.2518209 -0.034531713 -0.1971945
-0.059441 -0.11858242 0.21490863 0.060264573 0.2584138 -0.029206038 -0.08091807 0.062115777
0.18173091 0.11099691 0.16782917 -0.19223528 -0.1360406 -0.14728287 -0.11784868 0.08658977
-0.19043747 0.15977176 0.0648099 0.17300202 -0.11097192 0.06479292 0.050223738 -0.060999304
-0.18580735 0.017514842 0.020161232 -0.09503696 0.14335008 0.18566673 -0.12507959 -0.14172502
-0.16009912 0.08230771 -0.184543 -0.1677845 0.19436322 -0.16220398 -0.03218066 -0.1097067
-0.18732572 0.25307187 0.2424577 -0.10889389 -0.0338248 -0.12332208 0.16926327 -0.15315786
-0.01950273 -0.12412202 -0.12134033 -0.1695021 0.07022641 -0.08542993 0.015286426 0.004805088
-0.0029729605 0.058306877 -0.021401003 -0.06723988 -0.10862734 -0.07107516 0.050435957 -0.17248724
0.1324251 0.107997596 0.24407443 -0.07282215 -0.006857589 -0.06024234 -0.16535929 -0.04310085
-0.10014841 0.042835265 -0.1256785 -0.016187094 0.1921432 -0.12842938 0.03893575 0.07956844
0.025032327 -0.012390971 0.10796101 0.09537299 0.24490593 -0.08070149 0.010507107 0.08230135
-0.09411828 -0.14391775 -0.010045569 0.07650681 0.1481879 -0.113002636 0.19998594 -0.10448041
0.17846997 -0.109793045 0.14606862 -0.15225387 -0.0947559 0.07495102 0.23174597 -0.19531465
-0.19730976 0.0033948869 0.07613565 -0.1826692 -0.08590589 -0.09134112 0.05657272 0.1318043
-0.1177428 -0.11727474 0.03369304 -0.16672866 -0.19317007 0.14073436 0.049241573 0.17940731
0.03411176 -0.016618103 0.1926121 -0.060199186 -0.12534094 -0.17066982 -0.053675108 -0.118957445
-0.10932942 -0.18173695 0.16526525 -0.0064208508 0.23978226 0.01896207 0.3112634 -0.098451376
-0.098147415 -0.041461002 -0.1368137 -0.1854496 -0.068229675 0.0029185563 0.13431594 0.08125447
0.068404034 -0.19748585 0.15914077 0.24663107 -0.113938116 0.008182409 -0.04052809 0.20636268
-0.07803199 -0.001641348 0.2732252 -0.19481686 -0.059794664 -0.14206168 0.04325168 -0.17079316
-0.10504742 0.07689668 0.049425043 -0.06943846 -0.0058674403 -0.063321665 -0.12417555 -0.0587796

net.0.bias f4 [128]
00000000: aaa9 d53d f377 e53b 1410 5abb 12ad 663d
00000010: 6f94 dd3d 4ee0 e93d a2cf bd3d bea3 ac3d
00000020: 1b0a e43d a268 de3d 1006 213d 64f8 763e
00000030: 62ae cc3d 1aa3 0d3e 2f9e 39be b074 563d
00000040: 6da0 c23c 9ac5 0f3e a75a f43c 7144 883e
00000050: 8888 b23c 14b6 563e 2855 2ebe f4de 153e
00000060: 8d7d 363e f79a 753e 94ab 833e f675 293e
00000070: df02 5d3e e6d4 9e3d 0917 223e 47ba ae3d
00000080: 777d 383d 475c 3c3e f83c 073c 084b 31be
00000090: cc08 593d e77f b73d 3778 423e a470 753e
000000a0: 7113 153e ffbe 0f3e 9f8f 513e 23d7 813e
000000b0: 6462 9a3d 0bb2 56bd dffd 343e 8cd2 ac3d
000000c0: 0f8a 8d3d 4085 bf3b 2d49 133e 1413 bf3d
000000d0: 762b 5c3e 8c17 38bd b8b2 343e cab5 183e
000000e0: a09d 07bc eb6c 593d 4dd9 273e db46 c83d
000000f0: 7c58 1d3e 5f7c 1f3e 830c ad3c 16f2 433e
00000100: 609a 223e 995d 4ebe 038e 4e3e 7e55 f03d
00000110: 136d 9d3d 113e 383d 8b48 063e 1832 713e
00000120: 3549 c7bb 9427 e53d 9193 e03d f2bf 8a3e
00000130: 38c5 f83c 40fc 683e 4de1 d83d d170 d13d
00000140: 9934 a93d 17d6 4f3e 8206 b6bc 433b 203e
00000150: 37c6 683b be56 303d 0bf3 4e3b 5052 933d
00000160: 4ff1 063e bd13 e23b 59b9 213d 6c70 1f3e
00000170: 83ca 7f3e 440b 4a3b e0ea 9bbd 6519 183e
00000180: fd64 b63d e4fe 0b3e a2c5 48be 90f9 36be
00000190: a4ee c83c d98f e63d fd63 023e e205 d93d
000001a0: cec1 dc3d 110c 243e 1f35 dd3d a083 fb3d
000001b0: cb5b 383e a7c3 3e3e 604a 023e 7c58 e43d
000001c0: 4855 0dbd 31b2 053e 3513 803e 92f4 9bbc
000001d0: 3751 ed3d 9d34 55bc f769 d63d 3ede 323e
000001e0: 37de 233c 942f 6f3e cc75 803d 3441 083e
000001f0: 92a2 4f3e ea81 433d 79ac 003e 3b56 f03c
0.104327515 0.0070028245 -0.0033273743 0.056317396 0.10819327 0.11419736 0.092681184 0.08429669
0.1113474 0.10859801 0.039312422 0.24118191 0.099941984 0.1383175 -0.18126749 0.052357376
0.023758138 0.14040223 0.029828383 0.26614717 0.021793619 0.20967895 -0.17024672 0.14635831
0.17821331 0.23984896 0.2571684 0.16548905 0.21583126 0.07755451 0.158291 0.08531623
0.045041528 0.18394576 0.008254282 -0.17313778 0.052986905 0.08959942 0.18991171 0.2396875
0.14558198 0.14037703 0.20464943 0.2535945 0.07538298 -0.05241589 0.17674969 0.08438596
0.06911098 0.005844742 0.14383383 0.09329811 0.21500954 -0.04494433 0.17646301 0.14913097
-0.008277327 0.053082388 0.16391487 0.097791396 0.15365785 0.15574788 0.02112413 0.19135317
0.15879202 -0.20152892 0.2017136 0.11735056 0.0768682 0.044981066 0.1311361 0.23554265
-0.006081725 0.111891896 0.10965646 0.27099568 0.030367479 0.22752476 0.10589848 0.10226596
0.08261985 0.20296513 -0.0222199 0.15647607 0.0035518536 0.043051474 0.003157797 0.07193434
0.1317799 0.0068993256 0.039483402 0.1557023 0.24979596 0.0030829469 -0.07613158 0.14853437
0.08905981 0.13671452 -0.19606641 -0.17868638 0.024527855 0.112579055 0.12733455 0.10596825
0.10779153 0.16020228 0.10801148 0.12280965 0.18003766 0.18629323 0.12723684 0.111496896
-0.03450516 0.13056256 0.25014654 -0.019037519 0.11587756 -0.013013032 0.1046943 0.17467591
0.010001711 0.23357993 0.06272468 0.13306123 0.2027686 0.047731318 0.12565793 0.029337993

net.2.weight f4 [128, 128]
00000000: 8adc e4bb 67e4 903d 3961 6f3d 1f93 8abd
00000010: 5757 4e3c 632e 463c 978f d8bd b2e5 bbbc
00000020: 23d9 64bc e9f0 803d e11c 9dbd 6e6f 493d
00000030: 8a3c 98bd c7f6 b8bd f52f a83d e809 7fbc
00000040: 90be 8abd 033b 8f3d 6ac8 093c 476f d7bd
00000050: 349b 77bc 62e9 88bd 698d af3d 9395 603d
00000060: 9ed7 bdbd 320c 9fbc 1e90 98bc 2474 87bc
00000070: 0eaa 03bd 8b09 edbc 1753 f13b 5a16 48bd
00000080: c786 79bd d8ff 4c3d 77ff 9ebd 602a 84bc
00000090: 328f 423d 6ccd f83c 0a71 d0bd 736c 6d3b
000000a0: 002d 94bd 7380 49bd 94d6 89bd d0a9 1b3d
000000b0: cff7 1d3d e634 aebd 391a a1bc 680c a6bc
000000c0: 31ef c23c f0cc c5bd 73be d5b8 4055 45bd
000000d0: 7b64 9cbd 28b1 c03b bf6f 69bd 7408 893d
000000e0: e544 66bd e358 8b3d 175a d4bd b639 5abd
000000f0: bc44 2d3d 6249 8d3c 2100 90bd 6f19 6abd
00000100: 43de 05bc 2377 913d dd30 403d 6c09 fdbb
00000110: 801a 6dbd 9ddd 053d ea14 0d3d e09a c1bd
00000120: 7916 9bbd def4 61bd 044d c4bd 8480 a13c
00000130: 64f3 75bd 9d20 b6bd 457c 69bd d03f 74bc
00000140: ec51 2cbd a849 233d 36f0 9e3d 7f2b 223c
00000150: 7ba3 8b3d 9f40 aa3d 0b12 463d cc17 d4bd
00000160: 51e2 6f3d dd94 c6bc 8f6a d6bc b1f8 f2bb
00000170: a48e 133d fa86 0e3d 39a2 023d a007 53bc
00000180: 4fad 95bd 5f3f c1bd 9f21 2abd b613 94bd
00000190: 673e df3c 2ad3 003d 577d 763d facd afbd
000001a0: e7ec a73d 297b 36bd 4f35 873d 84e8 88bd
000001b0: d437 cf3c 4cb0 a5bc 3a43 a43a 3b4d f2bc
000001c0: 063a 97bd 1509 7dbd 0e9f 60bc eb8b f83c
000001d0: 27cf 3bbd de9b 393d 6b4f cf3c 90fb 143b
000001e0: f86a bbbd 0069 1b3d f1a3 2abd ffb4 623c
000001f0: d079 563d d9c2 353d c6aa 6f3d 422e 3e3d
00000200: a9a8 9b3d a3f0 1f3d 4a44 8bbd 2034 bc3d
00000210: 14c8 54bd 6bd9 27be 16f1 a9bb 55cd e13c
00000220: f399 4a3d 5607 86bd a8dc b0bc 4361 193d
00000230: 5421 8a3e 1291 f33d 9b2b 66bd fe9e bf3d
00000240: 1105 32be 7984 e13d 1461 d93d f3ef 313e
00000250: b854 f43c e0bb a73c 3098 b5bc 69c6 a03c
00000260: 9edc 6bbe 2d74 823c e292 b83d b6ae df3d
00000270: 359b 9c3b 9788 ec3d 7f9e 593d eb4a 743e
00000280: 84c5 9e3d 81b8 103e 1dd2 19be 0a8d 253d
00000290: 00d6 b63d cb7f 2dbe 3af8 89bc 57d7 643d
000002a0: 792a 19bc 06b0 543d d9b2 253e bb2f d13d
000002b0: 7788 053e c718 933c a35c 36bd 29c8 273e
000002c0: 51c9 3dbd 7823 133d 13c1 f33d 36eb 2b3e
000002d0: b78c 013e a826 e23c 5f16 043d 7c35 b63c
000002e0: 4e21 60bd e5be 0b3e 7e69 f43d da62 82be
000002f0: 1321 a33d 7ef7 72bc 3a9b 33bd e83e c83d
00000300: 6065 163e 44c2 8cbd 6e4d a43d ca9f 9e3d
00000310: 4c54 a33e b8bd 323e bf69 b3be 1198 a33c
00000320: 30f9 233e d3fb bfbc afdf 4f3d c497 183e
00000330: a800 c33d 1227 c13d 85ff 6d3d 480f 9cbe
00000340: b45c ba3d df1a 483e cc4c c53e 3980 b63d
00000350: 7c7e f139 44bb 58be a35e a33d b01e 01bd
00000360: c199 aa3e 23eb f43d 6900 313d 2f41 313e
00000370: af6d 013d e9b5 783b 9e93 a2bd 81a6 143e
00000380: f157 343e 08de d93d 28ef a93c 89e4 873d
00000390: 9866 203e c3a7 7dbe bca8 0c3e e2ba af3e
000003a0: 3085 9fbe 75b8 203e 9464 f03c c59d 003e
000003b0: ab29 8b3e 780d b43d 615a ecbd 5b84 2d3d
000003c0: 814b 9a3d 1a15 7f3d 7907 973d 2127 2cbe
000003d0: 357c 6dbd caae 7b3e 8ba9 bd3d a0e8 c13d
000003e0: bf7a 66bd c359 9d3d cd2c 3e3e b6d9 833d
000003f0: f615 053e 2d22 0fbe ddb1 5abe cbe0 9cbd
-0.006984298 0.07074814 0.058442328 -0.06766342 0.012594066 0.01209602 -0.105742626 -0.022936676
-0.013967785 0.0629595 -0.07671524 0.049178533 -0.07433422 -0.09031444 0.08212272 -0.015566327
-0.06774628 0.069936775 0.008409599 -0.10519271 -0.015112687 -0.06685139 0.08571894 0.054830145
-0.09269641 -0.019414995 -0.018623408 -0.016534872 -0.0321446 -0.028935215 0.0073646414 -0.04884944
-0.06091955 0.05004868 -0.0776357 -0.016133487 0.047499843 0.03037139 -0.101778105 0.003622797
-0.072351456 -0.049194764 -0.06730381 0.038003743 0.038566407 -0.08506183 -0.019665824 -0.020269588
0.023795696 -0.09658229 -0.000101921054 -0.048177004 -0.07636353 0.0058804937 -0.056991335 0.066910654
-0.056218047 0.06804063 -0.10368746 -0.053277694 0.04230188 0.017246906 -0.070312746 -0.05715316
-0.008170667 0.07102802 0.0469216 -0.0077220704 -0.0578866 0.03268205 0.034443773 -0.09453368
-0.07572646 -0.055165164 -0.09585002 0.019714601 -0.06004657 -0.08892939 -0.05700328 -0.014907792
-0.042070314 0.039865166 0.0776066 0.009898066 0.06818291 0.08313107 0.04835705 -0.103561014
0.05856544 -0.024240905 -0.026173858 -0.0074149 0.036024705 0.034796692 0.03189299 -0.012880236
-0.073084466 -0.09435915 -0.04153597 -0.07230322 0.027251435 0.03145138 0.060178127 -0.08584209
0.081994824 -0.04455105 0.06601965 -0.06684974 0.025295176 -0.020225666 0.0012532242 -0.029577842
-0.07384114 -0.06177624 -0.013709797 0.030340156 -0.045851853 0.045314662 0.025306424 0.002273295
-0.09151262 0.037941933 -0.041660253 0.013837098 0.052362263 0.044375274 0.05851247 0.046430834
0.07600529 0.03904785 -0.068001345 0.091896296 -0.051948622 -0.16391532 -0.0051862104 0.02756373
0.049463224 -0.06544368 -0.021589592 0.03744627 0.26978552 0.11892904 -0.05619393 0.09356497
-0.17384745 0.11011595 0.10614219 0.1737669 0.029825553 0.020475328 -0.022167295 0.01962586
-0.23033378 0.015924538 0.09012391 0.10921995 0.0047792443 0.1154949 0.05312967 0.23856704
0.07752517 0.14132883 -0.15021558 0.04041771 0.08927536 -0.1694328 -0.016841996 0.055869427
-0.009348505 0.05192568 0.16181506 0.10214182 0.13040338 0.01795615 -0.04452194 0.16384949
-0.04633457 0.035922498 0.1190206 0.16788945 0.12651335 0.027606323 0.032247897 0.0222423
-0.05471926 0.13647039 0.119341835 -0.25466043 0.07965293 -0.014829515 -0.043849207 0.097776234
0.14687109 -0.06872991 0.08022581 0.07745321 0.3190025 0.17455184 -0.35041615 0.019969972
0.16013026 -0.023435509 0.05075043 0.14901644 0.095216095 0.0943128 0.05810501 -0.3048041
0.09099713 0.195415 0.38535154 0.08911175 0.0004606134 -0.21165186 0.07977035 -0.031523407
0.3332043 0.11958911 0.04321328 0.17310022 0.031598743 0.0037950224 -0.07938312 0.14516641
0.17611672 0.10638052 0.020743921 0.066353865 0.15664136 -0.24771027 0.13736242 0.34322268
-0.31156301 0.15695365 0.029344834 0.12560184 0.27180228 0.087916315 -0.11540676 0.042362552
0.075339325 0.062275983 0.07374472 -0.16811801 -0.05797978 0.24578395 0.092608534 0.09468198
-0.056269404 0.07683136 0.18571778 0.064380094 0.12996659 -0.13977881 -0.21356912 -0.07660063

net.2.bias f4 [128]
00000000: c641 4f3d af24 cf3d 2105 3b3d 907b f73d
00000010: ed7a 75bd 865c d53c 42c9 3abd df6b 333d
00000020: e612 553d 4b7b b53d 8e49 51bd a6a9 6abc
00000030: e92f 30bd e54d cb3d 9f21 4ebd 7294 0d3c
00000040: 5fa3 283d f875 593d fd0b e63d 0740 963c
00000050: d7dc 173c 52a2 8ebd f192 bc3d 1204 e73d
00000060: c478 943d 0aba cdbc 8f78 e53d d0c4 8f3d
00000070: 91f5 50bd caf2 0d3e e6df 563d 68fe 98bc
00000080: a1ea 52bd 043a 403d 1ef4 12bd 8405 ab3d
00000090: 4022 fd3d 51ee 323d 2086 343e 6f84 3a3d
000000a0: d831 b3bd 258e 3b3d 7027 4e3d e1c3 9a3d
000000b0: 0eac 963c 394b 863b 8d59 aa3d a49a 8abd
000000c0: c0cc 873d ea05 e53d 9ab8 a03c b66e 793d
000000d0: e104 13bd 8a11 dd3c 9bcc 3a3d f93b 5e3d
000000e0: d5c7 99bd a350 f43d 81bd 353d 5c5a b4bc
000000f0: 1aac b93d 6044 b03d 28b7 21bd f6d6 4c3d
00000100: c006 e83a 3c27 9f3d 6a19 5fbd 7bb3 bbbd
00000110: 89c0 0e3d 6c63 c03d c5ea c03d 581a 1e3d
00000120: 78ba 383d 31b1 8c3d c847 d73c a010 adbd
00000130: 303c 92bd c07e 85bd ad79 a3bc b71d a2bd
00000140: 22da 483d 25bf d13c fb60 b93c 6d20 983d
00000150: e2bc 8bbd 7f3a 043d 52cb 943d f927 893d
00000160: 283e 9abd 142c 60bd 06b5 8cbd 68d1 40bc
00000170: 3b2b dd3b 1172 8fbd 75b6 babd 5356 9dbc
00000180: 6f61 fe3d f5c2 123c 7a9e 003e 3082 bfbd
00000190: 4a1b bf3d ed8b 83bd cd2f a93d 4b81 5c3d
000001a0: 918c b8bd 5e07 8c3d da4e 673d a20b 923d
000001b0: 09a6 b8bd a7cc e63c d30a 853d ca86 373c
000001c0: 9391 c13c a334 b83c f13f 373c 88ee 34bb
000001d0: 178a bb3c 48b1 d63d 7b9b 303d 0197 a73d
000001e0: c1a6 dd3d 1712 223d 4056 9b3c 1dc7 93bc
000001f0: fe3d 763b a1bc 203e 3b57 94bd 9415 003c
0.050599836 0.10114419 0.04565919 0.120841146 -0.059931684 0.026045095 -0.04560209 0.043804046
0.052019976 0.08861407 -0.051095538 -0.014322674 -0.04301444 0.099269666 -0.050325032 0.008641349
0.041171428 0.05309102 0.11232755 0.018341077 0.009268961 -0.06964554 0.09207714 0.11280073
0.07249597 -0.025113124 0.11204635 0.07019961 -0.05101544 0.13862148 0.05245962 -0.018675998
-0.05149329 0.046930328 -0.03587734 0.083506614 0.12360048 0.043684307 0.1762929 0.045536455
-0.08749741 0.045789856 0.05033058 0.07556892 0.018392589 0.0040983227 0.08317862 -0.067677766
0.0663085 0.11182769 0.019619275 0.060896598 -0.035893325 0.026985902 0.045605283 0.054256413
-0.07508818 0.11929443 0.044370178 -0.022015743 0.09066029 0.086067915 -0.039481312 0.05000969
0.0017702207 0.07771155 -0.054467596 -0.091650926 0.034851585 0.09393963 0.09419779 0.038599342
0.045099705 0.06869734 0.026279345 -0.084504366 -0.07140386 -0.06518316 -0.01995548 -0.07915824
0.049036153 0.02560384 0.022629252 0.0742806 -0.06823136 0.03228235 0.07265343 0.06697077
-0.075313866 -0.054729536 -0.06870465 -0.011768676 0.0067495382 -0.07004178 -0.09116832 -0.019206202
0.12420928 0.008957614 0.12560454 -0.09351003 0.09331377 -0.06423173 0.082610704 0.05383424
-0.09011186 0.06837343 0.056471683 0.07131125 -0.09016044 0.028173758 0.06496205 0.01120157
0.023628986 0.022486037 0.011184678 -0.0027607996 0.022892995 0.104830325 0.043117028 0.081830986
0.108228214 0.039568033 0.018962026 -0.01803928 0.0037573571 0.15696956 -0.072432004 0.007817645

net.4.weight f4 [5, 128]
00000000: b716 273d bd41 903d 4c93 b2bc 1e1d b6bd
00000010: 5e8e 993d caa2 8b3c e623 8b3d dc19 b3bd
00000020: 31b7 3a3b dde3 e63b 62fa 78bd d543 6d3e
00000030: bed2 503d 8ad5 f03d d059 38bd 19eb 613d
00000040: 2c0b ddbd 4c1f d6bd cd7d 2c3d a445 863d
00000050: a4dd a43c 869a a13d da9b 5abd 5843 03be
00000060: ec99 62be 0276 12bd a9f2 60bd 5f8d 483d
00000070: 4364 22bc 3c96 8ebd 4ca1 ea3c e2d4 76bd
00000080: ce50 693d 932b 7e3d 624d cabc f669 c7bd
00000090: 6edf 06be dc89 e0bd 848b 15be 498f 653d
000000a0: ac47 8cbd 1d4c 06bc 5515 6abe 5eac 553e
000000b0: 7aac 8a3d 11e8 b03d b19d 03be 51ab 243d
000000c0: 1ae5 1bbd 7791 873d 15b2 57be 71c2 3c3d
000000d0: e146 2f3d 76c0 93bd 2ef5 e23d 3b77 22bd
000000e0: 2966 18ba 7ad9 a7bb 6e13 b43e 04f6 c9bc
000000f0: 274c d2bd 43da 82be 267e 6abd e6bd 09be
00000100: 1cfb 88bc 7a60 6abe 7e39 9e3c 0ff8 2b3d
00000110: 799e 253d 0504 a3bd 5e5a 06be 8d9e 1ebd
00000120: a523 c63c 6b26 0cbe cfe9 703d e2aa d6bc
00000130: e5d7 8d3d 7e4a 153d 46f9 12be b4f7 babc
00000140: 466b a5bd fe16 113d 3daf 4ebc 56fa 83bc
00000150: b5d1 ccbc b0b6 563d 9581 23be dded 67bd
00000160: 4add 193d 40c2 a6bb ae59 563d 9b10 8039
00000170: 2b4f 82bd b49e 003d d4de 8f3c 43cf a4be
00000180: f380 b5bd e486 47bd 3abf 77bd 8d4b 7dbd
00000190: af86 69bb 708f c83b d873 0abe e094 cbbc
000001a0: 2f34 9b3d ca8b 13be 38b7 0d3d 31cc f9ba
000001b0: a6e6 8f3d 13c9 683e a6c3 7cbe 2619 5a3d
000001c0: b9ef 0fbd e08a 11bc b9d6 fb3a d97d 933d
000001d0: 6199 5f3d 8d9b 31bd eb8d b43c 6953 21bc
000001e0: c403 53bd c23c 17be 19b3 8abc 4a64 6dbc
000001f0: aecf 47bd 3981 6abe f6d4 a4bd 631b e5bd
00000200: ed05 503d c382 1f3d 3b80 3c3d 4694 563c
00000210: d079 e1bb a51e d5bd c6b9 853d 52a1 3cbb
00000220: 48f0 913c 7d63 09be a1b7 8c3d 5756 28be
00000230: d29d 1dbd b515 01be 5c7f 45bd 033e 3bbd
00000240: 29e8 85bd 56fb 973c 4e42 babd 19a1 18bd
00000250: 7c31 ea3c a058 75bc aa9e bdbc 52e3 96bd
00000260: 2897 063d 5bf7 a7bd 0aa8 5abd f990 303d
00000270: 5008 a63c b6b9 c7bd dbd2 1abd c0d7 163b
00000280: bb5f a3bd 8921 0dbe 574f 953d 5999 1cbd
00000290: 1c51 c73c 2454 8d3d ebe8 8c3e 20bc abbd
000002a0: e21d 413d 3294 df3d 33b6 ff3d 9771 17be
000002b0: d200 1abe 7917 5b3e d373 26be 1637 0d3d
000002c0: cd1e a4bd 27e1 9bbd 2d53 93bd e0ff 5ebe
000002d0: 0047 adbd 8f46 fcbd a8db 2d3e 96cd 893d
000002e0: b03c 333c 8475 b7bd a50e ca3e 7cc6 883c
000002f0: d968 08be f1a3 b03e 4e65 90bd 5f12 8fbd
00000300: 704d 823c eb0f e83d 9093 923b fae3 783d
00000310: 5713 4fbd 1ef1 403e f8a8 0ebe aac7 95bd
00000320: b2c7 843d 3acb d2bd e919 03be aaeb 6f3d
00000330: 8419 c0bc 6ae8 86bd 9f1f 1fbe 26d6 123d
00000340: 0ed0 513d 6d3c 67bd 10b9 05bb 9b64 f2bd
00000350: 1315 a53d 794a 1abd 867c b93c 7eed 8e3d
00000360: 1a92 4a3d 02bb aabd a5f4 923d 35ad 84be
00000370: 7285 97be ac4b a23c 1daa 983d e986 e1bd
00000380: b2a7 ddbd 5708 8fbd a6b2 b1bc 5b07 a4bb
00000390: f6d2 e5bd 2c0e 103d 2660 4bbd 400f 14ba
000003a0: 30c8 0b3d 0f16 41bd 509a cc3b c2e2 15be
000003b0: 381f 06bd 9205 03be d3af 6fbe 024a d2bc
000003c0: 39b9 853d 44f2 04bd f1fc 023d f88c 473c
000003d0: 2230 02bd d527 0fbe fd55 e13b 798d 17be
000003e0: 0368 14be f426 1fbd cddb 16bd 44c8 803d
000003f0: 5489 2c3d 353d 943e e01b 28bd a748 40bd
0.040793147 0.070437886 -0.021798752 -0.088922724 0.074978575 0.017045397 0.067939565 -0.08745167
0.0028490538 0.0070462064 -0.06078566 0.23170407 0.05098223 0.11759479 -0.045007527 0.055155847
-0.107931465 -0.10455188 0.04211216 0.06556252 0.020125218 0.07890801 -0.053371288 -0.12818658
-0.22129029 -0.035757072 -0.05491892 0.048962947 -0.0099116 -0.06962249 0.028641365 -0.060261615
0.056961827 0.062053274 -0.024695102 -0.09737007 -0.13171169 -0.109637946 -0.14604002 0.05604485
-0.06849608 -0.008196858 -0.228597 0.20866534 0.067711785 0.08638013 -0.12853123 0.040202443
-0.038060285 0.06619542 -0.21064027 0.04608387 0.042792205 -0.072144434 0.110819206 -0.03966449
-0.0005813563 -0.005122361 0.35171074 -0.024653442 -0.10268431 -0.25557145 -0.05724921 -0.13451347
-0.0167213 -0.22888365 0.019314524 0.041984614 0.040434334 -0.07959751 -0.1312041 -0.038725425
0.024186919 -0.1368653 0.058816727 -0.02620453 0.06925944 0.036447994 -0.14352903 -0.022823192
-0.080771014 0.035422318 -0.012615022 -0.01611058 -0.02500234 0.052420318 -0.159674 -0.05662333
0.037564553 -0.0050890744 0.05233162 0.00024426435 -0.06362756 0.03140135 0.017562307 -0.32189378
-0.08862486 -0.048712626 -0.060485102 -0.06183963 -0.0035633256 0.0061206147 -0.13520753 -0.024851263
0.075783126 -0.14408794 0.03459856 -0.0019058046 0.070264146 0.22732954 -0.24684009 0.05324664
-0.035140727 -0.008883208 0.0019213773 0.07201738 0.054589633 -0.043361235 0.022040328 -0.009846547
-0.051517263 -0.14769271 -0.016931104 -0.014489243 -0.048782043 -0.22900857 -0.080484316 -0.11186864
0.0507869 0.038943063 0.046020728 0.013096875 -0.0068809763 -0.104062356 0.06529574 -0.0028782678
0.01781477 -0.13416858 0.06870962 -0.16439186 -0.038480587 -0.12605937 -0.048217162 -0.045713436
-0.06538422 0.018552464 -0.09094678 -0.03726301 0.02858805 -0.014974743 -0.023146946 -0.07367577
0.032858998 -0.08201476 -0.05338291 0.043107007 0.020267636 -0.097522184 -0.037798744 0.002301678
-0.079772435 -0.13782324 0.072905235 -0.03823218 0.024330668 0.06900814 0.27521452 -0.08385491
0.04714764 0.10916938 0.124859236 -0.14789425 -0.15039375 0.21395673 -0.16255121 0.034476362
-0.08013687 -0.07611304 -0.07193599 -0.21777296 -0.08460808 -0.123181455 0.16978323 0.067286655
0.010939762 -0.08957961 0.39464298 0.016696207 -0.13321246 0.34500077 -0.07050572 -0.06985926
0.015906066 0.11331161 0.004473157 0.06076429 -0.050555553 0.18841979 -0.13931644 -0.073134735
0.06483401 -0.10292669 -0.12802853 0.058574356 -0.023449667 -0.06587298 -0.15539406 0.03584876
0.051223807 -0.05645411 -0.0020404495 -0.11835595 0.0806066 -0.03766868 0.022642385 0.06978892
0.04945574 -0.0833645 0.071755685 -0.25913396 -0.29593998 0.019811474 0.074543215 -0.1101206
-0.10823001 -0.069840126 -0.021691632 -0.0050057597 -0.11221878 0.035169765 -0.04965224 -0.00056480244
0.03412646 -0.047140177 0.0062439814 -0.14637282 -0.032744616 -0.12795094 -0.23406915 -0.025670055
0.06529469 -0.032457605 0.031979505 0.012179606 -0.031784184 -0.13980038 0.0068767057 -0.14800061
-0.14492802 -0.038855508 -0.036830712 0.06288198 0.042123154 0.28952947 -0.04104221 -0.046944287
