Reinforcement-Learning/Math-RL-Book-Code/log/QLearning_nn/QLearning_nn_model_v0.pth (torch, 2156 bytes, 2 tensors)

linear.weight f4 [5, 25]
-2.007807 -4.7505655 -3.4900892 2.4891484 2.9269876 -4.5966783 -0.022728086 0.029358983
3.955358 2.249894 -2.9436042 -0.021412134 6.0581264 -2.9417036 -2.793813 -4.906928
0.024208337 7.691794 -0.11146372 -0.14089043 -7.7355614 0.037630603 2.7616549 3.2387514
0.09311493 -0.3524489 0.44592753 0.88749444 -0.059689905 -4.366993 -7.6944823 0.010388538
0.117808 1.6575522 -4.510633 -7.94785 0.025708914 2.4265492 1.7800806 -2.0767734
-8.411923 -0.14202361 -0.46489036 -0.12988992 -0.13118625 -7.370092 0.041813523 9.508731
12.231765 0.019031852 -4.843337 -3.1023512 -3.748551 -0.31809157 -3.827106 -1.5857952
-0.11412702 -0.1513141 0.9574562 -0.532303 -2.5677063 -0.041990995 -0.015806025 1.765148
0.6699997 -3.5914567 0.09316163 5.892943 -0.102492236 0.12296863 -3.8446224 -0.008565262
3.1417565 4.849132 -0.049979776 -2.732581 -1.8881714 -0.288157 0.6614705 -0.84521395
-5.1111517 -0.06624189 0.010866314 -3.0366962 2.238645 -6.403756 -0.19735058 1.9824127
4.413952 2.8581219 -5.359068 -0.19138078 1.5006751 0.12248899 -0.012226298 -7.0241413
-0.067243814 2.9676695 4.9597187 -0.17630766 -4.678601 -3.41883 -2.368566 -2.6908534
-2.4940617 -5.154749 0.021320313 0.1811832 -2.0765686 -2.2269764 -5.5145 -0.11713324
2.538748 0.008406343 -7.5075946 -7.8028593 -0.16119245 3.0245047 0.14408924 -0.18485151
-9.17088 -0.048375726 -1.4064505 4.6002097 0.10700907
00000000: e97f 00c0 a204 98c0 9f5d 5fc0 354e 1f40
00000010: c453 3b40 fd17 93c0 4030 babc 4082 f03c
00000020: 9624 7d40 43fe 0f40 0364 3cc0 8068 afbc
00000030: 2cdc c140 df44 3cc0 d5cd 32c0 8e05 9dc0
00000040: 9050 c63c 2d23 f640 1747 e4bd 9545 10be
00000050: b889 f7c0 8c22 1a3d f4be 3040 b447 4f40
00000060: 0ab3 be3d 2f74 b4be 9d50 e43e d632 633f
00000070: 677d 74bd 68be 8bc0 3339 f6c0 b034 2a3c
00000080: 5245 f13d ac2a d43f 1b57 90c0 ca54 fec0
00000090: 809b d23c 954c 1b40 aed9 e33f dbe9 04c0
000000a0: 3d97 06c1 a36e 11be 1c06 eebe dd01 05be
000000b0: b055 06be cbd7 ebc0 a844 2b3d c323 1841
000000c0: 4fb5 4341 b0e8 9b3c 9efc 9ac0 ec8c 46c0
000000d0: 42e8 6fc0 e6dc a2be 4eef 74c0 56fb cabf
000000e0: 6dbb e9bd 15f2 1abe d91b 753f 0245 08bf
000000f0: 4d55 24c0 c0fe 2bbd a37b 81bc 5ff0 e13f
00000100: 1a85 2b3f 6dda 65c0 86cb be3d fd92 bc40
00000110: 73e7 d1bd fad6 fb3d 4b0e 76c0 5055 0cbc
00000120: 8a12 4940 172c 9b40 98b7 4cbd 9be2 2ec0
00000130: 9aaf f1bf 5089 93be 2156 293f f15f 58bf
00000140: 8e8e a3c0 d4a9 87bd a008 323c 3b59 42c0
00000150: f645 0f40 92eb ccc0 4516 4abe b3bf fd3f
00000160: 183f 8d40 78eb 3640 7c7d abc0 53f9 43be
00000170: 1f16 c03f 82db fa3d d050 48bc c4c5 e0c0
00000180: 20b7 89bd 4cee 3d40 04b6 9e40 ff89 34be
00000190: 19b7 95c0 1cce 5ac0 9696 17c0 f136 2cc0
000001a0: b59e 1fc0 b4f3 a4c0 f0a7 ae3c 1788 393e
000001b0: 80e6 04c0 c886 0ec0 c976 b0c0 8de3 efbd
000001c0: d97a 2240 c2ba 093c 373e f0c0 06b1 f9c0
000001d0: a20f 25be 7c91 4140 218c 133e b749 3dbe
000001e0: edbb 12c1 a025 46bd 9206 b4bf eb34 9340
000001f0: 9227 db3d

linear.bias f4 [5]
-1.2803496 -0.7896006 -0.34901315 -0.5983129 1.2871668
00000000: 7fe2 a3bf 4423 4abf dab1 b2be 092b 19bf
00000010: e2c1 a43f
