Reinforcement-Learning/Math-RL-Book-Code/log/Sarsa_nn/Sarsa_nn_model_v0.pth (torch, 2068 bytes, 2 tensors)

linear.weight f4 [5, 25]
-3.2554154 -5.5120435 -3.508166 3.6303892 -1.0560588 -4.8375216 0.06686832 -0.18503366
4.8874454 -0.0905229 -4.99369 0.19899942 6.993167 -0.78293246 -3.3198833 -3.044958
-0.15026613 7.57877 -0.07562623 0.1683103 -6.1281724 0.056802228 5.180806 3.0343158
0.0076286793 -0.01093366 -0.18932626 1.725595 -0.30378827 -4.8551917 -7.199959 0.042573884
-0.0125502795 -0.4327978 -4.534286 -9.487794 0.12998794 3.7506814 3.4508853 -2.0727286
-7.400935 -0.19644375 2.4128816 0.105758324 0.15832995 -7.2029433 0.1918975 8.481411
11.02656 0.13991274 -1.915623 -0.90206575 -1.6977553 -0.58214223 -0.403865 0.6972994
-0.1285736 -0.0699825 1.1301008 0.748309 0.71837884 -0.060100228 -0.15882713 3.4924397
-0.18481386 0.018683685 0.05320917 1.9418913 0.16788794 -0.1504904 -0.97134954 0.04555674
3.6439116 3.2077856 0.19585253 -6.806523 -2.4948595 -0.25381136 0.2672435 3.4250414
-6.296666 -0.17333756 -0.16081913 -3.6685061 -0.029328138 -7.306074 0.0142415315 -0.44568
5.2423196 5.4620104 -7.049272 0.15826316 1.428404 -0.06562409 -0.12741919 -6.7849874
0.1318412 1.4347936 5.568791 -0.1283716 -3.4173048 -3.9685683 0.57938635 -0.3638214
-2.991362 -2.2418113 0.19539829 0.14991184 -0.9710652 1.0032996 -1.8589116 0.15267737
-0.8171069 1.4562558 0.76820856 -2.838573 0.18059076 -1.9623849 0.14519902 0.18507932
-4.0222945 0.06809609 4.113448 2.118728 0.073234364
00000000: ba58 50c0 a962 b0c0 cb85 60c0 4c58 6840
00000010: ef2c 87bf facc 9ac0 42f2 883d 7779 3dbe
00000020: f465 9c40 1264 b9bd 4fcc 9fc0 81c6 4b3e
00000030: 06c8 df40 436e 48bf f878 54c0 98e0 42c0
00000040: 5ddf 19be 4985 f240 ede1 9abd 8959 2c3e
00000050: fd19 c4c0 74a9 683d 2ac9 a540 3b32 4240
00000060: 00fa f93b 1823 33bc bede 41be 4ce0 dc3f
00000070: 238a 9bbe bb5d 9bc0 1066 e6c0 f461 2e3d
00000080: b09f 4dbc ac97 ddbe df18 91c0 01ce 17c1
00000090: 8f1b 053e 2a0b 7040 4edb 5c40 96a7 04c0
000000a0: 76d4 ecc0 8d28 49be a76c 1a40 d297 d83d
000000b0: 3f21 223e 837e e6c0 c780 443e dcb3 0741
000000c0: ca6c 3041 4945 0f3e 2233 f5bf c8ed 66bf
000000d0: 0c50 d9bf 4607 15bf 65c7 cebe 3782 323f
000000e0: cca8 03be fc52 8fbd 25a7 903f 2e91 3f3f
000000f0: ade7 373f a82b 76bd 94a3 22be 2284 5f40
00000100: d83f 3dbe 870e 993c dcf1 593d e58f f83f
00000110: d1ea 2b3e 281a 1abe 5daa 78bf b499 3a3d
00000120: d935 6940 5c4c 4d40 918d 483e 09cf d9c0
00000130: c7ab 1fc0 90f3 81be 24d4 883e e133 5b40
00000140: 4a7e c9c0 677f 31be c5ad 24be cec8 6ac0
00000150: 9041 f0bc 5ccb e9c0 5055 693c 2b30 e4be
00000160: 15c1 a740 cac8 ae40 a393 e1c0 bd0f 223e
00000170: f1d5 b63f ec65 86bd 2d7a 02be 9e1e d9c0
00000180: 6101 073e 51a7 b73f 8933 b240 d873 03be
00000190: 1fb5 5ac0 06fd 7dc0 aa52 143f cc46 babe
000001a0: 7a72 3fc0 d679 0fc0 7d16 483e 7d82 193e
000001b0: bb97 78bf 1f6c 803f d1f0 edbf 7557 1c3e
000001c0: eb2d 51bf 9766 ba3f 51a9 443f 2eab 35c0
000001d0: c9ec 383e 6e2f fbbf 0daf 143e 6f85 3d3e
000001e0: a3b6 80c0 f675 8b3d 5ea1 8340 3d99 0740
000001f0: e6fb 953d

linear.bias f4 [5]
-7.5851955 -7.7406783 -8.0619335 -7.714252 -8.700668
00000000: ecb9 f2c0 a3b3 f7c0 aefd 00c1 27db f6c0
00000010: f035 0bc1
