Reinforcement-Learning/Math-RL-Book-Code/log/Sarsa_nn/Sarsa_nn_model_v0.pth (torch, 2068 bytes, 2 tensors)

linear.weight f4 [5, 25]
000000 69 cd 4d c0 4d 1e c2 c0 55 fa 1a c0 67 ff 6c 40
       -3.2156622 -6.066199 -2.421529 3.7030885
000010 83 77 c8 3e a5 1f a7 c0 c2 a9 93 3d 48 e8 61 bd
       0.3915368 -5.222613 0.07210113 -0.05515316
000020 8b c1 47 40 29 33 cd 3f f8 74 9c c0 d0 ad 22 bc
       3.121188 1.6031238 -4.8892784 -0.009929135
000030 b6 5b c2 40 04 0b 00 c0 5e 9f 82 c0 77 7d db c0
       6.073695 -2.0006723 -4.081954 -6.8590655
000040 a0 34 39 3c 9f a9 ee 40 50 7a 5b bc d2 72 03 be
       0.011304051 7.4582057 -0.013395861 -0.12836769
000050 34 a0 fd c0 0c f4 19 3d a6 43 0e 40 53 68 ae 40
       -7.925806 0.037586257 2.222879 5.450235
000060 81 37 1f 3e e9 47 2c 3f 61 29 de 3f db f7 45 40
       0.15548517 0.67297226 1.7356378 3.093253
000070 bc 54 88 bf e2 15 86 c0 94 af b3 c0 98 cd e1 bc
       -1.0650859 -4.1901712 -5.615183 -0.027563855
000080 d5 2a 42 3e 51 f1 a7 3e d7 ed 9f c0 1d 60 c5 c0
       0.18961652 0.32801297 -4.997783 -6.1679826
000090 00 e4 d2 bc 92 44 32 40 8b 63 54 c0 38 d7 b1 c0
       -0.025743484 2.7854352 -3.3185756 -5.557522
0000a0 dd 27 2e c1 f6 01 f5 3d 21 12 2a c0 ef 37 34 be
       -10.884732 0.11963265 -2.6573565 -0.17599462
0000b0 00 58 10 39 b5 de f8 c0 68 4f c6 bc f0 7b 1c 41
       0.00013765693 -7.777186 -0.024207786 9.780258
0000c0 3b bc 33 41 d4 54 0c bd 32 da 97 c0 04 9d de c0
       11.233455 -0.034260586 -4.745385 -6.956667
0000d0 32 c4 4c c0 ad b3 d8 c0 8e 02 d5 c0 43 a0 56 bd
       -3.1994748 -6.771933 -6.656562 -0.05239893
0000e0 00 e8 7e bb 24 81 57 3d 70 a8 de 3f 0f bb 0f bf
       -0.0038895607 0.052613392 1.7395153 -0.56144804
0000f0 b7 5c 03 bf 40 c1 c9 bb af 38 ef 3e 05 01 2f 3f
       -0.51313347 -0.0061570704 0.46722934 0.6836093
000100 b0 94 98 bf d2 68 91 bf 6d ef f6 bd 91 4e 8d 40
       -1.1920376 -1.1360114 -0.120573856 4.4158406
000110 00 af f6 bc 81 79 4c 3e 67 2c c2 bf 6e 36 a6 3d
       -0.030112743 0.19968225 -1.51698 0.081158504
000120 1f f4 84 40 d8 11 bb 40 d4 72 07 bd a7 d9 85 c0
       4.1548 5.845928 -0.033068493 -4.182819
000130 d5 36 c5 bf 33 94 ce be 17 82 6a bf 75 4d d9 be
       -1.5407358 -0.40347442 -0.9160475 -0.42441908
000140 47 52 95 c0 ab 69 19 3e fa 2e e2 3d f1 7a c0 bf
       -4.6662936 0.14981715 0.11044116 -1.5037519
000150 c9 53 51 3f 50 ca be c0 0a 60 e7 bd 46 b8 a5 be
       0.8176847 -5.9621964 -0.11297615 -0.32367152
000160 9d eb c5 40 ee d3 a1 40 9e 97 e4 c0 80 6a e4 bd
       6.1850114 5.0571203 -7.143508 -0.11153126
000170 b7 ee bb 3f 60 ee 20 3c 25 f3 1a 3e 37 2f b6 c0
       1.4682225 0.009822458 0.15131815 -5.6932635
000180 53 40 45 be 55 22 0b 40 90 f4 04 41 84 2a 78 3d
       -0.19262819 2.1739705 8.309708 0.06058742
000190 36 5c 42 c0 5c df 1e c0 f6 56 ac 3e 86 72 80 3f
       -3.036878 -2.4823828 0.33660096 1.003495
0001a0 c0 58 d8 bf 14 5a 75 c0 f9 4f 13 3e ed f8 f2 bd
       -1.6902084 -3.833623 0.14385976 -0.11863885
0001b0 d1 05 2c 40 7b f2 5c be 15 42 aa c0 d8 0e 26 bd
       2.687855 -0.21576874 -5.3205667 -0.0405415
0001c0 d1 09 db 40 d8 e5 70 3e 70 6b 76 bf 21 b2 82 c0
       6.8449483 0.23525178 -0.96257687 -4.0842443
0001d0 20 2c 1e bd 75 fc 29 40 0d 36 1c be 80 bd 09 bd
       -0.0386163 2.6560338 -0.15254994 -0.033627987
0001e0 a4 13 a6 c0 1f d6 42 be f0 fc 10 41 b0 c0 0d 41
       -5.1898975 -0.19026993 9.061752 8.859543
0001f0 09 80 0d 3e
       0.13818373

linear.bias f4 [5]
000000 15 ed f4 c0 23 66 ed c0 4c 10 e7 c0 32 6b 18 c1
       -7.6539407 -7.418718 -7.2207394 -9.526171
000010 64 4a 25 c1
       -10.330662
