Reinforcement-Learning/Math-RL-Book-Code/log/Sarsa_nn/Sarsa_nn_model_v0_latest.pth (torch, 6296 bytes, 4 tensors)

net.0.weight f4 [32, 25]
0.3178072 -0.015074012 -0.7875812 0.742905 0.4192389 0.47310603 0.18297885 -0.093426466
-1.5004307 2.8774467 0.40406623 0.062234417 -1.2276951 -1.6762685 0.6501006 -0.12876414
-0.03213194 -1.0547442 0.07450242 0.055139795 0.4925738 -0.101854324 0.8780112 -0.202085
0.057943776 0.75027156 2.3939853 1.5490838 0.021555766 -0.29337874 -1.8135862 -0.1911122
-0.12422035 -0.62004143 -1.1829125 -1.2136612 -0.015196949 0.486834 0.14313382 -2.16429
-1.0743253 0.1290284 -1.8053497 0.1366178 0.011587068 -1.3474014 0.008030087 1.6269972
4.3385615 0.15270136 -0.11370969 0.09448375 0.08581959 0.02078116 -0.110206105 -0.19896732
0.16917546 -0.16029254 -0.03021285 -0.055135638 -0.088506274 0.029922098 -0.165434 0.06654711
-0.151883 -0.047524408 0.05894907 -0.004704863 -0.01825741 0.18736519 -0.43511447 0.15271868
0.054108605 0.02314791 0.08469732 0.025317818 -0.09956067 -0.18796776 -0.002783507 -0.18237178
0.12035023 0.023804188 -0.17348006 -0.04744351 0.0031445324 -0.12967975 0.09891538 -0.14974037
-0.15552898 -0.11482415 -0.08936956 -0.0041837394 0.15166773 -0.17217588 -0.1257505 -0.6426339
0.11237408 0.1832888 0.020028114 -0.17034106 0.16129957 0.16650398 0.0057013035 -0.14047103
-0.03312321 -0.07321012 0.053156838 0.17594315 0.07610704 0.11274992 0.08219226 0.08247535
0.13725848 -0.13078436 0.18750884 -0.122952774 0.16868277 -0.11276555 -0.16535136 -0.14054815
-0.48079237 -0.12175801 -0.021536946 -0.004231021 -0.028080508 0.040720224 -0.08434253 -0.023699671
0.08342837 0.10944493 0.056151196 0.026178956 0.18732159 0.19337036 -0.08733449 0.010071799
0.12858774 -0.15441124 0.0504127 0.114632234 -0.43351245 -0.0077730864 -0.19950967 0.07729386
0.13965894 -0.5103695 -0.07065013 -0.070966154 0.05494879 -0.1414752 -0.072027415 -0.07693126
-0.114696 0.1859739 0.06623052 0.04264018 0.07131724 0.14653696 -0.104510285 -0.008641958
0.01195471 -0.09094854 0.09051384 -0.17872858 0.018733531 -0.15498659 -0.19693318 0.050562248
-0.012866765 -0.15277812 -0.55245024 -0.083980255 -0.07772272 -0.19447969 -0.16682425 0.124184266
-0.08563445 -0.17368482 0.055168405 0.19417767 0.0017121285 -0.13238856 0.14704941 -0.12583569
-0.029059649 0.16453893 -0.14885302 -0.01695311 -0.16764109 0.11331971 -0.40409273 0.061231688
-0.10490382 -0.14132938 -0.03194785 -0.18564951 0.025070518 0.14904214 -0.12119541 0.056304082
0.0127875805 -0.16373381 0.07208158 0.019778803 -0.0030436516 0.033028245 -0.10108335 -0.19604094
-0.09025595 0.017426223 -0.18694718 0.043234587 0.06700514 -0.15244496 -0.07842638 -0.03990233
0.030062035 -0.036693856 -0.10405083 0.046651125 -0.4498636 -0.04147832 0.18768917 0.12646167
-0.009149075 0.03572321 -0.027180955 0.19635989 0.12044744 -0.06840703 0.13559489 0.02560708
0.015256554 0.14098997 -0.10785408 0.048731238 0.059750095 -0.09656465 0.16522847 -0.07004829
-0.284818 -0.14065996 -0.16705294 -0.12459972 0.112286165 -0.5946389 -0.027746826 -0.034488797
0.043872684 -0.18805352 0.13500212 -0.06752202 -0.0077691823 0.023866013 -0.0223165 -0.08452361
00000000: a0b7 a23e fdf8 76bc ec9e 49bf 062f 3e3f
00000010: 7ba6 d63e f43a f23e cf5e 3b3e 6056 bfbd
00000020: 1d0e c0bf 1628 3840 c5e1 ce3e 84e9 7e3d
00000030: 1d25 9dbf f78f d6bf fe6c 263f bfda 03be
00000040: c89c 03bd dc01 87bf ba94 983d 44da 613d
00000050: a232 fc3e 0099 d0bd 58c5 603f 5fef 4ebe
00000060: 7456 6d3d cc11 403f 0e37 1940 6148 c63f
00000070: b895 b03c bd35 96be 9823 e8bf ebb2 43be
00000080: 3d67 febd 09bb 1ebf ad69 97bf 4059 9bbf
00000090: a0fc 78bc 4e42 f93e ac91 123e ba83 0ac0
000000a0: 7e83 89bf 0520 043e b315 e7bf 89e5 0b3e
000000b0: b0d7 3d3c a677 acbf a090 033c 7241 d03f
000000c0: 7fd5 8a40 bf5d 1c3e a0e0 e8bd b280 c13d
000000d0: 2ec2 af3d 403d aa3c bdb3 e1bd 17be 4bbe
000000e0: 553c 2d3e ba23 24be f080 f7bc e8d5 61bd
000000f0: c742 b5bd 301f f53c 8867 29be da49 883d
00000100: 3887 1bbe f4a8 42bd 9474 713d 402b 9abb
00000110: 9090 95bc a9dc 3f3e 53c7 debe 4962 1c3e
00000120: fca0 5d3d b0a0 bd3c ca75 ad3d 5067 cf3c
00000130: 77e6 cbbd 9f7a 40be 806b 36bb abbf 3abe
00000140: 2e7a f63d 0001 c33c c2a4 31be 2054 42bd
00000150: 8014 4e3b c5ca 04be 2694 ca3d 8a55 19be
00000160: fd42 1fbe ed28 ebbd 6307 b7bd c017 89bb
00000170: c94e 1b3e e04e 30be bdc4 00be a883 24bf
00000180: 6224 e63d 0fb0 3b3e 0012 a43c e36d 2ebe
00000190: b72b 253e 0580 2a3e 00d2 ba3b a3d7 0fbe
000001a0: 34ac 07bd 30ef 95bd fcba 593d 712a 343e
000001b0: 02de 9b3d 6ee9 e63d 6a54 a83d d6e8 a83d
000001c0: 7d8d 0c3e 56ec 05be 5102 403e aace fbbd
000001d0: 2dbb 2c3e a0f1 e6bd de51 29be dbeb 0fbe
000001e0: 6b2a f6be 435c f9bd 406e b0bc 60a4 8abb
000001f0: 1809 e6bc 40ca 263d c7bb acbd d025 c2bc
00000200: 7edc aa3d aa24 e03d ccfe 653d 4075 d63c
00000210: 3bd1 3f3e e102 463e 6ddc b2bd 3004 253c
00000220: 81ac 033e fb1d 1ebe 8c7d 4e3d 4ec4 ea3d
00000230: 58f5 ddbe 60b5 febb 434c 4cbe 3e4c 9e3d
00000240: c102 0f3e 93a7 02bf 04b1 90bd b456 91bd
00000250: fc11 613d e0de 10be 1c83 93bd 238e 9dbd
00000260: bde5 eabd f16f 3e3e dea3 873d 78a7 2e3d
00000270: c60e 923d c90d 163e 7d09 d6bd 0097 0dbc
00000280: b0dd 433c 3a43 babd 525f b93d a004 37be
00000290: 1077 993c ceb4 1ebe daa8 49be 5c1a 4f3d
000002a0: 20cf 52bc de71 1cbe 616d 0dbf d7fd abbd
000002b0: 172d 9fbd af25 47be fad3 2abe 5254 fe3d
000002c0: 1d61 afbd 6fda 31be 44f8 613d 83d6 463e
000002d0: 8069 e03a de90 07be 1f94 163e 12db 00be
000002e0: 800e eebc e57c 283e ed6c 18be 40e1 8abc
000002f0: 1baa 2bbe 2a14 e83d 3ee5 cebe 14ce 7a3d
00000300: d0d7 d6bd a6b8 10be c0db 02bd e81a 3ebe
00000310: b060 cd3c 819e 183e 4d35 f8bd 1c9f 663d
00000320: 0083 513c d6a9 27be 829f 933d 2807 a23c
00000330: 0078 47bb a048 073d ca04 cfbd f5be 48be
00000340: 1dd8 b8bd 70c1 8e3c 156f 3fbe c016 313d
00000350: fe39 893d 881a 1cbe 039e a0bd a070 23bd
00000360: a844 f63c 4c4c 16bd 9a18 d5bd 4015 3f3d
00000370: 8654 e6be 2ce5 29bd 9731 403e 2b7f 013e
00000380: 00e6 15bc 8052 123d 98aa debc 9112 493e
00000390: 26ad f63d fc18 8cbd 63d9 0a3e f0c5 d13c
000003a0: a0f6 793c ad5f 103e 9ae2 dcbd 689a 473d
000003b0: 84bc 743d b0c3 c5bd a731 293e 7a75 8fbd
000003c0: aad3 91be 2a09 10be ed0f 2bbe 232e ffbd
000003d0: 4af6 e53d 413a 18bf 504d e3bc 2044 0dbd
000003e0: d8b3 333d 1a91 40be ff3d 0a3e fc48 8abd
000003f0: a094 febb a882 c33c 18d1 b6bc b71a adbd

net.0.bias f4 [32]
-3.6787944 -4.938116 -0.4539909 -0.4657501 -0.48013404 -0.6988556 -0.56829166 -0.55166453
-0.64499813 -0.37494296 -0.6126005 -0.6066124 -1.4070568 -4.710819 -2.8521612 -0.616592
-1.3923625 -1.2050254 -0.63820714 -0.74644846 -2.514793 -0.60578203 -2.840277 -0.43074268
-0.53930897 -1.5015576 -1.0081173 -0.5926001 -0.6111261 -0.8316723 -0.41468775 -0.18040276
00000000: 5e71 6bc0 0c05 9ec0 7f71 e8be cc76 eebe
00000010: 21d4 f5be 33e8 32bf 907b 11bf e339 0dbf
00000020: 991e 25bf 86f8 bfbe 63d3 1cbf f34a 1bbf
00000030: 701a b4bf 07bf 96c0 cf89 36c0 f9d8 1dbf
00000040: ef38 b2bf 463e 9abf 8b61 23bf 3f17 3fbf
00000050: 5ef2 20c0 8814 1bbf 19c7 35c0 4e8a dcbe
00000060: 2710 0abf 0a33 c0bf fd09 81bf a4b4 17bf
00000070: c372 1cbf 7ae8 54bf f451 d4be 80bb 38be

net.2.weight f4 [5, 32]
-1.1692164 0.86689794 0.019427314 -0.08169136 0.06712292 -0.39551255 0.14825268 -0.53084886
0.16827081 0.04772308 -0.12886173 -0.44270062 -0.16542424 0.2806868 -2.9250414 -0.5428758
-0.73214036 -0.68125176 0.10051136 -0.43979517 1.1971555 0.14323333 -1.4279993 -0.39953527
-0.5394887 -0.08453744 -0.05728932 -0.17554265 -0.54101324 -0.5705996 -0.55860406 0.06283766
-1.0150571 1.143252 0.17216446 -0.1281261 0.1372955 0.14335631 -0.09905822 0.0953729
0.06991696 -0.07855338 0.02628678 0.052995443 -0.11181065 -0.3373752 -0.71449286 -0.16119827
0.6105825 -0.8039218 0.0032459795 -0.023980945 -1.174492 -0.47315758 -0.042471025 0.10282831
0.1630644 -0.3552423 -0.9859803 -0.4484346 0.019197896 -0.14526643 -0.05965606 -0.07731458
0.74334073 -0.17071058 -0.42615852 -0.5907775 -0.55205035 -0.46831813 -0.5653138 -0.026086017
-0.4557298 -0.5724091 -0.5560968 0.06272645 -0.016308822 1.5348067 0.87463176 0.12100904
-0.95156586 -0.20259969 -0.4446489 -0.5264734 -1.1065869 -0.4977803 -2.332408 -0.06231279
-0.5244905 -0.21377185 -0.018710487 -0.7159233 -0.52785826 -0.43277213 -0.74344087 -0.0940989
0.014622242 -0.08324327 0.010397479 -0.1716795 -0.07843853 0.09920873 -0.109942496 -0.100977376
0.117446944 -0.41596165 0.028389186 -0.050872892 0.18691544 -2.295828 -0.8008753 0.08456521
0.09818041 0.94700897 0.012911856 0.07600354 0.8488375 -0.61699367 -0.14190064 0.011612579
0.12580927 0.054045748 0.21634483 0.396192 -0.10006583 -0.45480803 -0.4051013 0.12830336
0.39489788 -1.2338066 -0.03768915 0.0051612407 -0.16769053 0.012843311 0.027124703 -0.022045791
0.13843866 -0.55235237 -0.121952325 -0.046190128 -1.3625783 -1.9292305 1.4206971 0.116828844
0.2634421 -0.3473062 0.08865197 -0.020702064 -2.6971223 -0.51070017 -0.5772585 0.11173557
-0.15060826 -0.23312916 -0.62594575 -0.88149774 0.16107236 0.046697676 -0.52636725 -0.12084102
00000000: e2a8 95bf 06ed 5d3f 0826 9f3c cd4d a7bd
00000010: be77 893d 9f80 cabe 8dcf 173e b6e5 07bf
00000020: 2f4f 2c3e 4779 433d 54f4 03be a8a9 e2be
00000030: f964 29be 2eb6 8f3e e133 3bc0 e9f9 0abf
00000040: 8d6d 3bbf 8466 2ebf e6d8 cd3d d52c e1be
00000050: 643c 993f c2ab 123e aec8 b6bf e38f ccbe
00000060: ee1b 0abf f721 adbd 35a8 6abd 74c1 33be
00000070: d87f 0abf d112 12bf ad00 0fbf 08b1 803d
00000080: 64ed 81bf 1556 923f e14b 303e 7d33 03be
00000090: 3197 0c3e ffcb 123e 09df cabd de52 c33d
000000a0: a030 8f3d 98e0 a0bd 6057 d73c c011 593d
000000b0: fbfc e4bd 71bc acbe 01e9 36bf 2911 25be
000000c0: 224f 1c3f d2cd 4dbf 80ba 543b b073 c4bc
000000d0: c155 96bf b641 f2be 19f6 2dbd a697 d23d
000000e0: 5bfa 263e 52e2 b5be 3469 7cbf 3899 e5be
000000f0: e844 9d3c b9c0 14be ea59 74bd 1b57 9ebd
00000100: 944b 3e3f c1ce 2ebe 7331 dabe 323d 17bf
00000110: 2c53 0dbf 65c7 efbe 68b8 10bf 58b2 d5bc
00000120: 6b55 e9be 6789 12bf 5c5c 0ebf ba76 803d
00000130: 149a 85bc 8c74 c43f dee7 5f3f 96d3 f73d
00000140: d299 73bf 4b76 4fbe 05a9 e3be f6c6 06bf
00000150: a4a4 8dbf 0fdd febe 2c46 15c0 b23b 7fbd
00000160: 0245 06bf 02e7 5abe bc46 99bc c046 37bf
00000170: b821 07bf 4f94 ddbe 2452 3ebf edb6 c0bd
00000180: 2192 6f3c 737b aabd 305a 2a3c c0cc 2fbe
00000190: 61a4 a0bd f22d cb3d 8829 e1bd 3acd cebd
000001a0: 0688 f03d edf8 d4be 7090 e83c 1860 50bd
000001b0: c366 3f3e d9ee 12c0 2a06 4dbf 8630 ad3d
000001c0: d012 c93d 2e6f 723f 408c 533c bea7 9b3d
000001d0: 6a4d 593f 4cf3 1dbf 674e 11be b042 3e3c
000001e0: 25d4 003e 135f 5d3d 8089 5d3e aed9 ca3e
000001f0: 50ef ccbd 99dc e8be 7069 cfbe f561 033e
00000200: 0e30 ca3e 60ed 9dbf f05f 1abd a01f a93b
00000210: 11b7 2bbe c06c 523c a034 de3c 6099 b4bc
00000220: ddc2 0d3e f766 0dbf 24c2 f9bd dc31 3dbd
00000230: f768 aebf 06f1 f6bf 67d9 b53f f643 ef3d
00000240: e2e1 863e 1ed2 b1be 2a8f b53d 6097 a9bc
00000250: a79d 2cc0 3fbd 02bf 37c7 13bf 9ed5 e43d
00000260: 0d39 1abe 69b9 6ebe fb3d 20bf d6a9 61bf
00000270: 27f0 243e 1046 3f3d 01c0 06bf 7f7b f7bd

net.2.bias f4 [5]
-13.984801 -10.417854 -14.487406 -14.460334 -10.03991
00000000: bfc1 5fc1 88af 26c1 6acc 67c1 875d 67c1
00000010: 79a3 20c1
