Reinforcement-Learning/Math-RL-Book-Code/log/REINFORCEN/REINFORCEN_model_v0_latest.pth (torch, 53602 bytes, 12 tensors)

net.0.weight f4 [128, 25]
000000 ea 78 96 3d ad ae 5a 3e 7e ac 29 3e f1 d9 e9 3d
       0.07347281 0.21355696 0.16569707 0.11418522
000010 cf 55 35 be a5 fb 4f 3d 14 4b 27 bd da a1 3b be
       -0.17708515 0.050777096 -0.040843084 -0.1832346
000020 3a 20 59 bd ba 89 c9 3d 5b c2 10 3e db de 1a be
       -0.05300925 0.098407224 0.1413664 -0.15124075
000030 55 ea 85 bd 92 f6 44 3e e8 4b 5d 3d 9d 6f d0 3d
       -0.06538836 0.19234684 0.054027468 0.101775385
000040 f5 ac 04 3e 42 90 50 bd ee da d0 3d 7a 5d d0 bd
       0.12956603 -0.050918825 0.101980075 -0.10174079
000050 d5 26 3c 3d b3 b5 0e be 83 d3 d7 bd fd 2d 9e 3d
       0.04593547 -0.139365 -0.105383895 0.07723615
000060 c2 71 92 3d a3 fd 0c bc 9a a7 1d 3e 49 72 b6 bd
       0.07150604 -0.008605394 0.15395966 -0.08908517
000070 3d f1 e4 3c 34 e2 81 bd 30 bb 42 3e 6c 31 12 bd
       0.027947063 -0.06341973 0.19016719 -0.035691664
000080 91 15 03 3e 46 0a 23 be c1 e9 e9 bc af ad 8e bd
       0.12801196 -0.15921888 -0.028553845 -0.06966721
000090 5d 11 d1 bd 5d 77 3b 3d 70 b0 db bd 48 03 f5 3d
       -0.1020839 0.04576813 -0.10727012 0.119635165
0000a0 9f 02 a1 3c 98 87 27 bd ae ad b6 bd b2 45 8d 3d
       0.01965457 -0.040900797 -0.089198455 0.06898059
0000b0 09 9d 0d 3e 46 43 19 3e 90 2e 9c bc 10 c2 aa bd
       0.13829435 0.14967069 -0.019065171 -0.08337796
0000c0 33 07 9b 3d 91 1c 40 3e 42 54 92 3d b1 32 1c 3e
       0.075697325 0.18760897 0.07144977 0.15253712
0000d0 c2 25 4b be a0 98 1a bc bf 4d 00 3e 15 ab 31 be
       -0.19838622 -0.009435803 0.12529658 -0.17350419
0000e0 97 2b 3f 3e 71 79 1f 3e 4c 09 3b 3d 5c c5 6e 3d
       0.18668972 0.1557367 0.045663163 0.058293685
0000f0 ce 48 23 be 5b f3 29 3e 40 d8 4b bd 0d 5d a3 bd
       -0.15945742 0.16596739 -0.04976678 -0.079767324
000100 9a 36 ca bd 5b 1b 22 be b4 aa 3a 3d 40 09 ef 3c
       -0.09873696 -0.15830748 0.04557295 0.029179215
000110 38 fb 34 bd 51 77 06 3e 70 a2 d2 3c e0 2a 75 3c
       -0.044184893 0.13131453 0.025712222 0.0149638355
000120 77 f5 41 be 50 80 9c 3c 60 7c 05 3c 94 7f 36 3d
       -0.18941294 0.019104153 0.008147329 0.04455526
000130 c1 0e c6 bd a6 f3 2f 3e 5f 4d 27 bd 84 94 e3 bc
       -0.09670783 0.17182788 -0.04084527 -0.027780779
000140 13 d2 de bd 6e 97 14 be 08 25 1b bd 90 5a c4 bd
       -0.10879912 -0.14510891 -0.037877113 -0.09587586
000150 66 4c 56 3d ce 0c 01 3d 79 48 33 3e 3e 24 dd bd
       0.052318953 0.031506352 0.17508115 -0.10797928
000160 fd 9b cd 3b bf 7c f9 3d 08 61 0c bd 1e 0c de 3d
       0.006274699 0.121819966 -0.034272224 0.10842155
000170 5f 73 17 be 34 f9 6d bd 7f c8 21 3e bf f5 3f be
       -0.14790104 -0.058098987 0.1579914 -0.18746088
000180 a2 03 e2 3d 05 ed 05 be 67 79 09 3c 73 0c ff bd
       0.11035849 -0.13078697 0.008390761 -0.124535464
000190 54 c5 3e 3d da 15 df 3d f2 5d cb 3d 68 11 a4 bc
       0.046574906 0.1089284 0.09930028 -0.020027831
0001a0 bd eb 24 3e 10 6a f5 3c 52 b0 c6 3d b0 fe 3f 3c
       0.16105552 0.029957801 0.09701599 0.011718437
0001b0 80 48 39 bd a6 70 99 3d 0f 60 32 3e 00 25 8d bb
       -0.045235157 0.07492189 0.17419456 -0.0043073893
0001c0 4b 33 10 be 53 c2 cc bd ba d2 af bd f5 95 37 be
       -0.14082067 -0.09998002 -0.08585115 -0.17928298
0001d0 d0 df 03 be b0 1b 5e 3c 35 b3 4b 3e 4d 90 42 3e
       -0.12878346 0.013556406 0.19892581 0.19000359
0001e0 40 46 a9 bb 38 b8 22 bd 6c 24 04 bd 60 f4 f7 3b
       -0.005165845 -0.039726466 -0.032261297 0.0075669736
0001f0 95 3b 4b 3e 9a 11 81 bd 20 ae 4f bc 80 3a a5 ba
       0.19846947 -0.06302185 -0.012675792 -0.0012605935
000200 ae 40 18 3e 68 b9 73 bd 28 40 42 bd 5d 13 f5 bd
       0.14868423 -0.05950299 -0.047424465 -0.11966584
000210 95 15 33 be 02 4b 14 be 30 11 30 be b0 e5 9c 3c
       -0.17488702 -0.14481738 -0.17194057 0.019152492
000220 f0 84 4a be 37 41 c7 bd e4 66 05 3e da d1 14 be
       -0.19777274 -0.097292356 0.13027531 -0.14533177
000230 30 94 ed bd 77 fb 09 3e ac 7b 02 3d 30 d1 61 3c
       -0.1160053 0.13474832 0.031856224 0.013782784
000240 09 55 4a 3e d8 a1 03 3e 89 fe 39 3e a0 6a 1b 3d
       0.19759001 0.12854707 0.18163504 0.037943482
000250 00 43 85 bb 86 4c 91 3d d9 6b e6 3d 1a b7 9e bd
       -0.004066825 0.07094674 0.11251039 -0.077497676
000260 53 e5 f5 bd 95 97 82 3d 99 65 10 3e 01 dc 3c 3e
       -0.12006631 0.06376568 0.14101256 0.184433
000270 18 d2 c6 3c 1e dc fb 3d 35 d4 41 be 70 33 40 bc
       0.024270102 0.122978434 -0.18928607 -0.011731014
000280 70 f0 9c bc 0b 47 2c 3e 2a 38 2c bc 4f 72 84 bd
       -0.019157618 0.16823976 -0.010511437 -0.06467115
000290 e0 5f 18 be 0c b7 be 3d ee ae b6 3d d3 b7 f9 bd
       -0.14880323 0.09312257 0.08920084 -0.12193265
0002a0 80 52 61 3c 83 40 ba bd c9 1d b7 3d 41 19 3f 3e
       0.01375258 -0.09094336 0.08941228 0.18661977
0002b0 8a ce c6 3c f0 fa 02 be b2 fb aa 3d f2 1b 14 be
       0.024268407 -0.12791038 0.08348788 -0.14463785
0002c0 60 01 32 bc b2 4d 6c 3d 79 4c 40 3e 58 2d bc 3d
       -0.010864586 0.057691284 0.18779172 0.09188336
0002d0 95 7a 42 3e ed 62 c2 bd 14 32 97 bd e8 b8 7e bd
       0.18992074 -0.09491525 -0.073825985 -0.06218806
0002e0 35 e3 e9 3d 3d 40 91 3d 4f 00 46 3e 40 1a db bc
       0.114202894 0.070923306 0.19336055 -0.026745915
0002f0 b0 72 22 be 64 df 40 3e 53 3d c8 bd 18 f7 f9 3c
       -0.15864062 0.18835217 -0.09777322 0.030513331
000300 00 ad 83 3c 30 72 51 3c 6a 92 8b 3d b8 83 6c bd
       0.016073704 0.012783572 0.06815036 -0.057742804
000310 2b 7e 1f 3e c7 e0 2d 3e 30 97 d7 bc db 12 4a be
       0.15575473 0.16980277 -0.026317209 -0.19733755
000320 d8 59 ec bd b8 be d4 3d 00 f6 3d be 9d 47 2f 3e
       -0.11540574 0.10387939 -0.18550873 0.17117162
000330 45 d5 38 3e e0 07 48 3e 75 33 10 be 48 24 57 bd
       0.18050106 0.19534254 -0.1408213 -0.052524835
000340 22 3e 44 bd fc 7e e8 3d 78 ad 8e 3d 30 b0 c6 bd
       -0.047910817 0.11352345 0.0696668 -0.09701574
000350 24 65 5a bd 1e b4 2a 3e 01 cf e9 bd 7f 26 f4 3d
       -0.05331911 0.16670272 -0.11416436 0.11921405
000360 b6 ae fd 3d 0a 4a 0b be dc 6a 8d bd 75 f4 42 3e
       0.12386839 -0.13602462 -0.069051474 0.19038565
000370 93 28 58 bd fd af f5 bd c1 26 a0 3d ef e1 86 bd
       -0.05277307 -0.11996458 0.07819892 -0.06586062
000380 0e f3 84 3d f2 a2 aa 3d 64 80 6d 3d 70 bf de bd
       0.064916715 0.083318606 0.05798377 -0.108763576
000390 c2 a8 a6 3d 00 bd c1 3c e2 13 9b 3d a0 54 ca bb
       0.08137657 0.023649693 0.07572152 -0.006174639
0003a0 05 1f 42 be 97 cb 40 be 2c 78 7e bd f9 db c4 3d
       -0.18957146 -0.18827663 -0.062126324 0.09612269
0003b0 40 36 2f be 0c f9 5d 3d 0d 40 58 3e a0 56 f3 bd
       -0.17110538 0.054192588 0.21118183 -0.11881757
0003c0 64 58 55 3d 3a f3 f4 bd f4 1c 2f bd f3 02 31 3e
       0.05208625 -0.11960454 -0.04275222 0.17286281
0003d0 2e c8 a0 3d 0c 2e 50 bd 59 1a 3f 3e b0 53 a1 3c
       0.07850681 -0.050825164 0.18662395 0.019693226
0003e0 00 7f 32 be 18 86 9e bc 30 a6 fb bd 39 58 26 3e
       -0.17431259 -0.01935105 -0.12287557 0.16244592
0003f0 64 04 6a 3d d3 58 21 be 46 19 b8 3d 20 a7 26 3d
       0.057133093 -0.1575654 0.089891955 0.040686727

net.0.bias f4 [128]
000000 4f 26 be 3d 13 08 43 3e 10 8e 31 be 2c 1d 38 3e
       0.092846505 0.19046049 -0.17339349 0.17979878
000010 85 62 fc bd 77 5b 48 bd ad 85 d5 3d c6 be a6 bc
       -0.123234786 -0.048915353 0.10425887 -0.02035464
000020 f1 77 2d 3e 08 b1 c5 bd 38 e9 3f be 21 80 02 be
       0.16940285 -0.09652907 -0.1874131 -0.1274419
000030 a3 46 ec 3c 3f 78 1d 3c f8 fb 1d be 89 68 3c 3e
       0.028842276 0.009611188 -0.1542815 0.18399252
000040 db 92 43 be fe 39 3d be ef 5d 49 bc 1d 9a f9 bd
       -0.1909899 -0.18479154 -0.012290462 -0.12187598
000050 f2 bd 48 be bf 9e ac bd 10 9f 8e bd c1 2f bc bc
       -0.19603708 -0.08428716 -0.069639325 -0.02297199
000060 03 81 e5 3d fe cc 6d bd a8 94 1d 3e 5f fb 3f be
       0.11206248 -0.058056824 0.15388739 -0.18748234
000070 c4 07 36 be 4d 5f 5b bc 7e 3a cc bd 2b 4f 44 be
       -0.177764 -0.013389421 -0.09972094 -0.19170825
000080 cc 85 96 3d a3 0e 20 3e 65 13 b5 bd 1f b9 0b 3c
       0.073497385 0.15630583 -0.0884159 0.008528023
000090 3e 3d 5b bd 96 52 32 be 24 94 8b bd bb 53 80 3d
       -0.053525202 -0.17414317 -0.06815365 0.0626597
0000a0 73 1f 12 3e 59 cf 30 3e d7 5f 4d 3c a2 ce 4d 3d
       0.1426981 0.17266597 0.012535057 0.05024589
0000b0 ca 58 48 be df e0 15 be 9f c2 7f 3c 4d 59 7d bd
       -0.1956512 -0.14636563 0.015610366 -0.061852742
0000c0 f7 28 94 3c 2d 70 97 bd 20 d0 d2 bc 44 24 8b 3d
       0.01808594 -0.07394443 -0.025734007 0.067940265
0000d0 a3 fc 83 bd 8d fa fa bc ac e0 1f 3e 0f 92 9f 3b
       -0.06444671 -0.03063705 0.1561305 0.0048697065
0000e0 84 b0 84 bd 23 de eb bd ec 6b 2b 3e af f3 8d bd
       -0.0647898 -0.115169786 0.16740388 -0.069312446
0000f0 f7 22 83 3b 67 19 f4 3d e1 76 2c bb 5e 2a 18 be
       0.004001971 0.119189076 -0.0026315975 -0.14859912
000100 d0 09 0c be 40 9d 0e 3e c0 28 0c 3d fd d4 48 be
       -0.13675618 0.13927174 0.03421855 -0.19612499
000110 a0 5f 87 bd d5 17 2a 3e d8 cb 48 3e b7 f9 5f bd
       -0.06610036 0.16610654 0.1960901 -0.054681506
000120 bc 22 f1 3d 98 49 27 be 6b 93 b2 3d 1d 46 a7 3d
       0.11774203 -0.16336668 0.08719524 0.0816767
000130 2a 02 91 bd 9d 72 54 bd 74 ea a5 3d a4 d5 23 3e
       -0.07080491 -0.051867116 0.08101359 0.15999466
000140 5b e8 86 bd 24 d7 b2 3d 5f 0f 16 3e 15 5a e4 bc
       -0.06587287 0.08732441 0.14654301 -0.027874986
000150 e4 9f 81 3d f0 87 48 be 92 ef ea 3c 0b 82 53 bd
       0.06329325 -0.19583106 0.02867869 -0.05163769
000160 0f 3a f8 bd f5 80 fa 3d c3 ab 8a 3d dc d9 57 3d
       -0.12120449 0.12231628 0.06771042 0.052698
000170 00 1b 75 3d cf 86 f8 3d ad ce a2 bd 4b ee 23 bd
       0.059840202 0.12135088 -0.079495765 -0.040022176
000180 4d 99 d2 3c d8 94 d7 bd 08 f8 1d 3d c6 10 8d bd
       0.025707865 -0.105264366 0.03856662 -0.06887965
000190 52 28 bc 3d 81 0f 2e 3d 1d a0 10 be d1 98 7a bd
       0.09187378 0.042495254 -0.14123578 -0.061180893
0001a0 e7 4e 33 3c 29 02 92 3d f4 ec c2 bd 21 9e 53 3d
       0.010944105 0.07129318 -0.095178515 0.051664475
0001b0 b3 21 18 be 0f 8c 09 be 29 d7 cb bb 6f 37 1e 3e
       -0.14856605 -0.13432334 -0.0062207174 0.15450834
0001c0 0d 2d 35 3d 89 e5 48 be 03 f3 05 3e ee 61 ed 3c
       0.044232417 -0.1961881 0.13080983 0.02897736
0001d0 ca e6 c0 3c a5 76 19 bc e4 64 dc bc 04 14 4c bd
       0.023547549 -0.009366666 -0.026903577 -0.049823776
0001e0 b7 fc 4a be 78 e0 c7 bd 9e 63 47 3e 27 fe 03 3d
       -0.19822966 -0.09759611 0.19471595 0.0322248
0001f0 95 7b 2b be fc 88 e8 3c 92 c5 1c 3d 7f 86 14 3e
       -0.16746362 0.028385632 0.038274355 0.14504431

net.2.weight f4 [5, 128]
000000 d4 59 c6 bd 4f 68 a8 3c 14 43 87 bc ad 2d bb bd
       -0.09685102 0.02055755 -0.016511478 -0.09139571
000010 82 10 e9 3c ab 5a b0 bd 74 45 9e 3d ae c8 30 bd
       0.028450254 -0.086110435 0.07728091 -0.043160133
000020 53 0a 14 3d f7 6b 65 bb 25 aa 84 3d 3b 15 4d 3d
       0.03614266 -0.003500698 0.06477765 0.050069075
000030 12 c2 55 3d ef 22 36 3d 58 2e 2c bd 76 aa 40 3c
       0.052187033 0.04446691 -0.042036384 0.011759391
000040 fd 85 30 bd 2f 59 9c 3c ed 64 d8 3c ff 7a 81 bd
       -0.04309653 0.019085495 0.026415313 -0.06322288
000050 c7 69 b0 bd 07 6f d4 bd 89 15 66 3d b6 2c 86 bd
       -0.086139254 -0.10372739 0.05617288 -0.06551497
000060 c9 4b c0 bc 68 b7 86 bd 30 92 6d bb 00 6b cb 3a
       -0.023473637 -0.06577951 -0.0036250465 0.0015519559
000070 bf 9b d6 bc 89 12 97 3d 94 82 a6 3d 70 11 b5 3c
       -0.026197312 0.07376582 0.081303746 0.022103041
000080 b0 c0 1b bd a3 36 a7 3c e8 8e 40 bc 48 82 06 bc
       -0.038025558 0.020411795 -0.0117528215 -0.008209772
000090 17 79 6f 3c a1 23 43 3d 4f 98 c3 3c 3c 01 3b 3d
       0.014616272 0.0476414 0.023876337 0.045655474
0000a0 6c 44 8d bd 2e 6d 43 bd e3 5f e6 3c 99 87 55 bd
       -0.06897816 -0.047711544 0.028121894 -0.05213127
0000b0 d0 1a f2 3c a4 8b 89 3c 53 95 9c 3d c3 71 f7 bc
       0.0295538 0.016790219 0.07645669 -0.030205613
0000c0 28 50 76 bb f2 db 0d 3d 88 1e 9c 3d da 32 99 3d
       -0.0037584398 0.034633584 0.07623011 0.07480402
0000d0 5b 8a 98 bc 12 77 95 bc 8e 65 a4 bd a0 86 03 3d
       -0.01862066 -0.018245254 -0.080271825 0.03211081
0000e0 64 27 28 bd 73 92 cf bc 2d 61 fa ba 83 e7 b7 bd
       -0.04105319 -0.025338387 -0.0019102447 -0.08979704
0000f0 a4 97 9c bd f8 69 65 bc 04 ab 0e 3c 0e 42 a8 bd
       -0.07646111 -0.014002316 0.0087077655 -0.08215724
000100 66 22 a0 bc 43 9e 4d bd b9 03 c7 3c ea 8f 7c 3d
       -0.019547652 -0.05019976 0.024293767 0.061660685
000110 e1 6b 61 3d 8e 11 84 bc 2f 57 05 bd b6 98 87 bd
       0.055034522 -0.016121652 -0.032553848 -0.06620924
000120 88 40 c0 bd 58 f3 b9 3d b1 e8 ad 3c 61 4d d3 bc
       -0.09387308 0.09079617 0.02122912 -0.025793733
000130 d9 53 8d bd 0e b0 8e 3d 78 23 b1 bd 10 28 45 bb
       -0.06900758 0.069671735 -0.08649343 -0.0030083694
000140 00 51 8b 3d c8 46 ba bd b6 4c c5 bd 41 eb 22 bd
       0.06802559 -0.09095532 -0.09633772 -0.039775137
000150 87 52 76 3d b6 1a 8b bd 4d 7f 87 bd a6 3b 89 3d
       0.060137298 -0.06792204 -0.066160776 0.0670083
000160 85 9e 55 3c 52 24 99 3d 75 8f 87 3d 61 63 79 bd
       0.013038282 0.07477631 0.06619159 -0.06088579
000170 95 eb c1 bc 79 f7 b0 bd e1 ae db 3c f8 49 5d 3d
       -0.023671905 -0.08640952 0.026816787 0.05402562
000180 1c 9e b7 bd a5 dc 96 ba 18 fd 79 3d b1 9c a1 bc
       -0.08965704 -0.0011509849 0.061032385 -0.019728037
000190 37 24 e7 bc 90 3d a0 bd 87 fb 90 3c 84 e2 61 3d
       -0.02821551 -0.07824242 0.017698063 0.055147663
0001a0 04 60 7a bd d9 23 59 3d d9 7c 8e bd bd 49 c6 3c
       -0.061126724 0.053012703 -0.069574066 0.024205083
0001b0 78 1e 98 3c e2 a5 28 3b 32 4b 40 3d eb ab c0 3c
       0.018569216 0.002573364 0.04694671 0.023519477
0001c0 6d 6a 2b 3c 33 ae 22 bd 62 f7 64 bd ff 6e 34 bd
       0.010462386 -0.03971691 -0.055899985 -0.044051167
0001d0 d1 a9 82 bc da 9b ee 3c b8 ed 36 bd bb f7 5c 3d
       -0.015950115 0.02912705 -0.0446603 0.05394719
0001e0 00 96 e8 3b d8 21 8a 3c 58 db 98 bd 61 a9 d3 3b
       0.0070979595 0.016861841 -0.074637115 0.0064594005
0001f0 5e e9 9b 3d c6 5b 24 3d da 75 1b bc 38 39 a6 bd
       0.07612871 0.040126584 -0.009488547 -0.08116382
000200 c1 81 f5 3c 57 08 99 bd b1 91 9b 3d ce d8 22 bd
       0.029969098 -0.07472294 0.07596148 -0.039757542
000210 04 cb 47 3b 81 3b 92 3d 00 5b a2 bd 04 0c c3 bd
       0.0030485997 0.07140256 -0.07927513 -0.09523776
000220 81 2f 51 bd 6e 6a 09 3d 9c 51 cd 3c 7c 96 b7 3c
       -0.051070694 0.033548765 0.025063328 0.022410624
000230 55 7d b1 bd 22 ab 98 3d 3c b0 cf 3b 1a 19 94 bd
       -0.08666483 0.07454516 0.0063381474 -0.0723135
000240 06 ca 2b 3d b5 9f 8c bd 20 c9 57 bd 40 2d 85 3d
       0.04194071 -0.06866399 -0.052682042 0.065027714
000250 46 b1 1d 3d 84 f8 77 3c d0 54 8b 3d 38 bc 22 bc
       0.03849914 0.015134934 0.06803286 -0.00993257
000260 37 b2 99 3d 93 c0 93 bd 0c df fc 3b 30 04 86 3b
       0.07504695 -0.07214465 0.007717019 0.0040898547
000270 f8 e2 7f bb 22 18 91 3d 49 a0 89 bd 4e 29 8f bd
       -0.0039045196 0.07084681 -0.06720025 -0.069903
000280 5b 7d 73 3c fe 13 10 3d 04 f4 b4 bc 85 d1 5b 3d
       0.01486143 0.035175316 -0.022089012 0.05366661
000290 c1 fb 22 3c bd 0a b3 3d 23 21 60 bd 20 95 97 bc
       0.009947718 0.087422825 -0.0547191 -0.018503726
0002a0 19 0a df bc 2e d4 62 bd b9 1d 7c 3d 97 c9 e3 bb
       -0.027226495 -0.05537813 0.061551783 -0.0069515216
0002b0 23 e8 a9 3d 06 65 77 bd fc 46 10 bd 6d c9 db 3c
       0.0829623 -0.060399078 -0.035223946 0.026829446
0002c0 ce 13 20 3c f3 74 bc bb b4 45 58 3d 8d eb 4f bd
       0.009770347 -0.005751246 0.05280085 -0.050761748
0002d0 06 41 64 3c 7c 8c 88 bd 07 1a 9f bc fd 27 31 bd
       0.013931518 -0.0666742 -0.01942159 -0.043251026
0002e0 28 6b 76 bd 51 48 ab bc 53 17 b2 3c 26 42 3e bc
       -0.060160786 -0.020908507 0.021739637 -0.011612451
0002f0 2d cc b9 bd ef 80 3b bd a5 67 e9 bc 00 08 6e b9
       -0.090721466 -0.045777258 -0.028491804 -0.00022700429
000300 ff e4 ca 3c 59 49 9d 3d 53 39 b9 bc bc 7d a8 bd
       0.024767397 0.076800056 -0.022610342 -0.08227107
000310 c5 a2 15 bc c0 71 c2 bc 80 52 df 3c ff 81 ab bd
       -0.009133046 -0.02373588 0.027261019 -0.08374404
000320 9b c5 3f bd 9c b9 01 3d c6 35 84 bd 9a 0a 2e 3d
       -0.04681931 0.03167115 -0.06455569 0.04249058
000330 b4 4b e3 bc 3b 44 1c 3c 18 ad 56 3d 49 51 1b bd
       -0.027746059 0.009537752 0.05241117 -0.037919316
000340 e0 f7 44 3d 27 ff ae 3c fa 41 89 3d fc 03 b3 bd
       0.048087955 0.0213619 0.06702037 -0.08740994
000350 8c a2 26 3d 65 b5 24 3b ce a4 a0 bd a3 aa 3e 3d
       0.04068236 0.0025132534 -0.07843934 0.04654945
000360 c9 5f 93 bc ee 35 92 3d e0 a2 ba bd c6 97 e7 bc
       -0.01799001 0.071391925 -0.09113097 -0.028270613
000370 74 5b 8e 3d 17 ae 74 bc 43 f7 8f 3c fd de 4f bd
       0.06951037 -0.014934084 0.017573958 -0.050749768
000380 1c 06 a9 bd 34 73 c5 3d 2d af 0c bd 6d 93 6c bd
       -0.082531184 0.09641114 -0.03434675 -0.057757784
000390 3d 15 b2 bd 34 8e 6e bd d0 31 a2 bd aa c0 84 3d
       -0.08695457 -0.058241084 -0.07919657 0.0648206
0003a0 a8 5a ac bc f6 3f 4a bc d7 f3 84 3d c4 0e 08 3c
       -0.021039322 -0.012344351 0.06491821 0.008304302
0003b0 cc f5 88 3c 56 d0 b1 3d c4 98 c5 bc 07 c8 77 3d
       0.016718768 0.08682315 -0.024120696 0.060493495
0003c0 c3 12 85 3c fc 47 04 3d 02 e2 e6 bc 88 49 b1 bd
       0.016244298 0.032295212 -0.02818394 -0.08656603
0003d0 b4 80 d5 bc ff a9 7c 3d e2 44 bc bd b9 44 a0 bd
       -0.026062347 0.06168556 -0.09192826 -0.07825608
0003e0 de 39 5f 3d 39 42 37 bd 8e d1 40 bd 11 eb ed 3c
       0.054498546 -0.04474089 -0.047074847 0.029042752
0003f0 08 55 0d 3c 9c 72 5e 3d 7e c0 d8 3c 99 29 4e bd
       0.00862623 0.05430852 0.026458975 -0.05033264

net.2.bias f4 [5]
000000 dd 1c e2 3c d0 32 5b bd 05 ed eb bb f3 a4 b7 bd
       0.027601654 -0.053515255 -0.007199886 -0.089670084
000010 36 4d 86 3d
       0.065576956

exp_avg f4 [128, 25]
000000 3f 49 60 c1 ca b3 5f c0 2a 7f a7 c0 c3 47 2f 40
       -14.017882 -3.4953485 -5.234273 2.738755
000010 00 00 00 00 ee ce a2 c0 00 00 00 00 00 00 00 00
       0.0 -5.08776 0.0 0.0
000020 99 8c 23 40 9c c7 8e bf 3b fa e2 3f 00 00 00 00
       2.5554564 -1.1154666 1.7732614 0.0
000030 4e 70 21 c0 ee 0b e1 c0 bb e3 e2 bf ef f2 9f c0
       -2.5224795 -7.0327063 -1.7725748 -4.998405
000040 00 00 00 00 c5 59 51 40 00 00 00 00 00 00 00 00
       0.0 3.271104 0.0 0.0
000050 b4 3e 14 c1 00 00 00 00 00 00 00 00 89 de 69 bf
       -9.265308 0.0 0.0 -0.91355187
000060 00 00 00 00 25 f4 94 bf 6a 27 2f c0 fe 21 de 3f
       0.0 -1.1637007 -2.7367806 1.7354124
000070 c7 35 82 c0 28 36 d9 c0 50 3e b5 bf 00 00 00 00
       -4.0690646 -6.787861 -1.4159641 0.0
000080 00 00 00 00 dc 54 39 3f 04 b3 2b c0 18 95 5c bf
       0.0 0.7239511 -2.6828012 -0.86165
000090 00 00 00 00 a7 d6 60 bd bc 87 e9 3f 88 aa a9 be
       0.0 -0.05489221 1.8244548 -0.33137918
0000a0 ee 26 d3 bf 00 00 00 00 6c 36 14 3f 00 00 00 00
       -1.6496255 0.0 0.5789554 0.0
0000b0 00 00 00 00 32 db f2 3e 00 00 00 00 0a 67 41 bf
       0.0 0.47432858 0.0 -0.7554785
0000c0 10 b2 ce 3f 00 00 00 00 00 00 00 00 00 00 00 00
       1.614809 0.0 0.0 0.0
0000d0 00 00 00 00 00 00 00 00 00 00 00 00 00 00 00 00
       0.0 0.0 0.0 0.0
0000e0 00 00 00 00 00 00 00 00 00 00 00 00 00 00 00 00
       0.0 0.0 0.0 0.0
0000f0 00 00 00 00 00 00 00 00 00 00 00 00 00 00 00 00
       0.0 0.0 0.0 0.0
000100 00 00 00 00 00 00 00 00 00 00 00 00 00 00 00 00
       0.0 0.0 0.0 0.0
000110 00 00 00 00 00 00 00 00 00 00 00 00 00 00 00 00
       0.0 0.0 0.0 0.0
000120 00 00 00 00 00 00 00 00 00 00 00 00 7f cb 29 c1
       0.0 0.0 0.0 -10.612182
000130 be f2 19 3f 4f 7d 80 c0 90 43 d5 3f a4 00 1b 40
       0.6013602 -4.0152965 1.6661243 2.421914
000140 ce 48 65 c0 00 00 00 00 00 00 00 00 ed 74 08 40
       -3.5825686 0.0 0.0 2.1321366
000150 0c 08 be bf c9 b0 f6 3e 00 00 00 00 c9 df b2 bf
       -1.4846206 0.4818175 0.0 -1.3974544
000160 f2 3d b4 c0 a1 b0 2a c0 c0 2e a5 c0 00 00 00 00
       -5.6325617 -2.6670306 -5.161957 0.0
000170 8c ad 44 40 00 00 00 00 00 00 00 00 00 00 00 00
       3.0730925 0.0 0.0 0.0
000180 00 00 00 00 f9 32 24 bf 82 63 cc 3d 00 00 00 00
       0.0 -0.6414028 0.09979917 0.0
000190 00 00 00 00 00 00 00 00 00 00 00 00 00 00 00 00
       0.0 0.0 0.0 0.0
0001a0 54 7c 9b c0 00 00 00 00 00 00 00 00 00 00 00 00
       -4.858927 0.0 0.0 0.0
0001b0 00 00 00 00 00 00 00 00 74 a7 9b 3e 00 00 00 00
       0.0 0.0 0.30401194 0.0
0001c0 00 00 00 00 00 00 00 00 00 00 00 00 00 00 00 00
       0.0 0.0 0.0 0.0
0001d0 00 00 00 00 00 00 00 00 00 00 00 00 00 00 00 00
       0.0 0.0 0.0 0.0
0001e0 00 00 00 00 00 00 00 00 00 00 00 00 00 00 00 00
       0.0 0.0 0.0 0.0
0001f0 00 00 00 00 00 00 00 00 00 00 00 00 00 00 00 00
       0.0 0.0 0.0 0.0
000200 71 69 45 40 00 00 00 00 00 00 00 00 00 00 00 00
       3.0845606 0.0 0.0 0.0
000210 00 00 00 00 00 00 00 00 00 00 00 00 00 00 00 00
       0.0 0.0 0.0 0.0
000220 00 00 00 00 00 00 00 00 8c 91 b5 c0 00 00 00 00
       0.0 0.0 -5.674017 0.0
000230 00 00 00 00 00 00 00 00 00 00 00 00 00 00 00 00
       0.0 0.0 0.0 0.0
000240 00 00 00 00 3f 5a 7f c0 00 00 00 00 00 00 00 00
       0.0 -3.9898832 0.0 0.0
000250 00 00 00 00 00 00 00 00 66 f0 38 40 8c 03 76 3f
       0.0 0.0 2.8896728 0.9609916
000260 00 00 00 00 d3 78 c6 c0 6d 33 c6 c0 92 b4 34 c0
       0.0 -6.202249 -6.1937776 -2.8235211
000270 00 00 00 00 00 00 00 00 00 00 00 00 67 63 29 c0
       0.0 0.0 0.0 -2.646692
000280 b6 47 c0 bf 00 00 00 00 1d a0 f0 3e aa 60 a0 40
       -1.5021884 0.0 0.46997157 5.0118
000290 00 00 00 00 76 84 61 bf 00 00 00 00 00 00 00 00
       0.0 -0.88092744 0.0 0.0
0002a0 00 00 00 00 00 00 00 00 6f 90 a5 40 00 00 00 00
       0.0 0.0 5.173881 0.0
0002b0 5a a8 4d 3f 00 00 00 00 00 00 00 00 00 00 00 00
       0.8033501 0.0 0.0 0.0
0002c0 00 00 00 00 58 f1 e8 bf 4c 46 ac 3f f6 3e f5 bf
       0.0 -1.8198652 1.3458953 -1.9159839
0002d0 f4 89 63 40 00 00 00 00 00 00 00 00 00 00 00 00
       3.555295 0.0 0.0 0.0
0002e0 be ce d1 be 04 ec c4 bf 00 00 00 00 00 00 00 00
       -0.40978044 -1.5384526 0.0 0.0
0002f0 00 00 00 00 44 56 5b c0 00 00 00 00 00 00 00 00
       0.0 -3.4271402 0.0 0.0
000300 00 00 00 00 00 00 00 00 00 00 00 00 00 00 00 00
       0.0 0.0 0.0 0.0
000310 00 00 00 00 b3 ea 9e 3f 00 00 00 00 00 00 00 00
       0.0 1.2415375 0.0 0.0
000320 57 59 83 3f 27 37 79 40 00 00 00 00 dd 24 0d c0
       1.0261639 3.8939912 0.0 -2.205375
000330 26 92 1a c0 cc 06 1a bf 00 00 00 00 00 00 00 00
       -2.4151702 -0.6016662 0.0 0.0
000340 6f 9d 3b bf 3e a8 a1 bf 87 be a2 bf 00 00 00 00
       -0.732871 -1.2629468 -1.2714394 0.0
000350 c9 40 22 3f 85 3a a3 3f 62 f9 5d bf 09 14 af bf
       0.63380104 1.2752234 -0.8670865 -1.3677989
000360 00 00 00 00 2d 80 3e bf 00 00 00 00 00 00 00 00
       0.0 -0.7441433 0.0 0.0
000370 75 7c be bf 00 00 00 00 62 0c 98 3f 87 3d 60 3f
       -1.4881731 0.0 1.1878779 0.87593883
000380 00 00 00 00 00 00 00 00 00 00 00 00 00 00 00 00
       0.0 0.0 0.0 0.0
000390 00 00 00 00 00 00 00 00 00 00 00 00 00 00 00 00
       0.0 0.0 0.0 0.0
0003a0 00 00 00 00 00 00 00 00 00 00 00 00 b0 a5 9c 3d
       0.0 0.0 0.0 0.0764879
0003b0 00 00 00 00 00 00 00 00 e5 01 f7 bf 00 00 00 00
       0.0 0.0 -1.9297453 0.0
0003c0 00 00 00 00 00 00 00 00 00 00 00 00 00 00 00 00
       0.0 0.0 0.0 0.0
0003d0 00 00 00 00 00 00 00 00 00 00 00 00 00 00 00 00
       0.0 0.0 0.0 0.0
0003e0 00 00 00 00 00 00 00 00 00 00 00 00 00 00 00 00
       0.0 0.0 0.0 0.0
0003f0 00 00 00 00 00 00 00 00 00 00 00 00 00 00 00 00
       0.0 0.0 0.0 0.0

exp_avg_sq f4 [128, 25]
000000 fd 7c 35 41 37 10 d3 40 63 ec ab 40 48 59 21 40
       11.343015 6.5957294 5.372606 2.5210743
000010 00 00 00 00 e2 51 82 40 00 00 00 00 00 00 00 00
       0.0 4.0724955 0.0 0.0
000020 da 07 ce 3f dc 5c 0f 40 d7 cd 94 40 00 00 00 00
       1.6096146 2.2400427 4.650127 0.0
000030 73 bf f1 3f 05 6f 5b 40 b5 ef 74 40 39 e5 f5 40
       1.8886551 3.428651 3.8271306 7.6842313
000040 00 00 00 00 c7 d2 94 3f 00 00 00 00 00 00 00 00
       0.0 1.1626824 0.0 0.0
000050 a1 02 3b 41 00 00 00 00 00 00 00 00 02 5f 5e 3e
       11.688142 0.0 0.0 0.2171593
000060 00 00 00 00 f6 4c 35 40 67 ad 66 40 be 6a ea 3f
       0.0 2.8328223 3.6043336 1.8313825
000070 40 2c 0d 40 0e 68 89 40 86 9d 4b 40 00 00 00 00
       2.2058258 4.293952 3.1814895 0.0
000080 00 00 00 00 b8 55 45 3f 25 47 78 3f 50 0e d1 40
       0.0 0.7708392 0.9698356 6.532997
000090 00 00 00 00 cb ec ba 3f 6a a1 c3 3f e5 b7 e4 3f
       0.0 1.4603513 1.5283635 1.786862
0000a0 e5 79 e8 40 00 00 00 00 2c e1 3a 3f 00 00 00 00
       7.2648797 0.0 0.72999835 0.0
0000b0 00 00 00 00 d9 a1 f6 40 00 00 00 00 ec 93 51 3f
       0.0 7.707257 0.0 0.81866336
0000c0 33 45 23 3e 00 00 00 00 00 00 00 00 00 00 00 00
       0.15944366 0.0 0.0 0.0
0000d0 00 00 00 00 00 00 00 00 00 00 00 00 00 00 00 00
       0.0 0.0 0.0 0.0
0000e0 00 00 00 00 00 00 00 00 00 00 00 00 00 00 00 00
       0.0 0.0 0.0 0.0
0000f0 00 00 00 00 00 00 00 00 00 00 00 00 00 00 00 00
       0.0 0.0 0.0 0.0
000100 00 00 00 00 00 00 00 00 00 00 00 00 00 00 00 00
       0.0 0.0 0.0 0.0
000110 00 00 00 00 00 00 00 00 00 00 00 00 00 00 00 00
       0.0 0.0 0.0 0.0
000120 00 00 00 00 00 00 00 00 00 00 00 00 13 8d fb 40
       0.0 0.0 0.0 7.860971
000130 5a e8 ac 40 ce b3 8c 40 04 95 1c 40 df 9b 26 40
       5.403363 4.396949 2.4465952 2.6032636
000140 c4 d1 7c 40 00 00 00 00 00 00 00 00 fd 75 ab 3f
       3.950303 0.0 0.0 1.3395382
000150 b0 e1 05 40 8f f1 85 40 00 00 00 00 14 ed ca 3f
       2.0918999 4.185737 0.0 1.58536
000160 e2 bc 4d 40 ca f3 71 40 42 db 3b 41 00 00 00 00
       3.2146535 3.7805047 11.74103 0.0
000170 11 af 9f 3f 00 00 00 00 00 00 00 00 00 00 00 00
       1.2475301 0.0 0.0 0.0
000180 00 00 00 00 ee 0d 41 3f e6 ba c1 3e 00 00 00 00
       0.0 0.7541188 0.37837905 0.0
000190 00 00 00 00 00 00 00 00 00 00 00 00 00 00 00 00
       0.0 0.0 0.0 0.0
0001a0 b2 3a 1b 40 00 00 00 00 00 00 00 00 00 00 00 00
       2.4254575 0.0 0.0 0.0
0001b0 00 00 00 00 00 00 00 00 c5 e8 70 40 00 00 00 00
       0.0 0.0 3.7642071 0.0
0001c0 00 00 00 00 00 00 00 00 00 00 00 00 00 00 00 00
       0.0 0.0 0.0 0.0
0001d0 00 00 00 00 00 00 00 00 00 00 00 00 00 00 00 00
       0.0 0.0 0.0 0.0
0001e0 00 00 00 00 00 00 00 00 00 00 00 00 00 00 00 00
       0.0 0.0 0.0 0.0
0001f0 00 00 00 00 00 00 00 00 00 00 00 00 00 00 00 00
       0.0 0.0 0.0 0.0
000200 23 eb 01 40 00 00 00 00 00 00 00 00 00 00 00 00
       2.0299766 0.0 0.0 0.0
000210 00 00 00 00 00 00 00 00 00 00 00 00 00 00 00 00
       0.0 0.0 0.0 0.0
000220 00 00 00 00 00 00 00 00 99 7b 19 40 00 00 00 00
       0.0 0.0 2.3981688 0.0
000230 00 00 00 00 00 00 00 00 00 00 00 00 00 00 00 00
       0.0 0.0 0.0 0.0
000240 00 00 00 00 b3 b8 ad 40 00 00 00 00 00 00 00 00
       0.0 5.4287963 0.0 0.0
000250 00 00 00 00 00 00 00 00 b5 6e a0 40 f1 ac a9 40
       0.0 0.0 5.013514 5.302361
000260 00 00 00 00 7e 46 3d 40 b2 8f 77 40 c7 fe 63 40
       0.0 2.9574275 3.8681455 3.5624254
000270 00 00 00 00 00 00 00 00 00 00 00 00 cb 86 f2 3f
       0.0 0.0 0.0 1.8947386
000280 25 46 c6 40 00 00 00 00 ec 2e cd 3f ad 98 48 40
       6.1960626 0.0 1.6029944 3.1343186
000290 00 00 00 00 10 22 aa 40 00 00 00 00 00 00 00 00
       0.0 5.316658 0.0 0.0
0002a0 00 00 00 00 00 00 00 00 af a5 02 41 00 00 00 00
       0.0 0.0 8.16545 0.0
0002b0 10 88 a9 3f 00 00 00 00 00 00 00 00 00 00 00 00
       1.3244648 0.0 0.0 0.0
0002c0 00 00 00 00 72 cb 67 40 55 64 37 40 c9 d0 30 40
       0.0 3.6217923 2.8654988 2.7627432
0002d0 9b 20 08 41 00 00 00 00 00 00 00 00 00 00 00 00
       8.50796 0.0 0.0 0.0
0002e0 de 88 08 40 be e8 ae 40 00 00 00 00 00 00 00 00
       2.1333537 5.465911 0.0 0.0
0002f0 00 00 00 00 96 d0 86 40 00 00 00 00 00 00 00 00
       0.0 4.212962 0.0 0.0
000300 00 00 00 00 00 00 00 00 00 00 00 00 00 00 00 00
       0.0 0.0 0.0 0.0
000310 00 00 00 00 8c 36 68 3f 00 00 00 00 00 00 00 00
       0.0 0.9070823 0.0 0.0
000320 1a 45 08 3f 50 3a 01 40 00 00 00 00 8f 02 fd 3e
       0.5323044 2.019184 0.0 0.49416015
000330 43 8d 2e 3f d5 ec 86 3f 00 00 00 00 00 00 00 00
       0.681843 1.0541025 0.0 0.0
000340 18 3c a4 3e e3 7f a3 3e 20 66 b3 3f 00 00 00 00
       0.32077098 0.31933507 1.4015541 0.0
000350 aa 57 0c 3f 86 2a e9 3e 58 ef fb 3e 2e 48 7e 3f
       0.54821265 0.45540255 0.49206042 0.9932889
000360 00 00 00 00 32 eb 7d 3e 00 00 00 00 00 00 00 00
       0.0 0.24796751 0.0 0.0
000370 1b 98 cb 3f 00 00 00 00 ea 89 a5 3e 0b cb 91 3d
       1.5905794 0.0 0.32331783 0.071188055
000380 00 00 00 00 00 00 00 00 00 00 00 00 00 00 00 00
       0.0 0.0 0.0 0.0
000390 00 00 00 00 00 00 00 00 00 00 00 00 00 00 00 00
       0.0 0.0 0.0 0.0
0003a0 00 00 00 00 00 00 00 00 00 00 00 00 3d 77 ed 3b
       0.0 0.0 0.0 0.0072468803
0003b0 00 00 00 00 00 00 00 00 e7 1d 2a 3f 00 00 00 00
       0.0 0.0 0.6645188 0.0
0003c0 00 00 00 00 00 00 00 00 00 00 00 00 00 00 00 00
       0.0 0.0 0.0 0.0
0003d0 00 00 00 00 00 00 00 00 00 00 00 00 00 00 00 00
       0.0 0.0 0.0 0.0
0003e0 00 00 00 00 00 00 00 00 00 00 00 00 00 00 00 00
       0.0 0.0 0.0 0.0
0003f0 00 00 00 00 00 00 00 00 00 00 00 00 00 00 00 00
       0.0 0.0 0.0 0.0

exp_avg f4 [128]
000000 f9 77 34 c2 a0 ea 78 c1 00 00 00 00 25 c0 c5 c1
       -45.11716 -15.5572815 0.0 -24.71882
000010 de c1 91 c0 f1 89 d2 c0 e1 11 9e c0 c5 fb 3d c0
       -4.5549154 -6.5793386 -4.9396825 -2.9684918
000020 ac 09 82 c0 8b 37 ed bf 00 00 00 00 44 e6 19 c1
       -4.0636806 -1.8532575 0.0 -9.618717
000030 b9 33 24 c0 fe be 85 40 9a dd 83 3f e5 b4 0a c1
       -2.565657 4.1795645 1.0302002 -8.669164
000040 00 00 00 00 f7 44 60 3d ec 75 c3 bd bf 1c db bf
       0.0 0.05475327 -0.09543976 -1.7118148
000050 00 00 00 00 b0 ac a1 c0 f8 51 8c c0 3c c6 2d c1
       0.0 -5.05233 -4.385006 -10.860897
000060 29 f9 9b c1 29 03 d8 40 5a 92 50 41 00 00 00 00
       -19.49666 6.7503858 13.03573 0.0
000070 d0 cb 97 3f 78 fb 21 be 79 25 23 c0 00 00 00 00
       1.1859074 -0.15818584 -2.5491621 0.0
000080 9a e4 ed 40 03 e9 cd 41 b4 e7 aa 3f 61 02 ad 40
       7.4341555 25.738775 1.335196 5.4065404
000090 a9 e2 89 c1 ea bf 8b 3f 2b 44 5f c1 38 a2 66 41
       -17.235674 1.0917943 -13.954143 14.414604
0000a0 69 d1 19 40 d7 1d 26 41 95 85 67 bf 94 08 98 40
       2.4034064 10.382285 -0.90438205 4.751047
0000b0 00 00 00 00 c9 2d a8 c0 58 bd 4f 41 a4 fc d3 c0
       0.0 -5.255589 12.9837265 -6.62459
0000c0 1e 2a f5 40 30 f2 85 c0 27 12 59 c0 3e af bf bf
       7.6613913 -4.185814 -3.391733 -1.4975355
0000d0 63 13 e3 40 ce b0 6b c1 5b c6 9d 41 92 49 12 c0
       7.0961165 -14.730665 19.721853 -2.2857404
0000e0 da 5f 3b 40 65 b0 d5 c0 50 cb 3f c1 5c dd cd be
       2.9277253 -6.6777825 -11.987137 -0.40207946
0000f0 c4 f8 d9 c1 36 1c 91 41 e8 5e 09 41 00 00 00 00
       -27.246468 18.138775 8.58567 0.0
000100 c0 66 53 c0 c9 8e 1f c2 b0 19 b4 41 00 00 00 00
       -3.3031464 -39.88944 22.512543 0.0
000110 82 53 5c c1 2a 77 e4 c0 1f aa 57 3e e5 4e bb be
       -13.770388 -7.1395464 0.2106099 -0.3658363
000120 bd 0b b0 c1 9e c8 0c 3f 7b 72 5e 41 8c 18 fc 40
       -22.005732 0.5499362 13.902949 7.8779964
000130 43 74 58 be 95 61 2e 40 a2 0a a5 c1 ef 1e a3 c1
       -0.211381 2.724706 -20.630192 -20.390104
000140 c6 86 ad c0 1b 18 f8 3f 3f 0c e7 c1 31 e7 ca c1
       -5.422702 1.9382356 -28.88098 -25.362886
000150 d3 2c df c0 a1 1d 03 3e 39 8d 00 40 ed 7b 15 c1
       -6.9742217 0.12804271 2.0086195 -9.342755
000160 2b c8 6f bf 03 e2 e9 c0 30 9b 0e c2 a4 48 e4 c0
       -0.9366481 -7.3088393 -35.65155 -7.1338673
000170 c8 43 21 be 2b af 7d 41 c3 b5 1d 41 c5 ec b0 41
       -0.15748513 15.855266 9.856875 22.11561
000180 68 1d 80 c0 de 7a 04 3f be ee e9 c1 d3 dd 73 3f
       -4.0035896 0.5174998 -29.241573 0.9526035
000190 55 ca 3a c2 7d ce 87 c1 cf 18 94 3f 13 11 bd bf
       -46.69759 -16.975824 1.1570071 -1.4770836
0001a0 89 83 0b c0 ca bc c2 c1 54 58 86 40 d5 29 db c0
       -2.1799033 -24.342182 4.1982822 -6.8488564
0001b0 00 00 00 00 7a f1 b6 bf 5f f1 d1 3f bb 02 d5 41
       0.0 -1.4292443 1.6401786 26.626333
0001c0 bc ad 6a 40 14 db b2 3c 8f 17 b1 bf f6 f4 14 c2
       3.666854 0.02183298 -1.3835315 -37.23922
0001d0 f5 e4 00 c1 4e 98 0b c0 98 15 95 c1 d2 3f 1e c0
       -8.055898 -2.181171 -18.635544 -2.4726453
0001e0 00 00 00 00 e7 08 ac 40 a9 a8 07 c2 d7 c6 41 c0
       0.0 5.3760867 -33.914707 -3.0277612
0001f0 1d 69 33 3f 53 e9 ec c1 c5 3b 49 c1 25 0b 8d c1
       0.70082265 -29.613928 -12.577092 -17.630442

exp_avg_sq f4 [128]
000000 fe d3 02 43 4e ca 49 42 00 00 00 00 71 74 85 42
       130.8281 50.447563 0.0 66.727425
000010 97 6d ac 40 45 1d 0d 41 ea fa 6b 42 1e 06 8f 41
       5.3883777 8.819646 58.995033 17.877987
000020 cb 68 19 41 b0 fe 2b 3f 00 00 00 00 70 da c3 40
       9.588084 0.671855 0.0 6.1204147
000030 d1 2a af 41 8d 76 2c 40 ee bf b6 3e 46 b2 8b 41
       21.895906 2.6947358 0.35693306 17.462048
000040 00 00 00 00 b8 cb 3d 3e c1 1c 6c 41 d9 e6 5c 3f
       0.0 0.18534744 14.75702 0.86289746
000050 00 00 00 00 1b 6c a9 41 9e 2f 9a 40 25 19 a1 41
       0.0 21.177786 4.8183126 20.137278
000060 c4 4a a3 41 33 7e 92 41 7e 6d 19 42 00 00 00 00
       20.411507 18.31162 38.356926 0.0
000070 cc b7 a5 3f cf 2c 34 41 a7 c9 ef 40 00 00 00 00
       1.2946715 11.26094 7.493366 0.0
000080 a5 88 b2 41 80 02 29 42 27 c6 01 40 e5 09 59 42
       22.316721 42.25244 2.0277193 54.259663
000090 5b e2 97 41 1d eb 57 40 b3 c9 d3 41 f7 2e 6c 42
       18.985525 3.3737252 26.473486 59.045864
0000a0 86 10 16 41 1c fa 16 42 5d a3 aa 40 53 af ba 40
       9.379034 37.744247 5.332442 5.833902
0000b0 00 00 00 00 b4 bf 43 41 aa f0 23 42 62 10 1b 42
       0.0 12.2343025 40.985023 38.766
0000c0 5c b3 28 41 18 95 43 40 8c 39 a4 41 f2 ca b3 41
       10.543789 3.055975 20.5281 22.474094
0000d0 47 72 b1 40 23 e1 74 42 ac 70 2f 42 2e 6b f0 40
       5.5452 61.21986 43.86003 7.5130835
0000e0 b4 dc d9 3f 65 23 17 40 f7 2d 98 41 fd d3 8b 40
       1.7020478 2.3615353 19.022444 4.3696275
0000f0 5a ff 95 42 a7 ab 0b 42 10 70 ed 41 00 00 00 00
       74.99873 34.91763 29.679718 0.0
000100 42 d7 52 40 8c 3b 9e 42 c9 b9 0a 42 00 00 00 00
       3.2943883 79.1163 34.68143 0.0
000110 f9 e0 72 41 0f 50 71 41 9b e1 92 41 37 0c 50 41
       15.179925 15.082046 18.360159 13.002982
000120 1a 7c 85 42 60 99 e1 40 85 4c f0 41 4e 9b 74 42
       66.742386 7.0499725 30.037363 61.151665
000130 6a ca 76 3f f2 0d ae 40 4b 74 60 42 bc 12 db 41
       0.9640261 5.4392023 56.113567 27.384148
000140 4f 41 ec 41 30 f2 08 42 58 c7 50 42 c2 b6 ee 41
       29.531889 34.23651 52.19467 29.839237
000150 6a 8a 30 42 b3 65 ae 3f e1 c2 7f 41 3b ce 1c 41
       44.13517 1.3624786 15.985078 9.800349
000160 ff 19 43 41 f6 71 96 42 d0 56 dc 42 2e a2 75 42
       12.193847 75.22258 110.169556 61.40838
000170 58 9d 4f 42 ba 15 ac 41 55 ad 06 41 fe 0a 87 42
       51.903656 21.510609 8.417317 67.52147
000180 00 39 2c 41 a8 ac ac 40 9f 21 5c 42 e2 f2 87 41
       10.763916 5.396076 55.032833 16.993595
000190 bd 84 d9 42 13 36 31 42 85 0a 85 41 dd 69 03 42
       108.759254 44.302807 16.630136 32.853382
0001a0 66 07 09 40 1b 34 6d 42 c0 d9 57 42 51 b3 f3 40
       2.1410766 59.300884 53.962646 7.615639
0001b0 00 00 00 00 f3 b4 d7 3f 7c 34 28 41 1d d1 e0 42
       0.0 1.6852096 10.512814 112.408424
0001c0 7b b8 2d 40 67 5e 25 3e aa 10 21 41 05 70 18 43
       2.7143848 0.16149293 10.066568 152.43758
0001d0 1e a0 aa 40 e4 41 94 40 4e dd 13 42 22 d1 2d 41
       5.3320456 4.6330433 36.966118 10.863558
0001e0 00 00 00 00 b8 66 15 41 f8 92 50 42 76 da 05 42
       0.0 9.337578 52.143524 33.46334
0001f0 3c c2 97 3f 40 3e c3 42 45 5e 83 41 2d f6 5d 42
       1.1856151 97.62158 16.42103 55.490406

exp_avg f4 [5, 128]
000000 69 d7 d5 41 b9 53 bf 41 00 00 00 00 f9 47 8d 41
       26.73018 23.91588 0.0 17.660143
000010 88 9d dc bf 43 63 37 40 20 c8 c4 40 4d 3b d1 c0
       -1.7235575 2.8654335 6.1494293 -6.538489
000020 54 ea 24 c0 56 cf 8a 40 00 00 00 00 ff 99 2e bf
       -2.5768023 4.3378096 0.0 -0.6820373
000030 bc 6e cd be 33 99 27 3f 4d be 92 be b1 16 85 41
       -0.40123546 0.6546814 -0.28660813 16.63608
000040 00 00 00 00 dc ae 5e ba db 19 e6 bf a6 a4 e2 3e
       0.0 -0.0008494684 -1.797664 0.44266242
000050 00 00 00 00 fa 3a be 40 a6 bf 34 be 76 27 92 40
       0.0 5.9446993 -0.17651233 4.567317
000060 a0 76 a5 40 f4 b5 41 41 18 95 f2 40 00 00 00 00
       5.1707306 12.106922 7.5807 0.0
000070 6e 1c 6b 3e de 7b e0 40 cb 4e 3b 3f 00 00 00 00
       0.22960064 7.0151205 0.73167104 0.0
000080 30 2b 42 40 1f d8 87 41 f8 7f 9e bf e9 5c ae 40
       3.033886 16.980528 -1.2382803 5.4488416
000090 29 7d be 40 45 4c 3c 3f 87 a4 9c 3f 65 4f 42 41
       5.9527783 0.7355388 1.223771 12.144383
0000a0 f7 04 81 41 d3 86 75 41 95 1f 7f c0 18 6f d8 c0
       16.127424 15.345416 -3.9863026 -6.7635612
0000b0 00 00 00 00 bf 6e 07 40 88 a7 07 41 49 70 54 3f
       0.0 2.1161344 8.478401 0.82983834
0000c0 da 32 05 c1 e8 7b 34 c0 dc 9a 75 40 25 bd 91 41
       -8.324915 -2.8200626 3.8375769 18.217356
0000d0 d4 04 ca 3f 4b f4 ad 40 3a 35 d3 41 c8 4e 26 41
       1.5782723 5.436071 26.40099 10.394234
0000e0 d5 76 5f c0 38 75 99 3d 9f 4d 3d c1 7f 70 a6 bc
       -3.491628 0.07493061 -11.83145 -0.020317314
0000f0 63 67 0d 40 08 d6 ab 41 c7 af 86 40 00 00 00 00
       2.2094352 21.479507 4.208957 0.0
000100 52 56 06 3f 71 5a c1 41 5f 4b 7c c0 00 00 00 00
       0.52475464 24.16916 -3.9421003 0.0
000110 a7 b8 8b 3e 10 0b 06 c1 70 d6 8f 41 aa 0b 95 40
       0.27289316 -8.377701 17.979706 4.657674
000120 82 57 0d 41 b4 1f 34 be bc c8 99 41 1b ee b1 41
       8.833864 -0.17590219 19.223015 22.241262
000130 f3 7a 38 40 b8 ea 3c 3f f7 cc 9a 41 9c 50 81 c1
       2.8825042 0.7379565 19.35008 -16.16436
000140 f2 bb 05 41 4d 0e 22 41 d5 b5 ab 41 25 87 87 be
       8.358385 10.128491 21.463785 -0.26470295
000150 4f 03 30 40 0c f6 37 bb 3a b8 0b 41 09 d5 cd 40
       2.750202 -0.002807024 8.732477 6.4322553
000160 68 0f 28 40 29 43 ff 41 d3 0c 51 c1 68 9d 31 41
       2.6259403 31.907793 -13.065631 11.100929
000170 da 59 45 41 77 50 af 41 77 4a a3 40 33 69 02 41
       12.334436 21.91429 5.10284 8.150683
000180 c9 ab 42 41 0b 78 9b 3f 44 70 b7 ba 77 01 35 41
       12.16694 1.2146009 -0.001399525 11.312858
000190 f6 cb 71 41 d0 9b 30 41 09 c3 cf 3f c2 88 50 40
       15.112295 11.03804 1.6231395 3.258347
0001a0 88 bd 06 c0 03 c7 5a 41 fc a1 99 3f 4e e6 fe 40
       -2.105318 13.673587 1.2002559 7.9656134
0001b0 00 00 00 00 da bb 9f 3f 74 27 c2 40 fe 14 93 41
       0.0 1.2479203 6.067316 18.38525
0001c0 f5 2f a2 c0 2c 90 1f ba bf 73 c5 40 72 5d 28 41
       -5.068354 -0.0006086852 6.170379 10.522814
0001d0 c8 7a f2 40 1f fb 29 c0 00 43 56 bf 09 4f d4 be
       7.577488 -2.6559522 -0.83695984 -0.4146655
0001e0 00 00 00 00 7e f7 be 3f 08 8a 88 41 3b 32 c7 c0
       0.0 1.4919279 17.067398 -6.2248816
0001f0 c0 8a ba 3e f4 6d 81 41 68 29 21 41 8e 57 da 40
       0.36433983 16.178688 10.072609 6.823188
000200 38 48 4b c1 ea 95 08 c1 00 00 00 00 24 97 e4 bf
       -12.705132 -8.5366 0.0 -1.7858624
000210 93 2d f5 3f 0b 4a 54 40 40 c2 ed 40 98 8c 8f 40
       1.9154533 3.3170192 7.429962 4.4859123
000220 5a e5 6f be b9 29 a0 bf 00 00 00 00 e4 43 33 bf
       -0.23427334 -1.2512733 0.0 -0.7002547
000230 ac fa 01 c0 18 a8 95 c0 29 38 e9 3b 2b 9a 87 41
       -2.0309248 -4.6767693 0.0071172905 16.950277
000240 00 00 00 00 c9 69 8e bb d0 14 d1 bf a7 7b a5 bf
       0.0 -0.0043461067 -1.6334476 -1.2928361
000250 00 00 00 00 74 8d 45 c0 7f e5 b6 bf 20 f7 42 c1
       0.0 -3.0867586 -1.4288787 -12.185333
000260 73 36 53 40 f2 5d cb c0 72 4e 4e 40 00 00 00 00
       3.3001983 -6.355218 3.223538 0.0
000270 cb 74 ab bd c6 21 c3 40 a9 fd 83 bf 00 00 00 00
       -0.08371886 6.0978727 -1.0311786 0.0
000280 62 44 aa bf 92 05 8a c0 02 62 8c 3f 96 46 c7 3e
       -1.3302119 -4.31318 1.096741 0.3892104
000290 48 7c b8 c0 82 d6 c7 be d8 73 6a c0 5a d7 f5 c0
       -5.765171 -0.39030844 -3.6633205 -7.682538
0002a0 1a eb a3 c1 ca 43 4c c1 7f fd 65 41 78 5c 0f c1
       -20.489796 -12.76655 14.374389 -8.960075
0002b0 00 00 00 00 8b 36 01 40 b6 90 19 40 d7 76 a3 40
       0.0 2.018954 2.3994575 5.108257
0002c0 5c 32 28 bf 34 8b 2b 3f a4 8e 8d 3f ad dc 79 c1
       -0.6570184 0.6700928 1.1059155 -15.616376
0002d0 c7 da 89 bf 8c 45 26 3f 11 c3 79 c1 f7 a8 ca 40
       -1.076989 0.6494987 -15.610124 6.3331256
0002e0 4c b9 dc 3f 32 ed a5 bf 4b e3 a9 bf 3c 39 2e 3f
       1.7244048 -1.2963011 -1.3272489 0.6805608
0002f0 a0 ce aa c0 4a 6f 15 c1 3a a0 70 be 00 00 00 00
       -5.337723 -9.33967 -0.23498622 0.0
000300 1a cc 13 c0 f7 56 63 c1 88 1e bb 40 00 00 00 00
       -2.3093324 -14.208732 5.847477 0.0
000310 bd e6 68 c0 15 b8 58 41 35 53 a3 c1 3e 7b 18 40
       -3.6390831 13.544942 -20.415628 2.382522
000320 f4 4b 38 41 3a 38 3b be d1 a3 7d c0 d5 eb 2c c1
       11.518543 -0.18283167 -3.9631236 -10.807576
000330 5e 14 aa c0 c0 c5 4d c0 7d 48 23 c1 d8 46 3f 40
       -5.314986 -3.2151947 -10.205197 2.988699
000340 70 34 13 c1 34 c5 25 c1 7e 4e bb c1 de 68 02 c0
       -9.200302 -10.360645 -23.413326 -2.0376506
000350 6b de 85 41 88 b0 a1 ba 33 55 02 c1 25 e9 04 c1
       16.733603 -0.0012335936 -8.145801 -8.30692
000360 15 6e 10 40 24 52 ce c0 57 f4 f9 40 9c 10 23 40
       2.2567189 -6.447527 7.8110766 2.5478888
000370 6f 02 b9 3f 44 48 8b c1 f6 59 83 c0 d0 e6 5e 40
       1.4453868 -17.410286 -4.1047316 3.4828377
000380 27 f5 dc c0 91 bd b6 be 2e 26 ad bf 03 8c 20 40
       -6.904926 -0.35691503 -1.3527277 2.5085456
000390 e2 b5 c9 c0 20 70 34 40 4c 12 c9 3e 60 34 87 bf
       -6.3034525 2.8193436 0.39271772 -1.0562859
0003a0 f7 09 ae c0 a0 05 9a 40 d9 0f 56 40 98 66 2f c1
       -5.4387164 4.8131866 3.3447173 -10.962547
0003b0 00 00 00 00 38 f6 97 bf 2d 60 96 c0 2f e8 7b c0
       0.0 -1.1872015 -4.69924 -3.9360464
0003c0 5a 9e 76 be 9a 58 c8 38 5e f3 b0 40 7b b3 7f 40
       -0.24083844 9.5532465e-05 5.529708 3.9953296
0003d0 7c 00 2f 40 aa e2 5c c0 71 b9 9a 40 0f c1 c8 3f
       2.7344046 -3.4513345 4.835137 1.5683917
0003e0 00 00 00 00 06 c7 4d bd 24 10 21 c1 b8 77 4c 40
       0.0 -0.05023863 -10.066441 3.194807
0003f0 48 82 16 bf 13 b0 ff 3f 2e 90 b3 bf de d7 5f c1
       -0.58792543 1.9975609 -1.4028375 -13.990202

exp_avg_sq f4 [5, 128]
000000 6e 0c dd 42 e0 21 24 43 00 00 00 00 d6 1f b9 42
       110.52428 164.13232 0.0 92.56218
000010 6f 5e 1b 3f 24 6a 28 40 69 fe 7e 42 9d 76 89 41
       0.6069097 2.6314783 63.748447 17.182917
000020 68 08 04 43 73 b5 c8 3f 00 00 00 00 55 32 5d 3f
       132.03284 1.5680374 0.0 0.86404926
000030 3e 65 a0 41 5e 6e 22 40 ef ad 06 3c 39 ad 86 43
       20.049435 2.5379863 0.00822018 269.3533
000040 00 00 00 00 08 d7 27 39 7d af 16 41 3d 8c 47 3d
       0.0 0.00016006466 9.417844 0.048717726
000050 00 00 00 00 ea eb a0 40 f5 2d 00 3f 24 64 64 41
       0.0 5.028798 0.50070125 14.274448
000060 ef ab ae 41 46 fe 82 41 64 45 b8 42 00 00 00 00
       21.833952 16.374157 92.13553 0.0
000070 c5 2d 0c 3d ea d2 92 41 cd 83 eb 3f 00 00 00 00
       0.034223337 18.352985 1.8399597 0.0
000080 eb 4f 2c 42 53 5c e3 42 12 be 18 40 b2 bd 64 42
       43.078045 113.68032 2.386601 57.18525
000090 af 0e 0c 41 77 30 d4 3d 59 39 be 40 8e 1f 2f 42
       8.753585 0.103608064 5.9445004 43.780815
0000a0 cd b0 ad 42 d0 3d d0 42 ce 13 f9 41 a3 9d b7 41
       86.845314 104.12073 31.13467 22.951971
0000b0 00 00 00 00 ac 28 30 3f b9 70 0a 42 11 d5 0d 41
       0.0 0.6881206 34.61008 8.864518
0000c0 db 17 ed 40 9c 25 8b 3f f3 1a 81 40 19 66 51 42
       7.409162 1.0870852 4.0345397 52.349705
0000d0 c7 18 06 41 77 d7 08 41 e4 9b fa 42 8d 9e b9 41
       8.381049 8.552604 125.304474 23.202417
0000e0 e7 b7 a0 3f 21 25 af 3e b4 f6 dd 42 6a 5e aa 40
       1.2556123 0.34208015 110.98184 5.324025
0000f0 74 7e 4a 41 9d a1 b4 42 f4 b5 db 41 00 00 00 00
       12.655872 90.31565 27.463844 0.0
000100 fc d5 90 3f a5 fd d5 42 9f 80 d0 41 00 00 00 00
       1.1315303 106.9954 26.062803 0.0
000110 e4 5a eb 40 c7 8d 92 42 86 d5 d8 42 9b 97 de 40
       7.354845 73.27691 108.41704 6.9560065
000120 6b 35 c7 42 7a 35 5c 3e 47 c6 9f 42 0d 46 79 42
       99.60433 0.21504775 79.88726 62.31841
000130 e6 e5 b2 40 67 27 9d 40 75 70 89 42 71 9c 6f 42
       5.590564 4.91106 68.71964 59.902775
000140 0e 7a 3d 41 fe 18 72 42 67 90 74 42 43 61 48 40
       11.8422985 60.524406 61.141018 3.1309364
000150 07 33 ff 41 bb 17 3d 3b 2f b0 4d 41 5c 63 f5 40
       31.899916 0.0028853256 12.855514 7.668379
000160 8f a6 ac 3f 94 21 d2 42 63 b2 0f 42 c0 db 8b 41
       1.348833 105.06558 35.924206 17.4823
000170 bd 59 8b 42 89 4b 82 42 58 a4 2f 40 89 d4 a9 41
       69.67527 65.14753 2.7444057 21.228777
000180 cc 22 e6 41 98 db 4d 3e df 71 81 41 6f 91 22 41
       28.76699 0.201033 16.180601 10.160506
000190 34 38 8a 42 ce db cc 41 19 9a 79 3e e7 7b 88 40
       69.10977 25.607327 0.2437519 4.265125
0001a0 b7 19 40 40 8b 20 e5 42 2a c0 a1 40 59 c4 03 42
       3.0015695 114.56356 5.0547075 32.941746
0001b0 00 00 00 00 fa f8 8d 3e 90 b2 8a 41 8a 13 e4 42
       0.0 0.27729017 17.337189 114.03816
0001c0 f9 eb 9e 41 6c 09 1b 39 64 76 89 42 01 27 fd 41
       19.865221 0.00014785462 68.73123 31.644045
0001d0 48 bb d8 41 d3 a6 73 41 dc 5b 47 41 fc 80 91 40
       27.091446 15.228229 12.459927 4.546995
0001e0 00 00 00 00 ee 1f 8f 40 74 bc bb 42 b5 ed c3 41
       0.0 4.4726477 93.86807 24.491068
0001f0 a1 5c e7 3d 05 cd f2 41 b1 ff c0 41 1d a1 90 42
       0.112969644 30.350107 24.12485 72.314674
000200 44 81 4c 42 3e b9 38 43 00 00 00 00 e0 2c 40 42
       51.126236 184.7236 0.0 48.043823
000210 e6 1c 2b 3f bc 6f 9e 40 1b 90 d5 42 9f da 4e 41
       0.6684097 4.9511395 106.781456 12.928374
000220 59 00 f0 42 d4 b8 5e 3f 00 00 00 00 0c e8 df 3e
       120.00068 0.87000775 0.0 0.43731725
000230 f0 d2 6e 41 d6 84 77 40 ac 0b c9 3b 3b d8 2e 43
       14.926498 3.8674827 0.0061354246 174.84465
000240 00 00 00 00 0f da 6b 3a bd df e4 40 92 80 0e 3e
       0.0 0.0008997032 7.152312 0.13916233
000250 00 00 00 00 c1 ad 29 40 37 41 09 3f 0a 80 71 41
       0.0 2.65123 0.53615135 15.09376
000260 3e fb 06 42 08 d1 ba 40 a4 6d c9 42 00 00 00 00
       33.745354 5.8380165 100.71414 0.0
000270 4a 7a e6 3c 70 f4 af 41 7a 7e 45 3f 00 00 00 00
       0.028134484 21.994354 0.7714611 0.0
000280 ca 92 10 42 e4 f6 71 42 9c 19 6f 40 a4 98 28 42
       36.14335 60.491104 3.735938 42.149063
000290 75 44 f7 40 c8 9e 30 3d 05 7f 81 40 4c 85 08 42
       7.7271066 0.043120176 4.0467553 34.130173
0002a0 70 01 a4 42 dc ab e5 42 5a 2d ae 41 19 a4 e3 41
       82.00281 114.83566 21.772144 28.455126
0002b0 00 00 00 00 37 6c 8e 3f 90 82 21 42 dc 08 08 41
       0.0 1.1126775 40.377502 8.502163
0002c0 8a e1 1e 41 39 68 03 40 26 93 8c 40 35 fd 14 42
       9.930063 2.0532362 4.3929625 37.247272
0002d0 14 fd d7 40 2d 5a e4 40 d8 ce f6 42 55 94 cc 41
       6.7496433 7.136008 123.40399 25.572428
0002e0 d9 80 7b 3f e6 3b e0 3e 51 36 0e 43 1c ab b4 40
       0.9824348 0.437957 142.21217 5.6458874
0002f0 b2 13 ab 41 c5 e9 09 43 47 7e 44 41 00 00 00 00
       21.384617 137.91316 12.280829 0.0
000300 af b8 04 40 ff 0f 88 42 1d f4 86 41 00 00 00 00
       2.0737722 68.03124 16.869196 0.0
000310 9d 2e 0c 41 b2 0c ef 42 cb 3a bd 42 81 cb 83 40
       8.76138 119.524796 94.61483 4.118592
000320 0b 1a 83 42 55 e9 9f 3e 85 a5 5d 42 eb ca 49 42
       65.550865 0.31232706 55.41164 50.448162
000330 49 eb 0b 41 cd ef b8 40 7d 76 fb 41 64 21 10 42
       8.744943 5.7792726 31.432856 36.032608
000340 9c 56 12 41 3e f6 47 42 cb 1d 57 42 9e 5c 39 40
       9.146145 49.99047 53.779095 2.896278
000350 48 0c 8d 42 64 86 85 39 dc 56 30 41 45 02 df 40
       70.52399 0.00025467866 11.021206 6.969027
000360 0f 63 e6 3f ed a8 77 42 1b 26 3b 42 b5 e8 ca 41
       1.799898 61.914967 46.787212 25.363626
000370 4d 8c 5d 42 41 ec 37 42 8e eb f0 3f 7b df 1b 42
       55.387012 45.980717 1.8821886 38.968243
000380 f8 a2 67 41 39 9a df 3d f8 57 6b 42 78 ad f2 40
       14.477287 0.109180875 58.835907 7.5836754
000390 43 c8 7d 42 db a5 cc 41 c0 af 80 3e f4 d4 80 40
       63.445568 25.580984 0.25134087 4.0259953
0003a0 db c9 ab 40 d8 b3 9d 42 e4 89 3d 41 ec c0 96 41
       5.3683906 78.85126 11.846165 18.8442
0003b0 00 00 00 00 2f 72 7d 3e cb 2d b6 41 de 75 f7 42
       0.0 0.24750589 22.77236 123.73021
0003c0 53 47 0e 41 25 43 66 37 e5 f6 8b 42 82 2b 6d 41
       8.892413 1.3724702e-05 69.982216 14.823122
0003d0 31 5e 00 42 1d 1a 2a 41 be 6b ed 40 24 5a 50 41
       32.091984 10.631375 7.419402 13.022007
0003e0 00 00 00 00 4c bb 56 40 2c 73 04 43 b7 6a c4 41
       0.0 3.3551817 132.44989 24.552107
0003f0 48 f2 0e 3e eb 85 d6 41 0d 55 f4 41 e4 e7 78 42
       0.1395961 26.81539 30.541529 62.226456

exp_avg f4 [5]
000000 bf 91 91 42 77 68 9b c1 6c 84 ba 42 81 a3 65 43
       72.78466 -19.426008 93.25864 229.63869
000010 bb 20 bc c3
       -376.2557

exp_avg_sq f4 [5]
000000 23 65 24 45 4f 86 10 45 40 bd 95 45 0c 59 98 45
       2630.321 2312.3943 4791.6562 4875.131
000010 be a2 d8 45
       6932.343
