Reinforcement-Learning/Math-RL-Book-Code/log/REINFORCEN/REINFORCEN_model_v0.pth (torch, 53334 bytes, 12 tensors)

net.0.weight f4 [128, 25]
0	0x3d8ffcf2	0.07030667
1	0x3e584ed1	0.21123816
2	0x3e27c0d4	0.16382152
3	0x3dee275a	0.116285995
4	0xbe3555cf	-0.17708515
5	0x3d457e26	0.048216008
6	0xbd274b14	-0.040843084
7	0xbe3ba1da	-0.1832346
8	0xbd587582	-0.05284644
9	0x3dc7c9c4	0.097552806
10	0x3e125185	0.1428891
11	0xbe1adedb	-0.15124075
12	0xbd8921c3	-0.06695893
13	0x3e418aa0	0.18900537
14	0x3d594f97	0.05305442
15	0x3dcc6223	0.099796556
16	0x3e04acf5	0.12956603
17	0xbd44d459	-0.048054073
18	0x3dd0daee	0.101980075
19	0xbdd05d7a	-0.10174079
20	0x3d2f0327	0.042727616
21	0xbe0eb5b3	-0.139365
22	0xbdd7d383	-0.105383895
23	0x3d9cd47d	0.076577164
24	0x3d9271c2	0.07150604
25	0xbc199547	-0.009373969
26	0x3e1cf0f0	0.15326285
27	0xbdb5e8fc	-0.08882329
28	0x3cceb08f	0.025230674
29	0xbd85c360	-0.065314054
30	0x3e414dee	0.18877384
31	0xbd12316c	-0.035691664
32	0x3e031591	0.12801196
33	0xbe2230a1	-0.15838863
34	0xbd002e66	-0.03129425
35	0xbd8fe382	-0.070258155
36	0xbdd1115d	-0.1020839
37	0x3d397a11	0.045282427
38	0xbdd59bed	-0.10430131
39	0x3df59b47	0.119925074
40	0x3ca05152	0.019570027
41	0xbd278798	-0.040900797
42	0xbdb68a61	-0.089131124
43	0x3d8d45b2	0.06898059
44	0x3e0d9d09	0.13829435
45	0x3e19dee1	0.15026428
46	0xbc9c2e90	-0.019065171
47	0xbda97897	-0.08274954
48	0x3da42a1a	0.08015843
49	0x3e401c91	0.18760897
50	0x3d925442	0.07144977
51	0x3e1c32b1	0.15253712
52	0xbe4b25c2	-0.19838622
53	0xbc1a98a0	-0.009435803
54	0x3e004dbf	0.12529658
55	0xbe31ab15	-0.17350419
56	0x3e3f2b97	0.18668972
57	0x3e1f7971	0.1557367
58	0x3d3b094c	0.045663163
59	0x3d6ec55c	0.058293685
60	0xbe2348ce	-0.15945742
61	0x3e29f35b	0.16596739
62	0xbd4bd840	-0.04976678
63	0xbda35d0d	-0.079767324
64	0xbdca369a	-0.09873696
65	0xbe221b5b	-0.15830748
66	0x3d3aaab4	0.04557295
67	0x3cef0940	0.029179215
68	0xbd34fb38	-0.044184893
69	0x3e067751	0.13131453
70	0x3cd2a270	0.025712222
71	0x3c752ae0	0.0149638355
72	0xbe41f577	-0.18941294
73	0x3c9c8050	0.019104153
74	0x3c057c60	0.008147329
75	0x3d2aeded	0.04173081
76	0xbdc79134	-0.09744492
77	0x3e2ed7f0	0.17074561
78	0xbd21e2f2	-0.039523073
79	0xbcde1ab2	-0.027112339
80	0xbde3f9df	-0.111316435
81	0xbe14976e	-0.14510891
82	0xbd1b2508	-0.037877113
83	0xbdc3eaf6	-0.095662996
84	0x3d524a4e	0.051340394
85	0x3d026d46	0.031842493
86	0x3e334879	0.17508115
87	0xbddf41c0	-0.10901213
88	0x3b76d870	0.0037665628
89	0x3df6f81f	0.12059044
90	0xbd139af9	-0.036036465
91	0x3dde0c1e	0.10842155
92	0xbe14f32a	-0.14545885
93	0xbd6df934	-0.058098987
94	0x3e21c87f	0.1579914
95	0xbe3ff5bf	-0.18746088
96	0x3de203a2	0.11035849
97	0xbe07868b	-0.13234918
98	0x3c1feea3	0.009761485
99	0xbdff0c73	-0.124535464
100	0x3d3ec554	0.046574906
101	0x3ddf15da	0.1089284
102	0x3dcb5df2	0.09930028
103	0xbca41168	-0.020027831
104	0x3e23a609	0.15981306
105	0x3cf56a10	0.029957801
106	0x3dc6b052	0.09701599
107	0x3c3ffeb0	0.011718437
108	0xbd394880	-0.045235157
109	0x3d9970a6	0.07492189
110	0x3e329490	0.17439485
111	0xbb8d2500	-0.0043073893
112	0xbe10334b	-0.14082067
113	0xbdccc253	-0.09998002
114	0xbdafd2ba	-0.08585115
115	0xbe3795f5	-0.17928298
116	0xbe03dfd0	-0.12878346
117	0x3c5e1bb0	0.013556406
118	0x3e4bb335	0.19892581
119	0x3e42904d	0.19000359
120	0xbba94640	-0.005165845
121	0xbd22b838	-0.039726466
122	0xbd04246c	-0.032261297
123	0x3bf7f460	0.0075669736
124	0x3e4b3b95	0.19846947
125	0xbd81119a	-0.06302185
126	0xbc4fae20	-0.012675792
127	0xbaa53a80	-0.0012605935
128	0x3e1ab1d1	0.15106894
129	0xbd73b968	-0.05950299
130	0xbd424028	-0.047424465
131	0xbdf5135d	-0.11966584
132	0xbe331595	-0.17488702
133	0xbe144b02	-0.14481738
134	0xbe301130	-0.17194057
135	0x3c9ce5b0	0.019152492
136	0xbe4a84f0	-0.19777274
137	0xbdc74137	-0.097292356
138	0x3e01defb	0.12682717
139	0xbe14d1da	-0.14533177
140	0xbded9430	-0.1160053
141	0x3e09fb77	0.13474832
142	0x3d027bac	0.031856224
143	0x3c61d130	0.013782784
144	0x3e4a5509	0.19759001
145	0x3e0124fa	0.12611762
146	0x3e39fe89	0.18163504
147	0x3d1b6aa0	0.037943482
148	0xbb854300	-0.004066825
149	0x3d914c86	0.07094674
150	0x3de732cb	0.11288985
151	0xbd9bb1e3	-0.076022886
152	0xbdf5e553	-0.12006631
153	0x3d77bbc2	0.060481794
154	0x3e0e3f01	0.13891222
155	0x3e3b75c4	0.18306643
156	0x3cc6d218	0.024270102
157	0x3dfbdc1e	0.122978434
158	0xbe41d435	-0.18928607
159	0xbc50d224	-0.012745414
160	0xbca40348	-0.020021096
161	0x3e2c470b	0.16823976
162	0xbc32536e	-0.010884149
163	0xbd7cb177	-0.06169268
164	0xbe185fe0	-0.14880323
165	0x3dbf6fec	0.09347519
166	0x3db6aeee	0.08920084
167	0xbdf9b7d3	-0.12193265
168	0x3c615280	0.01375258
169	0xbdba4083	-0.09094336
170	0x3dbac761	0.0912006
171	0x3e3f1941	0.18661977
172	0x3cd34bac	0.02579292
173	0xbe02faf0	-0.12791038
174	0x3daafbb2	0.08348788
175	0xbe141bf2	-0.14463785
176	0xbc320160	-0.010864586
177	0x3d6b99df	0.05751979
178	0x3e40a033	0.18811111
179	0x3db9738c	0.09055242
180	0x3e425bc3	0.18980317
181	0xbdc262ed	-0.09491525
182	0xbd973214	-0.073825985
183	0xbd7eb8e8	-0.06218806
184	0x3de8b6ec	0.113630146
185	0x3d8def07	0.069303565
186	0x3e46004f	0.19336055
187	0xbcdb1a40	-0.026745915
188	0xbe2272b0	-0.15864062
189	0x3e3fbe5e	0.18724963
190	0xbdc83d53	-0.09777322
191	0x3cf9f718	0.030513331
192	0x3c83ad00	0.016073704
193	0x3c517230	0.012783572
194	0x3d8b926a	0.06815036
195	0xbd6c83b8	-0.057742804
196	0x3e1f7e2b	0.15575473
197	0x3e2f0d5c	0.1709494
198	0xbcd79730	-0.026317209
199	0xbe4a12db	-0.19733755
200	0xbdeb5056	-0.11489932
201	0x3ddb15fb	0.10697552
202	0xbe3df600	-0.18550873
203	0x3e2c6942	0.16837028
204	0x3e36100b	0.17779557
205	0x3e4664a2	0.19374326
206	0xbe103375	-0.1408213
207	0xbd572448	-0.052524835
208	0xbd48a2b6	-0.0489833
209	0x3de64239	0.112431
210	0x3d8aa7b9	0.06770272
211	0xbdc6b030	-0.09701574
212	0xbd596cfb	-0.053082447
213	0x3e2d0615	0.16896851
214	0xbdeb6042	-0.11492969
215	0x3df15a92	0.11784853
216	0x3dfdaeb6	0.12386839
217	0xbe0d33f7	-0.13789354
218	0xbd8d6adc	-0.069051474
219	0x3e42f475	0.19038565
220	0xbd5b76dd	-0.053580154
221	0xbdf5affd	-0.11996458
222	0x3da4c8c2	0.08046104
223	0xbd7e67f2	-0.06211085
224	0x3d84f30e	0.064916715
225	0x3daaa2f2	0.083318606
226	0x3d6d8064	0.05798377
227	0xbddebf70	-0.108763576
228	0x3da6a8c2	0.08137657
229	0x3cc1bd00	0.023649693
230	0x3d9b13e2	0.07572152
231	0xbbca54a0	-0.006174639
232	0xbe421f05	-0.18957146
233	0xbe40cb97	-0.18827663
234	0xbd7e782c	-0.062126324
235	0x3dc7d3eb	0.09757217
236	0xbe2f3640	-0.17110538
237	0x3d5df90c	0.054192588
238	0x3e55d0a4	0.20880371
239	0xbdf356a0	-0.11881757
240	0x3d555864	0.05208625
241	0xbdf4f33a	-0.11960454
242	0xbd2f1cf4	-0.04275222
243	0x3e3102f3	0.17286281
244	0x3da0c82e	0.07850681
245	0xbd502e0c	-0.050825164
246	0x3e3f1a59	0.18662395
247	0x3ca153b0	0.019693226
248	0xbe327f00	-0.17431259
249	0xbc9e8618	-0.01935105
250	0xbdfba630	-0.12287557
251	0x3e265839	0.16244592
252	0x3d6a0464	0.057133093
253	0xbe2158d3	-0.1575654
254	0x3db81946	0.089891955
255	0x3d26a720	0.040686727

net.0.bias f4 [128]
0	0x3db6202d	0.08892856
1	0x3e41c4b6	0.18922696
2	0xbe318e10	-0.17339349
3	0x3e34d93b	0.17660992
4	0xbdfdb4a2	-0.123879686
5	0xbd526aee	-0.051371507
6	0x3dd5e91a	0.10444851
7	0xbcb62623	-0.022234982
8	0x3e2bebbe	0.16789147
9	0xbdca374b	-0.098738275
10	0xbe3fe938	-0.1874131
11	0xbe067d5a	-0.13133755
12	0x3ce5325b	0.027978113
13	0x3c3b193a	0.011419589
14	0xbe1c33a0	-0.15254068
15	0x3e3aa9e4	0.1822887
16	0xbe4392db	-0.1909899
17	0xbe3d0435	-0.18458636
18	0xbc4b97a9	-0.012426295
19	0xbdfdee90	-0.12399018
20	0xbe48bdf2	-0.19603708
21	0xbdafc1dd	-0.08581898
22	0xbd92cbf4	-0.07167807
23	0xbccfe685	-0.025378475
24	0x3ddc8542	0.107676044
25	0xbd6986d9	-0.057013366
26	0x3e1fee32	0.15618208
27	0xbe3ffb5f	-0.18748234
28	0xbe346762	-0.17617562
29	0xbc577961	-0.013151498
30	0xbdcd32d7	-0.100194626
31	0xbe444f2b	-0.19170825
32	0x3d9722c2	0.073796764
33	0x3e23e795	0.1600631
34	0xbdb64470	-0.08899772
35	0x3c231bae	0.00995533
36	0xbd6b9afa	-0.057520844
37	0xbe31e1d0	-0.17371297
38	0xbd8f03cf	-0.06983148
39	0x3d842730	0.06452787
40	0x3e132beb	0.14372222
41	0x3e3219d5	0.17392667
42	0x3c3de134	0.011589337
43	0x3d54e5d8	0.05197701
44	0xbe4858ca	-0.1956512
45	0xbe16bb83	-0.14719968
46	0x3c900031	0.017578216
47	0xbd817f2f	-0.063230865
48	0x3ca43b5c	0.020047836
49	0xbd9aa4d1	-0.075509675
50	0xbcd3cc6e	-0.025854316
51	0x3d8ab86a	0.067734554
52	0xbd7e29f6	-0.062051736
53	0xbd066c16	-0.032817923
54	0x3e21e95b	0.15811674
55	0x3b9b930b	0.0047477535
56	0xbd83994a	-0.06425722
57	0xbdf509db	-0.119647704
58	0x3e29b788	0.16573918
59	0xbd8f6929	-0.070024796
60	0x39af8b19	0.00033482237
61	0x3dfb0733	0.122572325
62	0xba2173a6	-0.00061588956
63	0xbe182a5e	-0.14859912
64	0xbe0c9d26	-0.13731822
65	0x3e0a81de	0.13526103
66	0x3d182296	0.03714236
67	0xbe48d4fd	-0.19612499
68	0xbd8cf025	-0.068817414
69	0x3e27d49a	0.16389695
70	0x3e47f9db	0.19528906
71	0xbd6407d6	-0.055671535
72	0x3deb3704	0.11485103
73	0xbe2631a0	-0.16229868
74	0x3db699c8	0.0891605
75	0x3daa3449	0.08310754
76	0xbd91d25f	-0.07120203
77	0xbd4e89e3	-0.050424468
78	0x3da1dedb	0.079038344
79	0x3e202398	0.15638578
80	0xbd86a4ee	-0.065744266
81	0x3db1af5f	0.086760275
82	0x3e1218f1	0.14267327
83	0xbd051b1c	-0.032496557
84	0x3d7b2a9e	0.06131994
85	0xbe48598c	-0.1956541
86	0x3cea7628	0.028620794
87	0xbd5b66c8	-0.053564817
88	0xbdfaa8fe	-0.12239264
89	0x3dfadc08	0.12248999
90	0x3d83b418	0.064308345
91	0x3d52e9fb	0.051492672
92	0x3d775175	0.060380418
93	0x3dfdfc8b	0.124016844
94	0xbd9d0367	-0.076666646
95	0xbd173e4b	-0.03692464
96	0x3cc5550b	0.024088403
97	0xbdda847e	-0.10669802
98	0x3d0ee601	0.034887318
99	0xbd8ba62c	-0.06818804
100	0x3db2cb58	0.08730191
101	0x3d231619	0.039815996
102	0xbe108615	-0.14113648
103	0xbd780500	-0.060551643
104	0x3c2419b4	0.010015894
105	0x3d8ded0d	0.069299795
106	0xbdc1adb8	-0.09456962
107	0x3d4e25ed	0.050329138
108	0xbe1821b3	-0.14856605
109	0xbe0b08b8	-0.13577545
110	0xbbca1574	-0.006167108
111	0x3e20e546	0.15712461
112	0x3d3ff581	0.04686499
113	0xbe48ce8f	-0.19610046
114	0x3e05fdfe	0.13085172
115	0x3cd44643	0.02591241
116	0x3ca9b81c	0.020717673
117	0xbc30ce97	-0.010791442
118	0xbcf7b460	-0.030237377
119	0xbd50b504	-0.05095388
120	0xbe4afcb7	-0.19822966
121	0xbdc4c155	-0.09607188
122	0x3e42632a	0.1898314
123	0x3d04f912	0.032464094
124	0xbe2b0908	-0.16702664
125	0x3cd7c8da	0.02634089
126	0x3d0f7a76	0.035028897
127	0x3e125bf2	0.14292887

net.2.weight f4 [5, 128]
0	0xbdc0b410	-0.09409344
1	0x3cbb0b29	0.02283247
2	0xbc874314	-0.016511478
3	0xbdb78bc7	-0.08962207
4	0x3cd795f8	0.026316628
5	0xbdacced9	-0.084378906
6	0x3da04444	0.07825521
7	0xbd34442f	-0.044010337
8	0x3d179e6e	0.037016325
9	0xb9ae54cf	-0.00033251054
10	0x3d84aa25	0.06477765
11	0x3d45c539	0.04828379
12	0x3d594c41	0.053051237
13	0x3d326814	0.043556288
14	0xbd39c4aa	-0.04535357
15	0x3c5ccf8e	0.013477219
16	0xbd3085fd	-0.04309653
17	0x3c9b7607	0.018977178
18	0x3cdbe203	0.02684117
19	0xbd801c2e	-0.06255375
20	0xbdb069c7	-0.086139254
21	0xbdce5aaf	-0.1007589
22	0x3d625a7d	0.055262078
23	0xbd82635a	-0.06366606
24	0xbcb0d52a	-0.02158602
25	0xbd81aa65	-0.06331328
26	0xbb32f2c1	-0.0027305337
27	0x3acb6b00	0.0015519559
28	0xbccadde7	-0.024764014
29	0x3d9b615f	0.075869314
30	0x3da6bfe7	0.08142071
31	0x3cb51170	0.022103041
32	0xbd181a53	-0.03713448
33	0x3cb5a34b	0.02217259
34	0xbc5228ec	-0.012827139
35	0xbbd890ac	-0.006609043
36	0x3c874570	0.016512603
37	0x3d485516	0.04890927
38	0x3ccee3ea	0.025255162
39	0x3d4234c9	0.04741362
40	0xbd899795	-0.06718365
41	0xbd3b51b0	-0.0457322
42	0x3ce1b91e	0.027554091
43	0xbd57a3eb	-0.05264656
44	0x3cf21ad0	0.0295538
45	0x3c9e4a51	0.019322546
46	0x3da15043	0.07876637
47	0xbcf165ec	-0.029467545
48	0xbbc895f8	-0.0061213933
49	0x3d0543a7	0.03253522
50	0x3da0d227	0.078525834
51	0x3d9e5934	0.07731858
52	0xbc9aa360	-0.018876731
53	0xbc821106	-0.015877258
54	0xbd9f2fba	-0.07772775
55	0x3d0e2ddd	0.034711707
56	0xbd308c25	-0.043102402
57	0xbcd0b068	-0.025474742
58	0xbb25ba14	-0.0025287913
59	0xbdb610aa	-0.08889897
60	0xbd986480	-0.07441044
61	0xbc3b1d70	-0.011420593
62	0x3c21abb2	0.0098675955
63	0xbda8420e	-0.08215724
64	0xbc97374c	-0.018458985
65	0xbd440456	-0.047855698
66	0x3cc5307a	0.024070967
67	0x3d7c8fea	0.061660685
68	0x3d6280b9	0.05529854
69	0xbc8a384b	-0.016872546
70	0xbcfbd29f	-0.03074008
71	0xbd82e369	-0.06391031
72	0xbdbe0c0e	-0.09279643
73	0x3db97347	0.090551905
74	0x3cc3c6a7	0.023898436
75	0xbcbe2a9c	-0.023213677
76	0xbd89301f	-0.066986315
77	0x3d8fa215	0.070133366
78	0xbdab4b93	-0.08364024
79	0xbb900507	-0.0043951306
80	0x3d9063b4	0.07050267
81	0xbdb565e3	-0.08857324
82	0xbdbf8502	-0.09351541
83	0xbd240604	-0.0400448
84	0x3d7b86a4	0.0614077
85	0xbd8b46ea	-0.06800635
86	0xbd83c770	-0.06434524
87	0x3d8e9443	0.069618724
88	0x3c7bfd58	0.015380226
89	0x3d9f159d	0.07767794
90	0x3d83dc70	0.064385295
91	0xbd6ebb26	-0.058283947
92	0xbcb56f4e	-0.0221478
93	0xbdac6d51	-0.08419288
94	0x3cf65cde	0.03007358
95	0x3d668f77	0.056289162
96	0xbdb16e37	-0.086636
97	0x3ac6c3cd	0.0015164554
98	0x3d7adc53	0.061245274
99	0xbc83a9d7	-0.016072197
100	0xbcd5e17a	-0.026108492
101	0xbd9af47d	-0.07566164
102	0x3caf1432	0.021371935
103	0x3d671663	0.056417834
104	0xbd7b086d	-0.061287332
105	0x3d5f27f5	0.054481465
106	0xbd8c8d32	-0.06862868
107	0x3cd8671c	0.026416354
108	0x3c981e78	0.018569216
109	0x3b9865b8	0.0046507977
110	0x3d49a162	0.049226172
111	0x3cd109b8	0.02551733
112	0x3c28a169	0.010292389
113	0xbd2302e2	-0.03979767
114	0xbd6259e4	-0.055261508
115	0xbd2de3c1	-0.04245353
116	0xbc71bf5b	-0.014755095
117	0x3cf5f618	0.030024573
118	0xbd386688	-0.045019656
119	0x3d5e2700	0.054236412
120	0x3be89600	0.0070979595
121	0x3c9927c7	0.018695725
122	0xbd9478b6	-0.07249586
123	0x3bc8ae9a	0.0061243298
124	0x3d9c9ed2	0.0764748
125	0x3d2f4cdb	0.042797904
126	0xbc032ef7	-0.008006803
127	0xbda46094	-0.08026233
128	0x3ceb1240	0.028695226
129	0xbd992a3d	-0.074787594
130	0x3d9b91b1	0.07596148
131	0xbd23c601	-0.039983753
132	0x3bd23ed6	0.006416182
133	0x3d94496c	0.072405666
134	0xbd9f46ed	-0.077772
135	0xbdbf2c94	-0.093346745
136	0xbd4d821a	-0.050172903
137	0x3d02120e	0.0317555
138	0x3ccd519c	0.025063328
139	0x3cba30ec	0.022728406
140	0xbdb26443	-0.0871053
141	0x3d94d2b7	0.07266753
142	0x3be36c6f	0.0069404165
143	0xbd919f2d	-0.071104385
144	0x3d2bca06	0.04194071
145	0xbd8d1a41	-0.06889773
146	0xbd5839f3	-0.05278964
147	0x3d79fd77	0.06103274
148	0x3d1db146	0.03849914
149	0x3c4b475c	0.01240715
150	0x3d87d19c	0.06631777
151	0xbc45161b	-0.012029196
152	0x3d9999c3	0.07500031
153	0xbd97fa00	-0.074207306
154	0x3c0f1e9e	0.008735327
155	0x3b860430	0.0040898547
156	0xbb97d918	-0.004634034
157	0x3d931aa3	0.07182815
158	0xbd8a8c7c	-0.067650765
159	0xbd8f294e	-0.069903
160	0x3c7e2e2a	0.015513936
161	0x3d0eaf85	0.034835357
162	0xbca58ebf	-0.020209668
163	0x3d5e9e81	0.05435038
164	0x3c04d8e8	0.008108355
165	0x3db12e8e	0.08651458
166	0xbd6955ba	-0.05696652
167	0xbc994cc9	-0.018713372
168	0xbceb8d43	-0.028753882
169	0xbd65e026	-0.056121968
170	0x3d84aa99	0.064778514
171	0xbbecdfdb	-0.007228834
172	0x3da9e823	0.0829623
173	0xbd7254bb	-0.059162837
174	0xbd105711	-0.035239283
175	0x3ce71358	0.028207466
176	0x3c186ae3	0.0093028275
177	0xbb9c29f2	-0.0047657425
178	0x3d586e3f	0.052839514
179	0xbd595d96	-0.053067766
180	0x3c6da22b	0.014503996
181	0xbd888fab	-0.066680275
182	0xbca67657	-0.0203201
183	0xbd3055ed	-0.043050695
184	0xbd70b436	-0.058765613
185	0xbcbb2750	-0.022845894
186	0x3cbc0b7a	0.022954691
187	0xbc391efd	-0.011298892
188	0xbdbb5786	-0.09147553
189	0xbd401081	-0.04689074
190	0xbce8f388	-0.028436437
191	0xb96e0800	-0.00022700429
192	0x3cc4732d	0.023980701
193	0x3d9ab453	0.07553925
194	0xbcaca845	-0.02107633
195	0xbda87dbc	-0.08227107
196	0xbc12912f	-0.008945747
197	0xbcaf2ed1	-0.021384628
198	0x3cd5efc3	0.026115304
199	0xbda99063	-0.08279493
200	0xbd383f58	-0.044982284
201	0x3d050420	0.032474637
202	0xbd85a2bd	-0.065251805
203	0x3d29cae8	0.041453272
204	0xbceb392d	-0.028713787
205	0x3c10b41a	0.008832002
206	0x3d4e96c1	0.05043674
207	0xbd177b6d	-0.036982942
208	0x3d39e41e	0.045383565
209	0x3ca371c7	0.019951714
210	0x3d82ad76	0.06380741
211	0xbdb2bc84	-0.08727363
212	0x3d2db71f	0.042410966
213	0x3b1c8942	0.0023885523
214	0xbda2e93e	-0.07954644
215	0x3d3137a8	0.04326597
216	0xbc8ba144	-0.01704467
217	0x3d913434	0.07090035
218	0xbdb5b1b6	-0.08871786
219	0xbce49fe4	-0.027908273
220	0x3d9027b3	0.07038822
221	0xbc8e63a4	-0.017381497
222	0x3c69150f	0.014226212
223	0xbd4d45bb	-0.05011533
224	0xbdadccab	-0.08486303
225	0x3dbfe20f	0.09369289
226	0xbd0924c2	-0.03348232
227	0xbd6cfc02	-0.05785752
228	0xbdb260cd	-0.087098695
229	0xbd6d634d	-0.05795603
230	0xbda241d2	-0.079227105
231	0x3d85afe8	0.06527692
232	0xbcbcacdb	-0.023031643
233	0xbc39e28e	-0.011345519
234	0x3d877e6d	0.06615911
235	0x3bbed1f6	0.005823369
236	0x3c88f5cc	0.016718768
237	0x3dab0b07	0.08351713
238	0xbccda8b2	-0.025104854
239	0x3d762e6b	0.06010286
240	0x3c8174d4	0.015802778
241	0x3d04739c	0.032336816
242	0xbcdda9e0	-0.027058542
243	0xbdae2b6c	-0.08504376
244	0xbcc9152e	-0.024546232
245	0x3d7792c4	0.0604427
246	0xbdb6aae4	-0.089193135
247	0xbd9d9ce1	-0.07695938
248	0x3d5f39de	0.054498546
249	0xbd3992f5	-0.045306165
250	0xbd41aa86	-0.047281764
251	0x3cf17e82	0.029479269
252	0x3bf860d0	0.0075799003
253	0x3d607487	0.05479863
254	0x3cd9cefd	0.026587958
255	0xbd501ae4	-0.050806895

net.2.bias f4 [5]
0	0x3cf1442e	0.029451456
1	0xbd5ade3e	-0.053434603
2	0xbbe03dd8	-0.00684331
3	0xbdb11609	-0.08646781
4	0x3d79f658	0.061025947

exp_avg f4 [128, 25]
0	0xc007f14f	-2.1241033
1	0xc080ef81	-4.0292363
2	0xc03cca36	-2.949842
3	0x3fc673fb	1.5504144
4	0x00000000	0.0
5	0xbff18b8e	-1.8870714
6	0x00000000	0.0
7	0x00000000	0.0
8	0xbf946849	-1.1594325
9	0xbfba01ae	-1.4531763
10	0x402a31fd	2.659301
11	0x00000000	0.0
12	0x3e390abd	0.18070503
13	0xc0524ccb	-3.285937
14	0xbfeda97f	-1.8567351
15	0xc0995aeb	-4.7923484
16	0x00000000	0.0
17	0x3fd02be7	1.6263398
18	0x00000000	0.0
19	0x00000000	0.0
20	0xc0a049cc	-5.0090084
21	0x00000000	0.0
22	0x00000000	0.0
23	0xbe721563	-0.23640971
24	0x00000000	0.0
25	0xbfbcfe40	-1.4765091
26	0x3f08bd67	0.53414005
27	0x3dfdd317	0.12393778
28	0xc00dbea8	-2.2147617
29	0xbea82f90	-0.32848787
30	0xc08140ee	-4.039176
31	0x00000000	0.0
32	0x00000000	0.0
33	0x3e5fc495	0.21852334
34	0xbfbdb07a	-1.4819481
35	0xbf82e76f	-1.0226878
36	0x00000000	0.0
37	0xbe033f0c	-0.12817019
38	0x401d6d01	2.459778
39	0x3dd681c1	0.10473967
40	0x3f925c51	1.1434423
41	0x00000000	0.0
42	0x3f0d54a2	0.55207264
43	0x00000000	0.0
44	0x00000000	0.0
45	0x3fc96aba	1.5735695
46	0x00000000	0.0
47	0x3f9f8eea	1.2465489
48	0x3f00ae22	0.50265706
49	0x00000000	0.0
50	0x00000000	0.0
51	0x00000000	0.0
52	0x00000000	0.0
53	0x00000000	0.0
54	0x00000000	0.0
55	0x00000000	0.0
56	0x00000000	0.0
57	0x00000000	0.0
58	0x00000000	0.0
59	0x00000000	0.0
60	0x00000000	0.0
61	0x00000000	0.0
62	0x00000000	0.0
63	0x00000000	0.0
64	0x00000000	0.0
65	0x00000000	0.0
66	0x00000000	0.0
67	0x00000000	0.0
68	0x00000000	0.0
69	0x00000000	0.0
70	0x00000000	0.0
71	0x00000000	0.0
72	0x00000000	0.0
73	0x00000000	0.0
74	0x00000000	0.0
75	0xc0023708	-2.0346088
76	0xbff4c049	-1.9121181
77	0xbf89f3ba	-1.0777504
78	0x3fcde9e3	1.6087002
79	0xbf205732	-0.6263305
80	0xc0699811	-3.6499064
81	0x00000000	0.0
82	0x00000000	0.0
83	0xbf69ded8	-0.9135566
84	0xbfd4c9ac	-1.6624045
85	0x3f32488c	0.6964195
86	0x00000000	0.0
87	0x3f07b87d	0.5301588
88	0xc024e043	-2.5761878
89	0xbfc252f8	-1.518157
90	0xc0b8c075	-5.7734933
91	0x00000000	0.0
92	0x3fa2a924	1.2707868
93	0x00000000	0.0
94	0x00000000	0.0
95	0x00000000	0.0
96	0x00000000	0.0
97	0xbf9b0f38	-1.2114019
98	0x3f02f3f2	0.5115348
99	0x00000000	0.0
100	0x00000000	0.0
101	0x00000000	0.0
102	0x00000000	0.0
103	0x00000000	0.0
104	0x3d9af149	0.07565553
105	0x00000000	0.0
106	0x00000000	0.0
107	0x00000000	0.0
108	0x00000000	0.0
109	0x00000000	0.0
110	0x3ef5534e	0.4791512
111	0x00000000	0.0
112	0x00000000	0.0
113	0x00000000	0.0
114	0x00000000	0.0
115	0x00000000	0.0
116	0x00000000	0.0
117	0x00000000	0.0
118	0x00000000	0.0
119	0x00000000	0.0
120	0x00000000	0.0
121	0x00000000	0.0
122	0x00000000	0.0
123	0x00000000	0.0
124	0x00000000	0.0
125	0x00000000	0.0
126	0x00000000	0.0
127	0x00000000	0.0
128	0x3f80f727	1.0075425
129	0x00000000	0.0
130	0x00000000	0.0
131	0x00000000	0.0
132	0x00000000	0.0
133	0x00000000	0.0
134	0x00000000	0.0
135	0x00000000	0.0
136	0x00000000	0.0
137	0x00000000	0.0
138	0xc0303b6d	-2.753627
139	0x00000000	0.0
140	0x00000000	0.0
141	0x00000000	0.0
142	0x00000000	0.0
143	0x00000000	0.0
144	0x00000000	0.0
145	0xc0367180	-2.8506775
146	0x00000000	0.0
147	0x00000000	0.0
148	0x00000000	0.0
149	0x00000000	0.0
150	0xbfce8964	-1.6135678
151	0x40876662	4.231248
152	0x00000000	0.0
153	0xc02fedf7	-2.7488992
154	0xbe815d44	-0.2526647
155	0xc04aedf5	-3.1707737
156	0x00000000	0.0
157	0x00000000	0.0
158	0x00000000	0.0
159	0x3ed2421a	0.41066056
160	0xbfd6d968	-1.6785097
161	0x00000000	0.0
162	0xbf8d4abd	-1.1038433
163	0x403b64dd	2.9280312
164	0x00000000	0.0
165	0x40097eb3	2.148358
166	0x00000000	0.0
167	0x00000000	0.0
168	0x00000000	0.0
169	0x00000000	0.0
170	0x4006467b	2.0980518
171	0x00000000	0.0
172	0x4026d495	2.606725
173	0x00000000	0.0
174	0x00000000	0.0
175	0x00000000	0.0
176	0x00000000	0.0
177	0x3f39ff02	0.72654736
178	0x3fdfd157	1.748576
179	0xbeff5b55	-0.49874368
180	0xc061aa68	-3.5260258
181	0x00000000	0.0
182	0x00000000	0.0
183	0x00000000	0.0
184	0xbff4fc42	-1.9139483
185	0xc029a87f	-2.6509092
186	0x00000000	0.0
187	0x00000000	0.0
188	0x00000000	0.0
189	0xbde4949a	-0.11161156
190	0x00000000	0.0
191	0x00000000	0.0
192	0x00000000	0.0
193	0x00000000	0.0
194	0x00000000	0.0
195	0x00000000	0.0
196	0x00000000	0.0
197	0x3e88380a	0.26605254
198	0x00000000	0.0
199	0x00000000	0.0
200	0xbf3442d6	-0.70414484
201	0x402879e5	2.6324399
202	0x00000000	0.0
203	0xbeaa9977	-0.3332021
204	0xbeb7a2d1	-0.35866407
205	0xc028cd25	-2.637521
206	0x00000000	0.0
207	0x00000000	0.0
208	0x3d3e20ec	0.046418115
209	0xbe144c61	-0.14482261
210	0xbfdcfc4a	-1.7264493
211	0x00000000	0.0
212	0xbd34c727	-0.04413524
213	0x3f413aca	0.7548033
214	0x3e4a0d99	0.1973175
215	0xbf909b96	-1.1297481
216	0x00000000	0.0
217	0xbea9ab42	-0.33138472
218	0x00000000	0.0
219	0x00000000	0.0
220	0xbe88f0d4	-0.26746237
221	0x00000000	0.0
222	0x3fac6f3c	1.3471446
223	0x3f2a0246	0.6640972
224	0x00000000	0.0
225	0x00000000	0.0
226	0x00000000	0.0
227	0x00000000	0.0
228	0x00000000	0.0
229	0x00000000	0.0
230	0x00000000	0.0
231	0x00000000	0.0
232	0x00000000	0.0
233	0x00000000	0.0
234	0x00000000	0.0
235	0x3e136132	0.14392546
236	0x00000000	0.0
237	0x00000000	0.0
238	0xbf8843bc	-1.0645671
239	0x00000000	0.0
240	0x00000000	0.0
241	0x00000000	0.0
242	0x00000000	0.0
243	0x00000000	0.0
244	0x00000000	0.0
245	0x00000000	0.0
246	0x00000000	0.0
247	0x00000000	0.0
248	0x00000000	0.0
249	0x00000000	0.0
250	0x00000000	0.0
251	0x00000000	0.0
252	0x00000000	0.0
253	0x00000000	0.0
254	0x00000000	0.0
255	0x00000000	0.0

exp_avg_sq f4 [128, 25]
0	0x405d38c2	3.4565892
1	0x4087a04b	4.238317
2	0x406e8b28	3.7272434
3	0x3fc4cb04	1.5374455
4	0x00000000	0.0
5	0x4045ca35	3.0904667
6	0x00000000	0.0
7	0x00000000	0.0
8	0x3f8f1376	1.1177814
9	0x3ff3f6eb	1.9059728
10	0x40678705	3.617616
11	0x00000000	0.0
12	0x3fa2fca0	1.2733345
13	0x40192c49	2.393328
14	0x40529f40	3.2909698
15	0x40d83ff1	6.7578053
16	0x00000000	0.0
17	0x3f5e1708	0.8675389
18	0x00000000	0.0
19	0x00000000	0.0
20	0x40f8fb50	7.780678
21	0x00000000	0.0
22	0x00000000	0.0
23	0x3e17117c	0.14752764
24	0x00000000	0.0
25	0x402e3d46	2.7224898
26	0x40477c7e	3.1169734
27	0x3f6bcece	0.92112434
28	0x3feed528	1.86588
29	0x4033a703	2.8070686
30	0x403bef9d	2.9364998
31	0x00000000	0.0
32	0x00000000	0.0
33	0x3f159791	0.58434397
34	0x3f415be4	0.7553084
35	0x40ce1c31	6.4409413
36	0x00000000	0.0
37	0x3f927023	1.1440471
38	0x3fa4fdcf	1.2889956
39	0x3fb32a71	1.3997327
40	0x40da380f	6.819343
41	0x00000000	0.0
42	0x3f19697d	0.5992659
43	0x00000000	0.0
44	0x00000000	0.0
45	0x40f252b2	7.5725946
46	0x00000000	0.0
47	0x3f3273dd	0.69708043
48	0x3d6a4e11	0.057203356
49	0x00000000	0.0
50	0x00000000	0.0
51	0x00000000	0.0
52	0x00000000	0.0
53	0x00000000	0.0
54	0x00000000	0.0
55	0x00000000	0.0
56	0x00000000	0.0
57	0x00000000	0.0
58	0x00000000	0.0
59	0x00000000	0.0
60	0x00000000	0.0
61	0x00000000	0.0
62	0x00000000	0.0
63	0x00000000	0.0
64	0x00000000	0.0
65	0x00000000	0.0
66	0x00000000	0.0
67	0x00000000	0.0
68	0x00000000	0.0
69	0x00000000	0.0
70	0x00000000	0.0
71	0x00000000	0.0
72	0x00000000	0.0
73	0x00000000	0.0
74	0x00000000	0.0
75	0x404bc8e7	3.184137
76	0x4085db74	4.1830387
77	0x402fc0f3	2.7461517
78	0x3fce7245	1.6128622
79	0x3fe90891	1.8205739
80	0x4060166e	3.501369
81	0x00000000	0.0
82	0x00000000	0.0
83	0x3f7b7597	0.982263
84	0x3feda88d	1.8567063
85	0x4059ec2f	3.4050405
86	0x00000000	0.0
87	0x3f8dd7ab	1.1081442
88	0x402020d5	2.502004
89	0x405ce01f	3.4511793
90	0x412edf32	10.929491
91	0x00000000	0.0
92	0x3f688d28	0.9084039
93	0x00000000	0.0
94	0x00000000	0.0
95	0x00000000	0.0
96	0x00000000	0.0
97	0x3f3b9514	0.7327435
98	0x3eaa8d40	0.3331089
99	0x00000000	0.0
100	0x00000000	0.0
101	0x00000000	0.0
102	0x00000000	0.0
103	0x00000000	0.0
104	0x3f990a40	1.1956253
105	0x00000000	0.0
106	0x00000000	0.0
107	0x00000000	0.0
108	0x00000000	0.0
109	0x00000000	0.0
110	0x406eaf8d	3.7294648
111	0x00000000	0.0
112	0x00000000	0.0
113	0x00000000	0.0
114	0x00000000	0.0
115	0x00000000	0.0
116	0x00000000	0.0
117	0x00000000	0.0
118	0x00000000	0.0
119	0x00000000	0.0
120	0x00000000	0.0
121	0x00000000	0.0
122	0x00000000	0.0
123	0x00000000	0.0
124	0x00000000	0.0
125	0x00000000	0.0
126	0x00000000	0.0
127	0x00000000	0.0
128	0x3fb85512	1.4400961
129	0x00000000	0.0
130	0x00000000	0.0
131	0x00000000	0.0
132	0x00000000	0.0
133	0x00000000	0.0
134	0x00000000	0.0
135	0x00000000	0.0
136	0x00000000	0.0
137	0x00000000	0.0
138	0x3fe26571	1.7687207
139	0x00000000	0.0
140	0x00000000	0.0
141	0x00000000	0.0
142	0x00000000	0.0
143	0x00000000	0.0
144	0x00000000	0.0
145	0x4079c15c	3.9024267
146	0x00000000	0.0
147	0x00000000	0.0
148	0x00000000	0.0
149	0x00000000	0.0
150	0x406348fc	3.5513296
151	0x409e4cf0	4.946892
152	0x00000000	0.0
153	0x3ff43be1	1.9080774
154	0x4022c5fa	2.5433335
155	0x4048cc28	3.1374607
156	0x00000000	0.0
157	0x00000000	0.0
158	0x00000000	0.0
159	0x3f87914e	1.0591218
160	0x40c55273	6.1663146
161	0x00000000	0.0
162	0x3f8eaf0c	1.114717
163	0x402d5ac7	2.7086656
164	0x00000000	0.0
165	0x409be1e6	4.8713255
166	0x00000000	0.0
167	0x00000000	0.0
168	0x00000000	0.0
169	0x00000000	0.0
170	0x40ecb49a	7.397046
171	0x00000000	0.0
172	0x3f9f151b	1.2428316
173	0x00000000	0.0
174	0x00000000	0.0
175	0x00000000	0.0
176	0x00000000	0.0
177	0x40207a81	2.507477
178	0x400cd007	2.200197
179	0x400257b3	2.0366027
180	0x40dd5e15	6.9177346
181	0x00000000	0.0
182	0x00000000	0.0
183	0x00000000	0.0
184	0x3fed0b6b	1.851911
185	0x40967757	4.702068
186	0x00000000	0.0
187	0x00000000	0.0
188	0x00000000	0.0
189	0x406edabf	3.7321012
190	0x00000000	0.0
191	0x00000000	0.0
192	0x00000000	0.0
193	0x00000000	0.0
194	0x00000000	0.0
195	0x00000000	0.0
196	0x00000000	0.0
197	0x3f5a4575	0.85262233
198	0x00000000	0.0
199	0x00000000	0.0
200	0x3ecbf31d	0.39833918
201	0x3f791537	0.97297996
202	0x00000000	0.0
203	0x3ea8e91f	0.32990357
204	0x3ef1890a	0.47174865
205	0x3f801dde	1.0009115
206	0x00000000	0.0
207	0x00000000	0.0
208	0x3e2a758e	0.16646406
209	0x3e403347	0.18769561
210	0x3fa3eee0	1.2807274
211	0x00000000	0.0
212	0x3ee49b6e	0.44649833
213	0x3ecbd472	0.3981052
214	0x3e9fb209	0.31190518
215	0x3f55790a	0.83387816
216	0x00000000	0.0
217	0x3e4464bc	0.19179052
218	0x00000000	0.0
219	0x00000000	0.0
220	0x3fb79efe	1.4345396
221	0x00000000	0.0
222	0x3e9dfa09	0.30854824
223	0x3d7b969c	0.06142293
224	0x00000000	0.0
225	0x00000000	0.0
226	0x00000000	0.0
227	0x00000000	0.0
228	0x00000000	0.0
229	0x00000000	0.0
230	0x00000000	0.0
231	0x00000000	0.0
232	0x00000000	0.0
233	0x00000000	0.0
234	0x00000000	0.0
235	0x3beee543	0.0072905137
236	0x00000000	0.0
237	0x00000000	0.0
238	0x3f185cb7	0.5951647
239	0x00000000	0.0
240	0x00000000	0.0
241	0x00000000	0.0
242	0x00000000	0.0
243	0x00000000	0.0
244	0x00000000	0.0
245	0x00000000	0.0
246	0x00000000	0.0
247	0x00000000	0.0
248	0x00000000	0.0
249	0x00000000	0.0
250	0x00000000	0.0
251	0x00000000	0.0
252	0x00000000	0.0
253	0x00000000	0.0
254	0x00000000	0.0
255	0x00000000	0.0

exp_avg f4 [128]
0	0xc1b621e1	-22.766542
1	0xc00ede7d	-2.2323296
2	0x00000000	0.0
3	0xc192b4dd	-18.338312
4	0x3f0e07c6	0.5548061
5	0xc09318ad	-4.596762
6	0x4076b551	3.8548167
7	0xc0beb8d2	-5.960061
8	0xc0024295	-2.0353138
9	0xbf6baf2e	-0.9206418
10	0x00000000	0.0
11	0xc09ffefa	-4.999875
12	0xc089dd54	-4.3082676
13	0x3f972027	1.1806687
14	0x3f697e79	0.91208607
15	0xc0123ccf	-2.2849615
16	0x00000000	0.0
17	0x3dd30050	0.10302794
18	0x3ff2027e	1.890701
19	0xbf8b678b	-1.0890974
20	0x00000000	0.0
21	0xc1064b0a	-8.39332
22	0xc09947fa	-4.790036
23	0xc10c6a12	-8.775896
24	0xc0dcecc1	-6.9039006
25	0x3fa52413	1.2901634
26	0x4106f87d	8.435666
27	0x00000000	0.0
28	0x3fc780d0	1.5586185
29	0x3f84204a	1.0322354
30	0x3f4bdfc9	0.79638344
31	0x00000000	0.0
32	0xbf921c08	-1.1414804
33	0x41513058	13.074303
34	0xbfba920c	-1.457582
35	0x410ed802	8.927736
36	0xc0c55995	-6.1671853
37	0x3f026b69	0.50945145
38	0xbf52f52a	-0.8240534
39	0x4100d474	8.051868
40	0x3f1e7b1e	0.6190661
41	0x40b3c4c6	5.61777
42	0xbfecffc8	-1.8515558
43	0x401eb076	2.4795203
44	0x00000000	0.0
45	0x3eafcb11	0.34334615
46	0x4141cdbd	12.112729
47	0xc10e5e36	-8.898001
48	0x401ea0e5	2.4785702
49	0x3ec76d68	0.38950658
50	0x3dbe5749	0.09293992
51	0x40221f0f	2.5331457
52	0x3ffeac4e	1.9896333
53	0xc13d1894	-11.8185005
54	0x407e5cb0	3.9744072
55	0x4023a518	2.5569515
56	0x3ebdadde	0.37046713
57	0xc01d2f52	-2.4560132
58	0xbf71c092	-0.94434464
59	0xc027d817	-2.622564
60	0xc18f1e2f	-17.889738
61	0x414be13f	12.742492
62	0x40e09649	7.0183454
63	0x00000000	0.0
64	0x3eb66eb9	0.3563135
65	0xc1898381	-17.18921
66	0x40d77710	6.733284
67	0x00000000	0.0
68	0xc0867c33	-4.202661
69	0xc08b9302	-4.3616953
70	0xc080018f	-4.0001903
71	0xc08fae4e	-4.4900274
72	0xc166968a	-14.411753
73	0x404f944c	3.2434263
74	0x40dfbb53	6.9916167
75	0x41159c20	9.350616
76	0xbe4ce2e2	-0.20008424
77	0x404b377a	3.175261
78	0xc0e9fe88	-7.3123207
79	0xc12223f6	-10.13378
80	0x40eee5d1	7.4655538
81	0xc0559658	-3.3373013
82	0xc189607a	-17.172108
83	0xc14edb2f	-12.928512
84	0xc10d9c03	-8.850589
85	0x3e76b7a9	0.24093498
86	0xc0178285	-2.3673413
87	0xbe5e0606	-0.21681985
88	0xc026d1b1	-2.6065485
89	0x407255eb	3.786494
90	0xc18e6084	-17.797127
91	0xc0d4c99e	-6.6496115
92	0x40e6a145	7.207186
93	0x4092ad16	4.5836287
94	0x4065e25e	3.5919414
95	0x41871fe0	16.890564
96	0xc08fa8c7	-4.4893527
97	0xc03d17f2	-2.9545865
98	0xc156d2bd	-13.42645
99	0x40469692	3.10294
100	0xc1ac0ec6	-21.507214
101	0xc0fe1e48	-7.9411964
102	0x3f3b304a	0.7312056
103	0x40744a2c	3.817027
104	0xbe91453e	-0.2837314
105	0xc070ee7c	-3.764556
106	0x4076f7d7	3.858877
107	0xbd5d7d2d	-0.054074455
108	0x00000000	0.0
109	0xbf2b6e1a	-0.66964877
110	0x3f7950d4	0.9738896
111	0x417215ca	15.13032
112	0x4064b70b	3.573672
113	0x3d28463c	0.041082606
114	0xbdf647fb	-0.12025448
115	0xc1b8a944	-23.08265
116	0xc03b2801	-2.9243166
117	0xbfef932c	-1.8716788
118	0xc182a183	-16.328863
119	0xc07a1e78	-3.9081097
120	0x00000000	0.0
121	0x402011e8	2.501093
122	0xc1812a4b	-16.14565
123	0x40202ad8	2.502615
124	0xbdb6301a	-0.088958934
125	0xc0a4cde3	-5.1501327
126	0xc0ca863f	-6.3288875
127	0xc10b0314	-8.6882515

exp_avg_sq f4 [128]
0	0x42a12a71	80.58289
1	0x42216fd7	40.35922
2	0x00000000	0.0
3	0x425859ea	54.087807
4	0x408124ab	4.035726
5	0x40e7fcff	7.2496333
6	0x424fae31	51.92011
7	0x41702690	15.009415
8	0x41026e90	8.151993
9	0x3f1a4066	0.60254514
10	0x00000000	0.0
11	0x406e53b7	3.7238595
12	0x41a95832	21.168064
13	0x3ffa1c87	1.9539956
14	0x3e960acb	0.2930511
15	0x413b1d10	11.694595
16	0x00000000	0.0
17	0x3e3ef044	0.18646342
18	0x415f4070	13.953232
19	0x3f4fb3b2	0.8113357
20	0x00000000	0.0
21	0x419d26d0	19.643951
22	0x408452e1	4.135117
23	0x41932066	18.39082
24	0x410dc54c	8.860668
25	0x41880436	17.002056
26	0x41f7536b	30.915731
27	0x00000000	0.0
28	0x3f95cbc5	1.170281
29	0x411ebef7	9.921622
30	0x40b1decd	5.5584474
31	0x00000000	0.0
32	0x416929aa	14.572672
33	0x41bfc45b	23.970877
34	0x3fd890de	1.691921
35	0x4254dbb7	53.214565
36	0x410c2dee	8.761213
37	0x404c6f7d	3.1943047
38	0x41522cca	13.135935
39	0x424c7f0b	51.124065
40	0x40e4858a	7.141301
41	0x42068c2f	33.636898
42	0x409ddff7	4.9335895
43	0x409aa559	4.832684
44	0x00000000	0.0
45	0x412f544f	10.958083
46	0x420e4c39	35.574436
47	0x4203f344	32.987564
48	0x40f5c72f	7.6805644
49	0x40075349	2.1144583
50	0x418ab93c	17.340446
51	0x419338c1	18.402712
52	0x407b42ac	3.9259443
53	0x4247f8f5	49.993122
54	0x41c4c624	24.596748
55	0x40bc8b9b	5.8920417
56	0x3f84f90f	1.0388507
57	0x3f5d954e	0.86555946
58	0x411b50e4	9.707249
59	0x404ce0e7	3.201227
60	0x42461620	49.521606
61	0x41bde54a	23.736958
62	0x41d05b5b	26.044607
63	0x00000000	0.0
64	0x3fca7b83	1.5818943
65	0x41f8817b	31.063223
66	0x4144c1b1	12.297288
67	0x00000000	0.0
68	0x411d2bd6	9.823202
69	0x412913d9	10.567346
70	0x41831c2b	16.388754
71	0x412b5dcc	10.7104
72	0x4245fccd	49.496876
73	0x40d71147	6.720859
74	0x41b9696d	23.176477
75	0x42609b63	56.151745
76	0x3f6fb6e5	0.9363845
77	0x4098ef40	4.7792053
78	0x422e6cb0	43.60614
79	0x4180b5c3	16.08875
80	0x41c771de	24.9306
81	0x41f78e71	30.944551
82	0x420e6d5d	35.6068
83	0x418c3e44	17.530403
84	0x420ae346	34.721947
85	0x3faf7283	1.3706821
86	0x417575fc	15.341305
87	0x40d3f083	6.6231093
88	0x412ec69a	10.923487
89	0x4288a3f9	68.32026
90	0x42699786	58.397972
91	0x426f6b1f	59.85461
92	0x4240b3f9	48.175755
93	0x413337a5	11.201085
94	0x40732bd7	3.7995508
95	0x42534cc5	52.82497
96	0x410f93c5	8.973577
97	0x40767c79	3.8513472
98	0x41cc5894	25.543251
99	0x4171f2ad	15.121747
100	0x42363d20	45.559692
101	0x420a7d27	34.62222
102	0x41815599	16.166796
103	0x41f8f831	31.121187
104	0x3fa5ad92	1.2943594
105	0x42182a7a	38.04148
106	0x4249d425	50.457172
107	0x4095f0c4	4.6856403
108	0x00000000	0.0
109	0x3f9ac893	1.209246
110	0x411ff90b	9.9983015
111	0x42aae3f7	85.445244
112	0x401b7cd3	2.4294937
113	0x3e265d4c	0.16246527
114	0x40edbb71	7.429131
115	0x42e4ff86	114.49907
116	0x4073c172	3.808682
117	0x407242c7	3.7853258
118	0x41f1c266	30.219921
119	0x410f9b76	8.975454
120	0x00000000	0.0
121	0x40795cba	3.8962846
122	0x41a51b9b	20.63848
123	0x41f73683	30.901617
124	0x3f81a5d6	1.0128734
125	0x42184d4c	38.075485
126	0x41371837	11.443412
127	0x4224b92f	41.180843

exp_avg f4 [5, 128]
0	0x419c7761	19.55829
1	0x41919390	18.197052
2	0x00000000	0.0
3	0x415b6dc0	13.714294
4	0xbf27ca01	-0.6554261
5	0x3f6b3cd8	0.91889715
6	0x405cb1d4	3.4483538
7	0x3e421561	0.18953468
8	0x4180eaf1	16.114717
9	0x3ffb8a22	1.965153
10	0x00000000	0.0
11	0xbfc1c17a	-1.5137169
12	0x40ca67db	6.3251777
13	0xbfb68d78	-1.4261923
14	0xbe061341	-0.13093282
15	0x41ee38ed	29.777796
16	0x00000000	0.0
17	0xbad1823d	-0.0015984249
18	0x40792ee7	3.8934877
19	0x3df7c1d5	0.120975174
20	0x00000000	0.0
21	0x40a94298	5.289379
22	0xbf3efa65	-0.7460082
23	0x40be3dff	5.945068
24	0x40dc8bb8	6.8920555
25	0x408ee622	4.4655924
26	0x40ffcaa7	7.993488
27	0x00000000	0.0
28	0x3e54a97f	0.20767783
29	0x41032c4f	8.198318
30	0xbe848f33	-0.25890502
31	0x00000000	0.0
32	0x40a61798	5.19038
33	0x41631f4a	14.195139
34	0xbfc0627e	-1.5030057
35	0x4145da2b	12.365764
36	0x40483b59	3.1286223
37	0xbd641e8a	-0.055693187
38	0x409f3ae2	4.975938
39	0x40961909	4.690556
40	0x41524eb0	13.144211
41	0x4147898c	12.471081
42	0x3e19b928	0.15012038
43	0x3f947d13	1.160067
44	0x00000000	0.0
45	0x3f59e0f9	0.85108906
46	0x413dd714	11.865009
47	0x40687114	3.6319017
48	0xbddd3f35	-0.108030714
49	0x3d18bf3b	0.037291747
50	0x405dcd88	3.4656696
51	0x41372109	11.445565
52	0xbfbdf55a	-1.48405
53	0x40cd1328	6.4085884
54	0x4182b4ff	16.338377
55	0x4118d0a0	9.550934
56	0x3e89fd9e	0.26951307
57	0x3da4a677	0.08039563
58	0x3fa3cdb2	1.2797148
59	0x405a8058	3.4140835
60	0x40e9396a	7.2882586
61	0x41922d5c	18.272148
62	0x40d26567	6.574878
63	0x00000000	0.0
64	0x3f9bb23e	1.216377
65	0x41885d3b	17.045523
66	0x40492c35	3.1433232
67	0x00000000	0.0
68	0x3e4273b4	0.1898945
69	0xc0249362	-2.5714955
70	0x41379cf4	11.475819
71	0x40839dca	4.1130114
72	0x411f825f	9.969329
73	0xbe9d2d88	-0.306988
74	0x41aae18c	21.36013
75	0x4143b25f	12.231048
76	0x4070b6f0	3.7611656
77	0x3ee2ef3c	0.44323146
78	0x41a84147	21.031874
79	0x3f7c680f	0.9859628
80	0x40a4f97b	5.155454
81	0x418d6d66	17.678417
82	0x4174a2bd	15.289731
83	0xbcb4a7fa	-0.022052754
84	0x40f836af	7.7566752
85	0xbbad13e2	-0.005281911
86	0x3f867614	1.0504785
87	0x40be0023	5.9375167
88	0x3f93b053	1.1538185
89	0x417c07a7	15.751868
90	0xc081cfb3	-4.056604
91	0x4086dba3	4.214311
92	0x40f86b91	7.7631307
93	0x4118b899	9.545068
94	0x4073eaa9	3.8111975
95	0x40df3e0d	6.9763246
96	0x415f4e3c	13.9566
97	0x3f35f054	0.71069837
98	0xbe7467da	-0.23867741
99	0x40bd1288	5.908512
100	0x41536e32	13.214403
101	0x40fd1a1a	7.909436
102	0x3f84cd75	1.03752
103	0x3f1b35db	0.6062905
104	0x40002956	2.002523
105	0x4157a425	13.477574
106	0x3faabde7	1.3339204
107	0x414d695e	12.838224
108	0x00000000	0.0
109	0x3f4feeb9	0.81223637
110	0x41105679	9.0211115
111	0x418eb3f4	17.837868
112	0x40b267a2	5.5751505
113	0xba961f86	-0.0011453487
114	0x401896aa	2.3841958
115	0x40a8339a	5.256299
116	0x402e7d3f	2.7263944
117	0x40f4c7ba	7.6493807
118	0xbec2966f	-0.38005397
119	0x3e314ddc	0.17314857
120	0x00000000	0.0
121	0x40abd0f5	5.3692575
122	0x4153dff3	13.242175
123	0x409a57d4	4.823221
124	0xbe9cc018	-0.30615306
125	0x40bdc0dd	5.929793
126	0x400802dc	2.1251745
127	0x40dbff88	6.874943
128	0xbff4dab7	-1.9129246
129	0x40a92887	5.286197
130	0x00000000	0.0
131	0xc0217aa8	-2.5231113
132	0x3fb37d7c	1.402267
133	0xbe08f887	-0.13376056
134	0x417ecab3	15.924487
135	0x40707dde	3.7576823
136	0x41356403	11.336917
137	0xbf4440e7	-0.76661533
138	0x00000000	0.0
139	0x3e863d7b	0.2621878
140	0xc04e68ae	-3.2251391
141	0xbf6796b4	-0.9046433
142	0x3d4cafa9	0.04997221
143	0x4088c416	4.2739363
144	0x00000000	0.0
145	0xbc05fce1	-0.008177967
146	0xbf4d6992	-0.8023921
147	0xbf66feb0	-0.9023237
148	0x00000000	0.0
149	0xc00813d5	-2.1262105
150	0xbf8ce8b7	-1.1008519
151	0x3f6eaf0e	0.9323586
152	0xc08a7ed8	-4.327984
153	0xc0167528	-2.3509007
154	0x414502b7	12.313163
155	0x00000000	0.0
156	0xbdab071c	-0.083509654
157	0x403bfcbc	2.9373007
158	0xbe9933b4	-0.2992226
159	0x00000000	0.0
160	0x4038908e	2.883823
161	0xbfca04c0	-1.57827
162	0x405ee208	3.4825459
163	0x40da05b6	6.813197
164	0xc0267756	-2.6010337
165	0x3e02a22f	0.1275718
166	0xc0573e45	-3.3631756
167	0x40909916	4.5186872
168	0xc0fc0d69	-7.876637
169	0xbf92f249	-1.148019
170	0x40cff763	6.4989486
171	0x40a6e7b5	5.2157845
172	0x00000000	0.0
173	0x3ded1a45	0.11577276
174	0xc08f145d	-4.4712358
175	0x3f0a8ad3	0.5411808
176	0xc01cbc5d	-2.4489968
177	0x3fd1384a	1.6345303
178	0xbfa90a94	-1.3206353
179	0xc1053475	-8.325307
180	0x400a5206	2.1612563
181	0x3f14cedd	0.5812815
182	0xc02065b4	-2.5062075
183	0xc073a582	-3.8069768
184	0xbc353c4a	-0.011061737
185	0xbf03ceed	-0.5148762
186	0x4188370f	17.026884
187	0x3f026180	0.50930023
188	0xbead6487	-0.3386576
189	0xc18447e3	-16.5351
190	0xbfa6e689	-1.3039104
191	0x00000000	0.0
192	0xbe8e1d35	-0.27756658
193	0xc0c492ce	-6.1429205
194	0x403ad85e	2.919456
195	0x00000000	0.0
196	0x402639f9	2.5972884
197	0x41cb5f99	25.421679
198	0x3f1a9a5d	0.6039179
199	0x3f83e8cb	1.0305418
200	0x4150f0df	13.058806
201	0x3f8792af	1.0591639
202	0xc018a15a	-2.384848
203	0x400d1d4e	2.2049136
204	0x3e664db6	0.22490582
205	0x3eeb3bfb	0.459442
206	0xc0becd17	-5.9625354
207	0xbe4ef410	-0.2021029
208	0xbffb5cc1	-1.9637681
209	0xc1007f36	-8.031057
210	0xc1469f1c	-12.413845
211	0x400517a3	2.0795677
212	0x40c36e25	6.1071954
213	0xbb181fad	-0.002321224
214	0x408400d8	4.125103
215	0xc0b16644	-5.5437336
216	0xbe00c6a4	-0.12575775
217	0xbf04b2c3	-0.5183527
218	0x41553dd3	13.327594
219	0xbf9104c7	-1.1329583
220	0x41087df4	8.53075
221	0xc0fa99fd	-7.8312974
222	0xc0196e51	-2.3973582
223	0x4083a06e	4.1133337
224	0xc0c621bf	-6.1916194
225	0xbf4923dc	-0.7857034
226	0x41492035	12.570363
227	0xbfc55ac7	-1.5418328
228	0x3f65faf2	0.8983604
229	0xc00e5f42	-2.224564
230	0xbed6d553	-0.41959628
231	0x3f4153fa	0.75518763
232	0xbffcc31c	-1.9747043
233	0x40c7f63b	6.2488074
234	0x40914477	4.5396075
235	0xc0dc608c	-6.8867855
236	0x00000000	0.0
237	0xbfa2d45a	-1.2721055
238	0xc098b02e	-4.7715063
239	0xc0c27683	-6.076967
240	0xc0787750	-3.8822823
241	0x393c7e48	0.0001797612
242	0x40a7fe75	5.2498116
243	0x407fe839	3.9985487
244	0x41235c73	10.210071
245	0xc0471fab	-3.1113079
246	0x40bab777	5.8348956
247	0x40c0c978	6.0245934
248	0x00000000	0.0
249	0xc00859ae	-2.1304736
250	0x40bca323	5.894914
251	0xbfa6d6d5	-1.3034312
252	0xbe752f56	-0.23943838
253	0x40044e2e	2.0672717
254	0x4043c93e	3.0591578
255	0x4003e43a	2.0608048

exp_avg_sq f4 [5, 128]
0	0x42c4aca6	98.337204
1	0x43107cd0	144.48755
2	0x00000000	0.0
3	0x42ae0a46	87.020065
4	0x3f00f5c3	0.50375
5	0x400b3eb7	2.1757028
6	0x42707eaa	60.123695
7	0x4141cd9c	12.112698
8	0x42d8dbfd	108.429665
9	0x3f9b0f74	1.2114091
10	0x00000000	0.0
11	0x3f1b9be9	0.60784775
12	0x419171d4	18.18058
13	0x3ffe9a0b	1.989076
14	0x3bde3034	0.0067806486
15	0x437bda80	251.85352
16	0x00000000	0.0
17	0x3928d9bc	0.00016102841
18	0x40e194db	7.049421
19	0x3d063e39	0.032774184
20	0x00000000	0.0
21	0x40950ea2	4.658036
22	0x3eaa3320	0.3324213
23	0x4159e0ea	13.617411
24	0x41845b76	16.544659
25	0x414b3c9a	12.702295
26	0x42b2c306	89.380905
27	0x00000000	0.0
28	0x3d0b27e6	0.033973597
29	0x418f25e0	17.893494
30	0x3fb8a413	1.4425071
31	0x00000000	0.0
32	0x421eb1a5	39.67348
33	0x42d77aa9	107.73957
34	0x4011ee52	2.280171
35	0x42560cfd	53.512684
36	0x40d185a6	6.5475645
37	0x3d8b08a1	0.06788755
38	0x40a422ef	5.1292644
39	0x421820f1	38.03217
40	0x429c71cd	78.22227
41	0x42a9fb7c	84.99118
42	0x41cfb472	25.963108
43	0x41988df9	19.069323
44	0x00000000	0.0
45	0x3f088b72	0.53337777
46	0x41f14381	30.15796
47	0x40d8dce4	6.776964
48	0x4088a079	4.269589
49	0x3f557c12	0.8339244
50	0x406fda98	3.747717
51	0x423dac0f	47.418026
52	0x40e44cff	7.134399
53	0x40e832c2	7.256196
54	0x42dada1e	109.42601
55	0x41aaae2b	21.335043
56	0x3f242ab5	0.64127666
57	0x3e573370	0.21015716
58	0x42ba8371	93.25672
59	0x40634ad3	3.551442
60	0x411a79d7	9.654746
61	0x429fa443	79.82082
62	0x41d0f67a	26.12035
63	0x00000000	0.0
64	0x3f79b052	0.9753467
65	0x42b2dedc	89.43527
66	0x4197d2e3	18.977972
67	0x00000000	0.0
68	0x40e22f85	7.0683007
69	0x4276acbf	61.668697
70	0x42c2a638	97.324646
71	0x40c3d8d8	6.12022
72	0x42b700a0	91.50122
73	0x3e541ba1	0.20713665
74	0x4294de17	74.43377
75	0x4250874d	52.13213
76	0x409bf4ae	4.873618
77	0x4089ebe0	4.3100433
78	0x427ab6c7	62.678493
79	0x420cda45	35.213154
80	0x412173c9	10.090768
81	0x424b112f	50.76678
82	0x4257a40e	53.91021
83	0x40340c26	2.8132415
84	0x41d793ea	26.947224
85	0x3b3e3b31	0.002902698
86	0x412f8bcf	10.971633
87	0x40bdd908	5.932743
88	0x3f7d8293	0.99027365
89	0x42aabdea	85.370926
90	0x41e06c4c	28.05288
91	0x414c3103	12.761966
92	0x4282f9aa	65.487625
93	0x425c4be1	55.0741
94	0x4018fb42	2.3903356
95	0x4191ac34	18.209084
96	0x41d763be	26.923702
97	0x3dfce24f	0.123478524
98	0x41678707	14.470466
99	0x40f08312	7.516
100	0x42765d8b	61.59135
101	0x41ac1a73	21.512915
102	0x3e34fc4d	0.1767437
103	0x40723508	3.7844868
104	0x4019ccfc	2.4031363
105	0x42db3740	109.60791
106	0x4092e74f	4.590736
107	0x41fc2074	31.515846
108	0x00000000	0.0
109	0x3e6af5d6	0.22945341
110	0x4180d863	16.105658
111	0x42d4fd16	106.49431
112	0x415e7293	13.902972
113	0x391bf865	0.00014874486
114	0x42760438	61.50412
115	0x41ddf80a	27.746113
116	0x41c2aa10	24.333038
117	0x41539279	13.22326
118	0x411ca2f9	9.789788
119	0x4071829b	3.7735965
120	0x00000000	0.0
121	0x408009da	4.0012026
122	0x42a38768	81.764465
123	0x41841914	16.512245
124	0x3d972247	0.07379585
125	0x41bf56cb	23.91738
126	0x41a3e90f	20.488798
127	0x42883aa0	68.1145
128	0x421696f3	37.64741
129	0x4327bea3	167.74467
130	0x00000000	0.0
131	0x42296149	42.345005
132	0x3f00cdfa	0.50314295
133	0x408c58a9	4.385823
134	0x42cfaf07	103.84185
135	0x41284763	10.517428
136	0x42dcf76d	110.48325
137	0x3f4d663e	0.80234134
138	0x00000000	0.0
139	0x3eaf9c77	0.3429906
140	0x41550c4c	13.315502
141	0x40474078	3.1133099
142	0x3bb0de57	0.0053975987
143	0x4322910e	162.56662
144	0x00000000	0.0
145	0x3a6d4599	0.00090512034
146	0x40d968d6	6.7940474
147	0x3de88303	0.113531135
148	0x00000000	0.0
149	0x3fe73655	1.8063456
150	0x3eee7bdf	0.4657888
151	0x40d71c7b	6.7222266
152	0x41f0534c	30.040672
153	0x40989ec5	4.769381
154	0x42b86a75	92.207924
155	0x00000000	0.0
156	0x3ce668c2	0.028126124
157	0x41a152b2	20.165379
158	0x3f27149b	0.65265816
159	0x00000000	0.0
160	0x41f8977b	31.073965
161	0x4254b970	53.18109
162	0x405c0fad	3.4384568
163	0x421d84af	39.379574
164	0x40bb6656	5.856242
165	0x3d10b8c9	0.035332475
166	0x404227a9	3.0336707
167	0x41be7097	23.804976
168	0x42422d36	48.54415
169	0x42bfdec4	95.93509
170	0x418f72fa	17.93114
171	0x41a50cfc	20.63134
172	0x00000000	0.0
173	0x3f6c3152	0.92262757
174	0x421bc79a	38.944923
175	0x40efce6a	7.493947
176	0x40d95ac9	6.792332
177	0x3ffcb2d5	1.9742075
178	0x40824f42	4.072175
179	0x41e02b72	28.021214
180	0x40bd9044	5.9238605
181	0x40c3e9ea	6.122304
182	0x42cc31fa	102.09761
183	0x419bf8fd	19.496576
184	0x3f50b24a	0.8152205
185	0x3ea3df03	0.32006082
186	0x42f2fcae	121.493515
187	0x40a5c9e3	5.1808944
188	0x4166e772	14.431505
189	0x42f991b1	124.78455
190	0x4124ee99	10.308251
191	0x00000000	0.0
192	0x3f9500db	1.1640886
193	0x422798d2	41.89924
194	0x41806854	16.050941
195	0x00000000	0.0
196	0x40ba3bb1	5.8197865
197	0x42e6e14f	115.440056
198	0x4252c380	52.690918
199	0x407dd8e5	3.9663632
200	0x42815d79	64.68256
201	0x3e938733	0.28814086
202	0x424a44ee	50.567314
203	0x4225e2ce	41.47149
204	0x40b504fc	5.6568584
205	0x409deacc	4.9349117
206	0x41bb7a10	23.4346
207	0x41d0ce9d	26.100885
208	0x40a8eab2	5.2786493
209	0x42190bdc	38.26158
210	0x420859bb	34.087627
211	0x4004a73e	2.0727077
212	0x42803dda	64.120804
213	0x39865433	0.00025621205
214	0x40f1ff1c	7.5623913
215	0x409e0ba8	4.938923
216	0x3fca1a40	1.5789261
217	0x426845b2	58.06806
218	0x422bd150	42.954407
219	0x41c4dd07	24.607924
220	0x4255ca17	53.447353
221	0x420f8f32	35.88984
222	0x3fc03255	1.501536
223	0x42112f39	36.296116
224	0x4140812b	12.031535
225	0x3d971ddd	0.07378743
226	0x4252204e	52.531548
227	0x40d8b5e2	6.7722025
228	0x4271d7ce	60.460747
229	0x41c367a0	24.425598
230	0x3e678ebc	0.22613043
231	0x404072d0	3.0070076
232	0x401ccd95	2.4500477
233	0x42966b3a	75.20943
234	0x4133ea35	11.244679
235	0x412dc141	10.859681
236	0x00000000	0.0
237	0x3e6a6ea1	0.22893764
238	0x419891ae	19.071133
239	0x42e9ed39	116.963326
240	0x40f95a77	7.792293
241	0x3767a610	1.3807337e-05
242	0x42646352	57.096992
243	0x4162c69d	14.17349
244	0x41edd92a	29.731037
245	0x40f1e9f7	7.55981
246	0x40ddc954	6.930826
247	0x413bdeff	11.741942
248	0x00000000	0.0
249	0x40284719	2.6293395
250	0x42f0f393	120.47573
251	0x41aefc03	21.873053
252	0x3de725e4	0.11286524
253	0x41cffa02	25.997074
254	0x41e2404f	28.2814
255	0x422e8204	43.62697

exp_avg f4 [5]
0	0x42aabb14	85.36539
1	0x4119e4df	9.618377
2	0xc0f0b4b3	-7.522058
3	0x42bac646	93.38725
4	0xc334d94c	-180.84882

exp_avg_sq f4 [5]
0	0x4519c3f1	2460.2463
1	0x45006df8	2054.873
2	0x4586eb19	4317.387
3	0x451634f9	2403.3108
4	0x453f15d9	3057.3655
