Reinforcement-Learning/Math-RL-Book-Code/log/REINFORCEN/REINFORCEN_model_v0.pth (torch, 17622 bytes, 12 tensors)

net.0.weight f4 [32, 25]
0	0xbd192e21	-0.037397508
1	0x3e0e8809	0.13919081
2	0xbe1c59a6	-0.15268573
3	0x3e99b248	0.3001883
4	0xbe18ef9d	-0.14935155
5	0xbe0b01ea	-0.13574949
6	0xbc85e798	-0.016345784
7	0xbd6fda94	-0.05855806
8	0xbddb59e1	-0.107105024
9	0x3dcaeb04	0.09908107
10	0xbdadd440	-0.08487749
11	0x3e1f6d73	0.15569095
12	0xbe166508	-0.14686978
13	0xbe26ba0e	-0.16281912
14	0xbe144f22	-0.14483312
15	0xbce3886d	-0.027775014
16	0x3e253937	0.16135107
17	0xbe225325	-0.1585203
18	0xbe3fb9aa	-0.18723169
19	0xbb817800	-0.0039510727
20	0x3e26dcb5	0.1629513
21	0x3d17ca4c	0.03705816
22	0x3e28a48d	0.16469021
23	0x3eba97bf	0.36443898
24	0xbdaf1e37	-0.08550685
25	0x3f03a7a0	0.5142765
26	0x3e96a946	0.2942602
27	0x3eba3125	0.3636562
28	0xbe4cbb16	-0.19993243
29	0x3e455a7b	0.19272797
30	0x3e5d8bba	0.21635333
31	0xbe19e592	-0.1502898
32	0xbd76bec0	-0.060240507
33	0xbe46867b	-0.19387238
34	0xbe554c1f	-0.20829819
35	0x3e2f39fe	0.17111966
36	0x3d9bf6d2	0.076154366
37	0xbe3b42b3	-0.18287162
38	0xbe4c0513	-0.1992381
39	0xbdfb86bd	-0.12281559
40	0x3ea40e00	0.3204193
41	0x3d260ad4	0.04053767
42	0xbe1f3a28	-0.15549529
43	0x3df1991e	0.11796783
44	0xbe1b7e0b	-0.151848
45	0x3c9d7ed6	0.01922552
46	0xbe02ce0a	-0.1277391
47	0x3e002484	0.1251393
48	0x3e4b4e32	0.19854048
49	0x3db7c0aa	0.08972295
50	0xbdffc258	-0.1248824
51	0xbe06f5f4	-0.13179761
52	0xbe32222b	-0.17395847
53	0x3eafad3c	0.34311855
54	0x3e82b1c4	0.2552625
55	0x3de92aab	0.113850914
56	0xbd9fa3aa	-0.07794888
57	0xbe075b9a	-0.13218537
58	0xbe015d74	-0.12633306
59	0x3e90b762	0.2826491
60	0xbdd992a7	-0.10623675
61	0xbccd2ae8	-0.025044873
62	0x3ed00be0	0.4063406
63	0xbe00a6c2	-0.12563613
64	0x3d8b48a1	0.06800962
65	0x3f11fd61	0.5702725
66	0x3e047867	0.12936555
67	0xbdec80da	-0.11548014
68	0xba98e180	-0.0011663884
69	0x3df81216	0.121128246
70	0x3e8aea0a	0.27131683
71	0x3d916886	0.071000144
72	0xbe276fe2	-0.16351274
73	0xbe44cb3d	-0.19218154
74	0x3e27abd5	0.16374142
75	0xbe811caa	-0.2521718
76	0x3dc584a8	0.09644443
77	0xbd06f654	-0.03294976
78	0x3e51f11d	0.20502134
79	0x3e19bc39	0.15013207
80	0xbe71809e	-0.2358422
81	0x3e201b21	0.15635349
82	0x3e2a6291	0.16639163
83	0xbd8226b6	-0.0635504
84	0x3df77c37	0.12084239
85	0xbe6e2fa6	-0.23260364
86	0xbe26b615	-0.16280396
87	0x3dc0517a	0.093905404
88	0xbe7da65c	-0.24770492
89	0xbde6f9d4	-0.1127812
90	0xbe6cd207	-0.23126994
91	0x3c646400	0.0139398575
92	0x3e8b4855	0.27203622
93	0xbcb7b4c0	-0.022425056
94	0xbbbc9660	-0.005755231
95	0xbe6e7073	-0.23285083
96	0xbdaad79d	-0.08341906
97	0x3e52fd6f	0.2060449
98	0x3e51f8e0	0.20505095
99	0xbd444598	-0.047917932
100	0xbe1de09d	-0.15417714
101	0x3ebca40b	0.36843905
102	0x3e92380f	0.28558394
103	0x3d0fde39	0.035124037
104	0xbe12bfca	-0.14330974
105	0xbe1f89de	-0.15579936
106	0xbdad59fa	-0.08464427
107	0xbdfb39a0	-0.122668505
108	0xbdc40473	-0.09571161
109	0xbd5066ce	-0.050879292
110	0xbe26f4c2	-0.16304305
111	0x3e095e83	0.1341496
112	0xbbe3693a	-0.006940034
113	0x3d61a884	0.05509235
114	0x3d91935c	0.07108185
115	0xbe1cbeb2	-0.1530712
116	0xbe324b43	-0.17411523
117	0xbd3d0c68	-0.04615441
118	0xbd91dc7c	-0.07122132
119	0x3e227cb1	0.15867878
120	0xbe121e7b	-0.1426944
121	0x3dac9ae2	0.08427979
122	0xbddc28a3	-0.10749938
123	0x3eb5c06e	0.35498375
124	0x3e115ab1	0.14194752
125	0x3d831c55	0.06401888
126	0xbe5953cb	-0.2122337
127	0x3e238a0d	0.15970631
128	0xbe2aad24	-0.1666761
129	0xbe514772	-0.2043741
130	0xbe5982a6	-0.21241245
131	0xbe3ea333	-0.18616943
132	0x3d935802	0.071945205
133	0xbd9a3db8	-0.07531303
134	0x3e43f888	0.19137776
135	0xbe50fe3d	-0.20409484
136	0x3e01dce9	0.12681927
137	0xbe35b1db	-0.17743628
138	0xbe41ed6d	-0.18938227
139	0xbd4dcbb4	-0.050243095
140	0xbe51f358	-0.20502985
141	0xbdf7219a	-0.12066956
142	0xbe41477d	-0.18874927
143	0x3dcd2a4a	0.100178316
144	0x3b736d40	0.0037143975
145	0xbe42ce7b	-0.19024079
146	0x3d03b0cc	0.03215103
147	0x3e76a19f	0.24085091
148	0xbdc16524	-0.09443119
149	0x3e283483	0.16426282
150	0x3f7be6c8	0.9839902
151	0x3e5b67e0	0.21426344
152	0x3e7fbb03	0.24973683
153	0xbe21f823	-0.15817313
154	0xba07a95c	-0.0005175078
155	0x3f0ac694	0.54209256
156	0xbda02fdd	-0.07821629
157	0xbe05898d	-0.13040753
158	0xbe08185b	-0.13290541
159	0xbde3983a	-0.11113019
160	0x3f15c1e1	0.5849896
161	0xbd6d73d4	-0.05797179
162	0xbdf2e87b	-0.118607484
163	0xbe3df1f5	-0.1854933
164	0xbdf45037	-0.11929362
165	0x3f6e27d7	0.9302954
166	0x3e38b747	0.18038665
167	0xbdfeb15f	-0.124361746
168	0xbe20194b	-0.15634649
169	0x3de01656	0.1094176
170	0x3e53c91a	0.20682183
171	0xbdf79bf0	-0.120902896
172	0x3e809727	0.2511532
173	0x3e2311d0	0.15924764
174	0x3e4ba67d	0.19887729
175	0xbe35b983	-0.17746548
176	0xbd8b4e2e	-0.06802021
177	0xbb0bafb0	-0.0021314435
178	0x3e7695f0	0.24080634
179	0xbd60adba	-0.05485318
180	0x3c384368	0.01124654
181	0xbe22807a	-0.15869322
182	0x3df947b2	0.12171878
183	0x3e93244f	0.2873864
184	0xbe437ecd	-0.1909134
185	0x3cf2fe7d	0.029662365
186	0x3e20bc23	0.15696768
187	0x3eeed2a2	0.46645075
188	0xbe423779	-0.18966474
189	0xbe324093	-0.17407446
190	0xbddf515b	-0.10904189
191	0xbd446f6c	-0.047957823
192	0x3dcf97d7	0.10136383
193	0x3da73ed2	0.08166279
194	0xbe455e35	-0.19274218
195	0xbe31ad5a	-0.17351285
196	0x3d3a9f20	0.04556191
197	0xbe32d9bd	-0.17465873
198	0xbe225a40	-0.1585474
199	0x3e2218d1	0.15829779
200	0xbe821555	-0.254069
201	0x3e42ed33	0.19035797
202	0x3d0e4f04	0.034743324
203	0x3ed9c083	0.42529687
204	0x3d92aa70	0.071614146
205	0xbe87782a	-0.26458865
206	0x3e11b023	0.14227347
207	0xbd09a620	-0.033605695
208	0x3eca191a	0.39472276
209	0x3db51d6e	0.08843504
210	0xbe8579c1	-0.26069453
211	0x3dfe4ea2	0.12417342
212	0x3e79a689	0.24379934
213	0xbe82e582	-0.25565726
214	0xbe82b572	-0.25529057
215	0xbe818444	-0.25296223
216	0x3d32fde8	0.043699175
217	0x3e6ce7da	0.2313532
218	0xbe351453	-0.17683534
219	0xbe45630d	-0.19276066
220	0xbe718328	-0.23585188
221	0xbe08619d	-0.13318487
222	0xbdd03006	-0.1016541
223	0x3e2e62a5	0.17029817
224	0x3d13e7e8	0.036109835
225	0x3cb52323	0.022111481
226	0x3d8a051b	0.06739255
227	0x3da1e5d7	0.079051666
228	0x3d66f02a	0.056381382
229	0xbda80caa	-0.082055405
230	0xbe9d43e5	-0.30715862
231	0xbe43f63a	-0.19136897
232	0x3dda3dfe	0.10656355
233	0x3e148209	0.1450273
234	0xbdf9fab1	-0.12206019
235	0xbe927db7	-0.28611538
236	0x3dd3a812	0.10334791
237	0xbe97293f	-0.29523656
238	0xbe475743	-0.19466881
239	0x3dac8fc4	0.084258586
240	0xbe97b810	-0.29632616
241	0x3d3c9b88	0.046046764
242	0x3e0cd4d1	0.13753058
243	0x3c786460	0.01516065
244	0x3e347b91	0.17625262
245	0xbe93364b	-0.2875236
246	0xbe19718b	-0.1498472
247	0x3e309efc	0.17248148
248	0x3e10d236	0.14142689
249	0xbd397518	-0.045277685
250	0x3e301ed8	0.17199266
251	0xbe1243d0	-0.14283681
252	0xbe2b078e	-0.167021
253	0x3e2d9599	0.16951598
254	0xbe2a113a	-0.16608134
255	0xbe41fb8f	-0.18943618

net.0.bias f4 [32]
0	0x3d9daafe	0.0769863
1	0x3e140f3d	0.14458938
2	0x3d93ff4c	0.072264284
3	0x3e4b8cad	0.19877882
4	0xbc331f20	-0.010932714
5	0x3e16730f	0.14692329
6	0x3d97a0db	0.074037276
7	0x3e0c1781	0.13680841
8	0x3e763f92	0.24047688
9	0x3e81056f	0.25199458
10	0xbe431bc2	-0.19053558
11	0xbe3a66a4	-0.18203217
12	0xbe42b7b8	-0.19015396
13	0xbcfa6b58	-0.030568764
14	0xbc816360	-0.015794456
15	0x3dd3a848	0.103348315
16	0x3e3262ab	0.17420451
17	0x3df9bbb0	0.12194002
18	0xbc26b009	-0.010173806
19	0xbe44fca5	-0.19237001
20	0x3d58ff97	0.052978124
21	0x3c2737de	0.010206191
22	0xbd64d370	-0.055865705
23	0x3de89803	0.11357119
24	0x3d3da6d1	0.046301667
25	0x3e54e3c8	0.20790017
26	0xbd06ecfb	-0.032940846
27	0x3d8e274b	0.06941088
28	0x3e490301	0.19630052
29	0x3e1b86a4	0.1518808
30	0x3df1bd04	0.1180363
31	0x3de1fd27	0.11034613

net.2.weight f4 [5, 32]
0	0x3d49c5f6	0.049261056
1	0xbd15227b	-0.036409836
2	0x3daa4331	0.08313597
3	0x3e429512	0.19002178
4	0xbe6f43c4	-0.23365694
5	0x3bcf17f2	0.006319993
6	0xbe859306	-0.26088732
7	0x3ebcc7fb	0.36871323
8	0x3eb95509	0.3619769
9	0x3d85c742	0.06532146
10	0xbcecf3ca	-0.028924841
11	0xbe393c8b	-0.18089502
12	0xbe24b6b5	-0.16085322
13	0xbe69c4d3	-0.22828989
14	0x3dc9b5c6	0.09849124
15	0xbe203c86	-0.15648088
16	0xbd2c654a	-0.042088784
17	0xbebd85a5	-0.37016025
18	0xbe91c1e6	-0.28468245
19	0xbd89f98c	-0.067370504
20	0xbd072d82	-0.033002384
21	0x3e3ab760	0.18234015
22	0x3e3c6003	0.18396
23	0x3dbb9d6c	0.09160885
24	0x3d4db4bd	0.050221194
25	0xbdc2f8ad	-0.095200874
26	0x3e942ce2	0.28940493
27	0x3e0158a0	0.12631464
28	0x3ec6b1ee	0.38807625
29	0x3e261d03	0.16222005
30	0x3e9cb0db	0.3060368
31	0x3e1c0ced	0.15239306
32	0x3eb432fa	0.35195142
33	0x3ebde8f0	0.3709178
34	0xbf08aca4	-0.5338843
35	0x3e4da30a	0.20081726
36	0x3eac1c69	0.33615425
37	0x3e897fcb	0.2685531
38	0x3e8c040b	0.27346835
39	0xbef872e4	-0.48525155
40	0x3df88539	0.12134785
41	0x3e7cc746	0.24685392
42	0xbdfaea7f	-0.12251758
43	0x3e934dae	0.28770202
44	0x3ddab237	0.10678523
45	0xbe49d11c	-0.19708675
46	0x3e1b9760	0.15194464
47	0x3e36eb7d	0.17863269
48	0x3e655fa3	0.22399764
49	0xbf031d22	-0.5121633
50	0xbe04ad3d	-0.1295671
51	0x3ddabf49	0.10681016
52	0xbd51cc27	-0.051220085
53	0xbe7fe150	-0.24988294
54	0xbd07f11a	-0.033188917
55	0x3e95970f	0.2921681
56	0x3e1ff40b	0.15620439
57	0xbddf0bb0	-0.10890901
58	0x3ce6d30a	0.028176803
59	0xbeddce2f	-0.43321368
60	0xbd514716	-0.051093183
61	0xbe9c0134	-0.30469668
62	0x3cf32e87	0.029685272
63	0x3e6625de	0.22475383
64	0x3cc44e1e	0.02396303
65	0x3e234c86	0.1594716
66	0x3b880b5d	0.0041517452
67	0xbd258029	-0.040405426
68	0x3d305477	0.043049302
69	0xbea3692f	-0.31916186
70	0x3dc524d4	0.09626165
71	0x39e48dfc	0.00043593335
72	0x3dae007a	0.08496185
73	0xbe630236	-0.22168812
74	0xbd19deed	-0.037566114
75	0x3e9e7435	0.30948034
76	0x3b53d15b	0.003232083
77	0x3e4866ec	0.19570512
78	0xbbbbc7c1	-0.0057305996
79	0x3e820ad7	0.25398895
80	0xbe6764aa	-0.22596994
81	0xbe064238	-0.13111198
82	0x3ee476bb	0.44621834
83	0x3dc4c2d7	0.09607475
84	0xbe70993b	-0.23495953
85	0x3e045af5	0.12925322
86	0xbc85b57b	-0.016321888
87	0xbe2cbd2d	-0.1686904
88	0xbe32eef1	-0.17473961
89	0xbeac8295	-0.33693376
90	0xbe7fb44b	-0.2497112
91	0xba3e0011	-0.00072479347
92	0xbbc0aed7	-0.0058802175
93	0xbe7070ea	-0.23480573
94	0xbef717c9	-0.48260334
95	0x3e6bcffa	0.23028556
96	0xbec4d1f8	-0.38441443
97	0xbde1dfa1	-0.11028982
98	0xbd9231a5	-0.07138375
99	0xbdd2f82a	-0.1030124
100	0xbe9ddb60	-0.30831432
101	0xbcd26d27	-0.025686814
102	0xbd39b0cf	-0.045334633
103	0xbe3ecf67	-0.18633805
104	0xbe4090e6	-0.18805274
105	0xbd53b3f2	-0.05168528
106	0x3dabd6bc	0.08390567
107	0xbe26d701	-0.16292955
108	0xbe1dc48a	-0.15407005
109	0x3edc55f3	0.43034324
110	0xbe112dc2	-0.14177611
111	0xbe8d0bdf	-0.2754812
112	0x3d483b36	0.048884593
113	0x3edc006b	0.4296907
114	0x3c780691	0.015138284
115	0xbcaa2d2c	-0.020773493
116	0xbddd8c5e	-0.108177885
117	0x3dd7ff7d	0.105467774
118	0x3e574724	0.21023232
119	0x3e3b0dcb	0.1826698
120	0x3dad32b6	0.08456938
121	0x3e8f529b	0.2799271
122	0xbe347f22	-0.17626622
123	0x3ecb05b1	0.3965278
124	0xbe372209	-0.17884077
125	0x3e3399b3	0.175391
126	0x3e0a7b13	0.13523512
127	0xbec85034	-0.3912369
128	0xbdd4327d	-0.103611924
129	0x3d1a9737	0.037741866
130	0xbe4b9a0c	-0.19882983
131	0x3d411496	0.047138773
132	0xbdd785ee	-0.10523592
133	0x3c95ab30	0.018270105
134	0x3d284735	0.041083533
135	0xbe09f10e	-0.13470861
136	0x3db7e51d	0.08979247
137	0xbc6f5673	-0.014608013
138	0xbd6cf886	-0.057854198
139	0xbe085d05	-0.13316734
140	0x3e09448f	0.1340506
141	0xbe6c2e84	-0.2306462
142	0x3dcafcbe	0.09911488
143	0x3ccf31ad	0.025292242
144	0xbde2193a	-0.11039968
145	0x3e3aec34	0.18254167
146	0xbd1e5b6e	-0.038661413
147	0x3babb02c	0.005239507
148	0x3c983ac0	0.018582702
149	0x3d82db9b	0.06389543
150	0x3dea740a	0.11447914
151	0x3d904339	0.07044072
152	0xbdef9933	-0.11699142
153	0xbdf03a00	-0.117298126
154	0xbe2bb928	-0.1676985
155	0xbdf07527	-0.11741095
156	0xbcf36ef5	-0.029715994
157	0xbe0f42e4	-0.1399036
158	0xbdd46d85	-0.10372452
159	0x3c3e95ca	0.011632392

net.2.bias f4 [5]
0	0xbd91cbd0	-0.07118952
1	0xbd92fb97	-0.07176893
2	0xbde728dd	-0.11287091
3	0x3d92a030	0.071594596
4	0x3d6bd80a	0.057579078

exp_avg f4 [32, 25]
0	0x45309cc8	2825.7988
1	0x44441a95	784.41534
2	0x00000000	0.0
3	0xc3a1a8cd	-323.31876
4	0x00000000	0.0
5	0x00000000	0.0
6	0x00000000	0.0
7	0x00000000	0.0
8	0x00000004	6e-45
9	0x4524c65d	2636.3977
10	0x000005ae	2.037e-42
11	0x00000000	0.0
12	0x00000000	0.0
13	0x00000000	0.0
14	0x00000000	0.0
15	0x4333bc5f	179.73582
16	0x00000000	0.0
17	0x00000000	0.0
18	0x00000000	0.0
19	0x00000000	0.0
20	0xc2b3b631	-89.85584
21	0x00000000	0.0
22	0x47c45be3	100535.77
23	0x476bdad6	60378.836
24	0x00000000	0.0
25	0x44852e34	1065.4438
26	0x449fefc8	1279.4932
27	0xc51ebf0c	-2539.9404
28	0x00000004	6e-45
29	0xc5908a94	-4625.3223
30	0x441d52ca	629.2936
31	0x00000000	0.0
32	0x00000000	0.0
33	0x00000004	6e-45
34	0x00000004	6e-45
35	0xc40f71d2	-573.77844
36	0x00000000	0.0
37	0x00000004	6e-45
38	0x00000004	6e-45
39	0xc5f3572e	-7786.8975
40	0x4211cb41	36.44849
41	0x00000000	0.0
42	0x1d1d6996	2.0833364e-21
43	0x00000000	0.0
44	0x00000000	0.0
45	0xc2c2632a	-97.19368
46	0x00000000	0.0
47	0x47b7ed59	94170.695
48	0x4663f882	14590.127
49	0x00000000	0.0
50	0x00000004	6e-45
51	0x34d7ef0d	4.0220803e-07
52	0x00000000	0.0
53	0xc52749e1	-2676.6174
54	0x45ba93db	5970.482
55	0xc490c971	-1158.295
56	0x00000000	0.0
57	0x00000000	0.0
58	0x00000004	6e-45
59	0xc5b1c378	-5688.4336
60	0x00000000	0.0
61	0x00000000	0.0
62	0x45b145a6	5672.706
63	0x00000004	6e-45
64	0x45b50a19	5793.262
65	0xc379bb26	-249.73105
66	0x00000000	0.0
67	0x00000004	6e-45
68	0x00000000	0.0
69	0x00000000	0.0
70	0x423fb87d	47.930164
71	0x00000000	0.0
72	0x00000000	0.0
73	0x00000000	0.0
74	0x00000000	0.0
75	0x00000004	6e-45
76	0x4347697e	199.41208
77	0x423ef200	47.73633
78	0x44f69f55	1972.9791
79	0xc48ccdd9	-1126.4327
80	0x80000004	-6e-45
81	0x00000000	0.0
82	0x00000000	0.0
83	0xc5996def	-4909.7417
84	0xc398569a	-304.67657
85	0x00000004	6e-45
86	0x00000000	0.0
87	0xc6737c35	-15583.052
88	0x00000004	6e-45
89	0xc4fc4f98	-2018.4873
90	0x00000004	6e-45
91	0x00000000	0.0
92	0xc6494ec0	-12883.6875
93	0x00000000	0.0
94	0x00000000	0.0
95	0x00000004	6e-45
96	0x00000000	0.0
97	0x465e4dcc	14227.449
98	0x47377a1b	46970.105
99	0x00000000	0.0
100	0x00000000	0.0
101	0x44e78910	1852.2832
102	0xc5651b5e	-3665.7104
103	0xc4d84fa6	-1730.489
104	0x00000000	0.0
105	0x00000000	0.0
106	0x00000000	0.0
107	0x00000000	0.0
108	0x00000000	0.0
109	0x00000004	6e-45
110	0x00000000	0.0
111	0x00000000	0.0
112	0x103a3fb6	3.6731113e-29
113	0x45459212	3161.1294
114	0xc623a6f7	-10473.741
115	0x00000000	0.0
116	0x00000000	0.0
117	0x00000004	6e-45
118	0x00000000	0.0
119	0x00000000	0.0
120	0x00000000	0.0
121	0x00000000	0.0
122	0x00000000	0.0
123	0x468166fb	16563.49
124	0x00000000	0.0
125	0x4604bbe9	8494.978
126	0x00000004	6e-45
127	0xc4cedc03	-1654.8754
128	0x1f0f8b38	3.0396587e-20
129	0x00000004	6e-45
130	0x00000004	6e-45
131	0x00000000	0.0
132	0x00000000	0.0
133	0xc4ffb240	-2045.5703
134	0x44fe8699	2036.2062
135	0x00000004	6e-45
136	0x00000000	0.0
137	0x00000004	6e-45
138	0x00000000	0.0
139	0xc3a659fc	-332.703
140	0x00000004	6e-45
141	0x00000000	0.0
142	0x00000000	0.0
143	0x00000000	0.0
144	0x00000000	0.0
145	0x00000004	6e-45
146	0x00000000	0.0
147	0x470db6fd	36278.99
148	0x473a289f	47656.62
149	0x00000000	0.0
150	0x43eefb72	477.96442
151	0x44fe686b	2035.2631
152	0xc57c9289	-4041.1584
153	0x00000000	0.0
154	0xc5988f20	-4881.8906
155	0x439ceb01	313.83597
156	0x00000000	0.0
157	0x00000000	0.0
158	0x00000004	6e-45
159	0x00000004	6e-45
160	0xc3474ae3	-199.29253
161	0x00000000	0.0
162	0x00000004	6e-45
163	0x00000000	0.0
164	0x00000004	6e-45
165	0xc249e5af	-50.4743
166	0x00000000	0.0
167	0x00000004	6e-45
168	0x00000000	0.0
169	0x00000000	0.0
170	0xc2beb27c	-95.3486
171	0x00000000	0.0
172	0x47a713a7	85543.305
173	0xc6a03fde	-20511.934
174	0x00000000	0.0
175	0x00000004	6e-45
176	0xc5668820	-3688.5078
177	0x45be97b4	6098.963
178	0xc50d0c4e	-2256.769
179	0x45e06fc0	7181.9688
180	0xc40802ca	-544.0436
181	0x00000000	0.0
182	0x00000000	0.0
183	0x44938f8a	1180.4856
184	0x00000000	0.0
185	0x438212ec	260.14783
186	0x00000000	0.0
187	0xc60d2c67	-9035.101
188	0x00000004	6e-45
189	0x00000004	6e-45
190	0xc3057334	-133.45001
191	0x00000000	0.0
192	0xc6d96a5d	-27829.182
193	0x00000000	0.0
194	0x00000000	0.0
195	0x00000000	0.0
196	0x00000000	0.0
197	0x00000004	6e-45
198	0x131498a2	1.875548e-27
199	0x00000000	0.0
200	0x00000004	6e-45
201	0xc4655a39	-917.4097
202	0x44af2021	1401.004
203	0xc4536afb	-845.6716
204	0x44437c77	781.94476
205	0x00000004	6e-45
206	0x00000000	0.0
207	0x00000000	0.0
208	0xc5d791ed	-6898.2407
209	0xc535cede	-2908.9292
210	0x00000004	6e-45
211	0x00000000	0.0
212	0xc6b0e770	-22643.719
213	0x00000004	6e-45
214	0x00000004	6e-45
215	0x00000004	6e-45
216	0x00000000	0.0
217	0xc6cebf90	-26463.781
218	0x00000000	0.0
219	0x00000000	0.0
220	0x3f58e5e4	0.84725785
221	0x00000000	0.0
222	0xc6cfc584	-26594.758
223	0x47599bdb	55707.855
224	0x00000000	0.0
225	0x45d16bd3	6701.478
226	0x44856546	1067.1648
227	0xc4311685	-708.35187
228	0x45ac7361	5518.4224
229	0xc518b733	-2443.45
230	0x00000004	6e-45
231	0x00000000	0.0
232	0x00000000	0.0
233	0xc53ac23f	-2988.1404
234	0x44ab482a	1370.2551
235	0x00000004	6e-45
236	0x00000000	0.0
237	0x00000004	6e-45
238	0x458839f2	4359.243
239	0xc472d2a0	-971.291
240	0x00000004	6e-45
241	0x00000000	0.0
242	0xc586e24b	-4316.2866
243	0x00000000	0.0
244	0x00000000	0.0
245	0x00000004	6e-45
246	0x00000000	0.0
247	0x4723864c	41862.297
248	0x474323a4	49955.64
249	0x00000000	0.0
250	0x00000004	6e-45
251	0x00000000	0.0
252	0x00000000	0.0
253	0x00000004	6e-45
254	0x00000000	0.0
255	0x00000000	0.0

exp_avg_sq f4 [32, 25]
0	0x4ccd402e	1.0761048e+08
1	0x4d0df1cc	1.4883962e+08
2	0x00000000	0.0
3	0x4df72a2b	5.1834198e+08
4	0x00000000	0.0
5	0x00000000	0.0
6	0x00000000	0.0
7	0x00000000	0.0
8	0x458e97f2	4562.993
9	0x4ecf9a7e	1.7415043e+09
10	0x4829c5da	173847.4
11	0x00000000	0.0
12	0x00000000	0.0
13	0x00000000	0.0
14	0x00000000	0.0
15	0x4acec8d8	6.775916e+06
16	0x00000000	0.0
17	0x00000000	0.0
18	0x00000000	0.0
19	0x00000000	0.0
20	0x4a77bf8f	4.0591078e+06
21	0x00000000	0.0
22	0x51923442	7.8492746e+10
23	0x5179bbe2	6.703744e+10
24	0x00000000	0.0
25	0x4c2ab3da	4.474865e+07
26	0x4cdbce5d	1.15241704e+08
27	0x4d6c3046	2.4766166e+08
28	0x41b3afb9	22.460802
29	0x4da392aa	3.4303725e+08
30	0x4b8bc6ec	1.8320856e+07
31	0x00000000	0.0
32	0x00000000	0.0
33	0x468de253	18161.162
34	0x437eae42	254.6807
35	0x4aa5468a	5.415749e+06
36	0x00000000	0.0
37	0x4a570d98	3.52343e+06
38	0x472309bf	41737.746
39	0x4e926c80	1.2282921e+09
40	0x4a3321de	2.9349035e+06
41	0x00000000	0.0
42	0x50168eca	1.0103761e+10
43	0x00000000	0.0
44	0x00000000	0.0
45	0x49b0f870	1.449742e+06
46	0x00000000	0.0
47	0x51203a61	4.3010888e+10
48	0x513384c9	4.818918e+10
49	0x00000000	0.0
50	0x40858ec1	4.173676
51	0x43a2a898	325.31714
52	0x00000000	0.0
53	0x4e394cfc	7.7720755e+08
54	0x4e02a72f	5.4799866e+08
55	0x4c0a7f48	3.630621e+07
56	0x00000000	0.0
57	0x00000000	0.0
58	0x48ad2e97	354676.72
59	0x4e7c3492	1.0578259e+09
60	0x00000000	0.0
61	0x00000000	0.0
62	0x4fd523ca	7.151785e+09
63	0x4605990f	8550.265
64	0x4edaa61e	1.8341599e+09
65	0x4a728e5e	3.9740395e+06
66	0x00000000	0.0
67	0x48f28dba	496749.8
68	0x00000000	0.0
69	0x00000000	0.0
70	0x4a503ad9	3.4116382e+06
71	0x00000000	0.0
72	0x00000000	0.0
73	0x00000000	0.0
74	0x00000000	0.0
75	0x4429a4a3	678.57245
76	0x4c23813d	4.2861812e+07
77	0x4c905379	7.5668424e+07
78	0x4d10195e	1.5109885e+08
79	0x4d5fcf86	2.3468246e+08
80	0x43a707e4	334.06165
81	0x00000000	0.0
82	0x00000000	0.0
83	0x4df8fbbb	5.2215587e+08
84	0x4dfcd9af	5.3026557e+08
85	0x43bcf374	377.90198
86	0x00000000	0.0
87	0x4f865159	4.5069563e+09
88	0x460fa67e	9193.623
89	0x4e2cbd8b	7.2452576e+08
90	0x449facc1	1277.3986
91	0x00000000	0.0
92	0x5008c8d6	9.179453e+09
93	0x00000000	0.0
94	0x00000000	0.0
95	0x42dd17de	110.546616
96	0x00000000	0.0
97	0x50762cc0	1.6520511e+10
98	0x50879697	1.8198346e+10
99	0x00000000	0.0
100	0x00000000	0.0
101	0x4d4960bf	2.1116005e+08
102	0x4dd9dc03	4.5688432e+08
103	0x4e488efb	8.412034e+08
104	0x00000000	0.0
105	0x00000000	0.0
106	0x00000000	0.0
107	0x00000000	0.0
108	0x00000000	0.0
109	0x471ed3bf	40659.746
110	0x00000000	0.0
111	0x00000000	0.0
112	0x4e57b2c1	9.0470406e+08
113	0x4f268d5e	2.7942825e+09
114	0x4f0f11cb	2.400308e+09
115	0x00000000	0.0
116	0x00000000	0.0
117	0x4a8f5beb	4.6975895e+06
118	0x00000000	0.0
119	0x00000000	0.0
120	0x00000000	0.0
121	0x00000000	0.0
122	0x00000000	0.0
123	0x51a55c81	8.8777695e+10
124	0x00000000	0.0
125	0x4ce3e8d5	1.19490216e+08
126	0x47de8bf7	113943.93
127	0x4db6bc5f	3.832248e+08
128	0x4cef0e3a	1.2533397e+08
129	0x48231eab	167034.67
130	0x48116999	148902.39
131	0x00000000	0.0
132	0x00000000	0.0
133	0x4e3ce32d	7.922512e+08
134	0x4e14703c	6.2259584e+08
135	0x417edc33	15.92876
136	0x00000000	0.0
137	0x4d13c2d1	1.5493864e+08
138	0x00000000	0.0
139	0x4e86be0b	1.1303008e+09
140	0x464da0fb	13160.245
141	0x00000000	0.0
142	0x00000000	0.0
143	0x00000000	0.0
144	0x00000000	0.0
145	0x4299216d	76.565285
146	0x00000000	0.0
147	0x50e306d0	3.0470996e+10
148	0x51716883	6.4802533e+10
149	0x00000000	0.0
150	0x4bc1ad0c	2.5385496e+07
151	0x4d2013d7	1.6785342e+08
152	0x4db0c36f	3.7069974e+08
153	0x00000000	0.0
154	0x4de54c75	4.8087414e+08
155	0x4b5170a5	1.3725861e+07
156	0x00000000	0.0
157	0x00000000	0.0
158	0x42c55e8e	98.68468
159	0x484282c4	199179.06
160	0x4a8a56f0	4.533112e+06
161	0x00000000	0.0
162	0x480b5746	142685.1
163	0x00000000	0.0
164	0x403634bf	2.8469694
165	0x4a048cfc	2.171711e+06
166	0x00000000	0.0
167	0x460bc1bc	8944.434
168	0x00000000	0.0
169	0x00000000	0.0
170	0x49fbf760	2.064108e+06
171	0x00000000	0.0
172	0x512d354d	4.6495224e+10
173	0x51726717	6.5069478e+10
174	0x00000000	0.0
175	0x4253ef42	52.98365
176	0x4dd09634	4.3743808e+08
177	0x4e68352c	9.739497e+08
178	0x4ec3d1c3	1.642652e+09
179	0x4e8bf501	1.1740448e+09
180	0x4c197b86	4.023452e+07
181	0x00000000	0.0
182	0x00000000	0.0
183	0x4f56d283	3.6041203e+09
184	0x00000000	0.0
185	0x4b665449	1.5094857e+07
186	0x00000000	0.0
187	0x50922bc5	1.9618736e+10
188	0x4b2cebc4	1.1332548e+07
189	0x47f09b66	123190.8
190	0x4a922aff	4.7896315e+06
191	0x00000000	0.0
192	0x517aea9b	6.7354866e+10
193	0x00000000	0.0
194	0x00000000	0.0
195	0x00000000	0.0
196	0x00000000	0.0
197	0x49257652	677733.1
198	0x50fdb8fc	3.405407e+10
199	0x00000000	0.0
200	0x4753c9ff	54217.996
201	0x4c909bb0	7.581632e+07
202	0x4d2392f9	1.7151989e+08
203	0x4db51c90	3.798185e+08
204	0x4e06f68f	5.6607635e+08
205	0x4564ce38	3660.8887
206	0x00000000	0.0
207	0x00000000	0.0
208	0x4eb140c9	1.4869065e+09
209	0x4e9cf4c3	1.3166432e+09
210	0x45445592	3141.3481
211	0x00000000	0.0
212	0x502cc4ae	1.1594283e+10
213	0x45b13440	5670.5312
214	0x45b81217	5890.261
215	0x469a83c2	19777.879
216	0x00000000	0.0
217	0x50b091fb	2.3698856e+10
218	0x00000000	0.0
219	0x00000000	0.0
220	0x4aadf466	5.700147e+06
221	0x00000000	0.0
222	0x50fef332	3.4218807e+10
223	0x50e6ed0e	3.0994362e+10
224	0x00000000	0.0
225	0x4c8f7a88	7.522413e+07
226	0x4cf2a78a	1.2722082e+08
227	0x4d4cc1b5	2.1470293e+08
228	0x4d8f57a9	3.0061085e+08
229	0x4d82a21a	2.739577e+08
230	0x440fd117	575.267
231	0x00000000	0.0
232	0x00000000	0.0
233	0x4df5bc85	5.153466e+08
234	0x4dd5693c	4.4755546e+08
235	0x45e0ae6b	7189.8022
236	0x00000000	0.0
237	0x4847d610	204632.25
238	0x4e82f2c4	1.098474e+09
239	0x4e3399b9	7.53299e+08
240	0x440f2204	572.5315
241	0x00000000	0.0
242	0x50268830	1.1175772e+10
243	0x00000000	0.0
244	0x00000000	0.0
245	0x43c09c7e	385.2226
246	0x00000000	0.0
247	0x509f64db	2.1393496e+10
248	0x512ba92a	4.6079844e+10
249	0x00000000	0.0
250	0x40dd63f0	6.9184494
251	0x00000000	0.0
252	0x00000000	0.0
253	0x41b10b39	22.13048
254	0x00000000	0.0
255	0x00000000	0.0

exp_avg f4 [32]
0	0x482303f2	166927.78
1	0x47bbca30	96148.375
2	0x45f0fa6a	7711.302
3	0x46cfbf32	26591.598
4	0x45b2579a	5706.95
5	0x47b0a0d3	90433.65
6	0x4764de42	58590.258
7	0xc6e0bafe	-28765.496
8	0xc6e589b7	-29380.857
9	0x47c2277d	99406.98
10	0x00000004	6e-45
11	0xc5023342	-2083.2036
12	0x00000004	6e-45
13	0x4569c140	3740.0781
14	0x46b902a0	23681.312
15	0xc6d7dbfe	-27629.996
16	0x48009f9d	131710.45
17	0x475dab32	56747.195
18	0xc6a3a39d	-20945.807
19	0xc487c815	-1086.2526
20	0xc7439754	-50071.33
21	0x464d49b8	13138.43
22	0x45e0e605	7196.7524
23	0x47baa504	95562.03
24	0x47c48771	100622.88
25	0x47035c37	33628.215
26	0xc70d2c69	-36140.41
27	0x4710fa4e	37114.305
28	0x46315578	11349.367
29	0x4700e5d2	32997.82
30	0x42bd0a0a	94.51961
31	0xc6ad3a23	-22173.068

exp_avg_sq f4 [32]
0	0x51f775d0	1.3285419e+11
1	0x51b10c3b	9.50518e+10
2	0x501f9f68	1.0712097e+10
3	0x5125ab3c	4.4471402e+10
4	0x51b3a168	9.643839e+10
5	0x51addd92	9.3343334e+10
6	0x51c64685	1.0644833e+11
7	0x51edc9de	1.2766175e+11
8	0x51b87eeb	9.905041e+10
9	0x518c4d2a	7.532375e+10
10	0x43a3351f	326.415
11	0x4e02682a	5.4696614e+08
12	0x42ebdc1f	117.929924
13	0x4f9a5c72	5.1794995e+09
14	0x500e8610	9.564602e+09
15	0x513f8591	5.1411227e+10
16	0x51a806b1	9.020835e+10
17	0x51eb7da7	1.2642818e+11
18	0x5019be5d	1.0317559e+10
19	0x4c7cbf6f	6.6256316e+07
20	0x502e0bd3	1.1680042e+10
21	0x4fa4a444	5.5244575e+09
22	0x4fe7edbe	7.782235e+09
23	0x5190cb8e	7.77363e+10
24	0x512c5836	4.6263394e+10
25	0x51506c69	5.594825e+10
26	0x512cd1d3	4.6390915e+10
27	0x51851eee	7.1468696e+10
28	0x51c20d54	1.0418091e+11
29	0x510a192e	3.7070496e+10
30	0x51871c49	7.253689e+10
31	0x515d7c2d	5.9454444e+10

exp_avg f4 [5, 32]
0	0x470ecc84	36556.516
1	0x46e04ee7	28711.451
2	0xc64a63d9	-12952.962
3	0xc5da74ef	-6990.6167
4	0x47364f94	46671.58
5	0xc6c4b281	-25177.252
6	0x45f70805	7905.0024
7	0xc6ccbe0b	-26207.021
8	0x461eb3c8	10156.945
9	0x45ce2213	6596.2593
10	0x80000004	-6e-45
11	0x44f0456b	1922.1693
12	0x80000004	-6e-45
13	0x4560b465	3595.2747
14	0x466ff507	15357.257
15	0x475037b6	53303.71
16	0xc63ec260	-12208.594
17	0x45c890d2	6418.1025
18	0x449fdc5b	1278.8861
19	0x442b5e08	685.46924
20	0xc603398a	-8398.385
21	0xc5cd736b	-6574.4272
22	0xc5d18176	-6704.1826
23	0xc66acfac	-15027.918
24	0xc5772dd0	-3954.8633
25	0xc650c00f	-13360.015
26	0xc6408e9e	-12323.654
27	0xc60f660c	-9177.512
28	0xc5016c83	-2070.782
29	0xc6589754	-13861.832
30	0xc7014f43	-33103.26
31	0x47425f62	49759.383
32	0x47c28a98	99605.19
33	0x47bc69e2	96467.766
34	0xc63d694e	-12122.326
35	0x48036109	134532.14
36	0x46c18413	24770.037
37	0x47cca202	104772.016
38	0x47d7827c	110340.97
39	0xc67029e7	-15370.476
40	0x47665441	58964.254
41	0x480a91ce	141895.22
42	0x80000004	-6e-45
43	0xc1027339	-8.153131
44	0x00000004	6e-45
45	0xc58aef01	-4445.8755
46	0x45ef90a9	7666.0825
47	0x4701aede	33198.867
48	0x48074f18	138556.38
49	0xc54b51f4	-3253.122
50	0x45a4e72e	5276.8975
51	0xc3a2450f	-324.53952
52	0x4694cc58	19046.172
53	0xc61967be	-9817.936
54	0x4454bd29	850.9556
55	0x47e3baa4	116597.28
56	0x478d1d71	72250.88
57	0x47596f02	55663.008
58	0x4529c893	2716.536
59	0xc5be90e3	-6098.111
60	0x45baafe1	5973.985
61	0xc5c47343	-6286.4077
62	0x4781f3d5	66535.664
63	0x46a763c9	21425.893
64	0xc6c024c5	-24594.385
65	0xc69da9da	-20180.926
66	0xc632dae2	-11446.721
67	0x44c85b85	1602.86
68	0xc6eccf32	-30311.598
69	0x46a75e7a	21423.238
70	0xc655d1f4	-13684.488
71	0xc5b1866a	-5680.802
72	0xc6d5f115	-27384.541
73	0xc5922830	-4677.0234
74	0x00000004	6e-45
75	0xc434e9f7	-723.6557
76	0x80000004	-6e-45
77	0xc589d10c	-4410.131
78	0xc6402412	-12297.018
79	0xc72d095f	-44297.37
80	0x45fd2ace	8101.3506
81	0xc5bd08bf	-6049.0933
82	0xc62db7f3	-11117.987
83	0x42702877	60.039516
84	0x45fefe11	8159.7583
85	0xc6199911	-9830.267
86	0x4527355b	2675.3347
87	0x4628c875	10802.114
88	0x45fa711e	8014.1396
89	0x45e547ba	7336.966
90	0x45ca8a66	6481.3
91	0xc5db2c26	-7013.5186
92	0xc6b10fb4	-22663.852
93	0xc595b914	-4791.135
94	0x46a48083	21056.256
95	0xc73ab357	-47795.34
96	0xc636a03f	-11688.062
97	0xc5a8ae7c	-5397.8105
98	0x46eb649e	30130.309
99	0x472ee21f	44770.12
100	0xc69b2a27	-19861.076
101	0x4692558b	18730.771
102	0x45276cdf	2678.8044
103	0x475a7d11	55933.066
104	0x47527ed7	53886.84
105	0x470af188	35569.53
106	0x00000004	6e-45
107	0xc34eda0f	-206.85179
108	0x00000004	6e-45
109	0x45687709	3719.4397
110	0xc527a42c	-2682.2607
111	0xc6942e07	-18967.014
112	0x46c6b754	25435.664
113	0x4306a0a1	134.62746
114	0x44fc3f80	2017.9844
115	0x4382f14c	261.88513
116	0x4643730b	12508.761
117	0x46b7e5d1	23538.908
118	0x464af1a5	12988.411
119	0x46a1c915	20708.541
120	0x45d2eda8	6749.707
121	0x46689688	14885.633
122	0x46a6340a	21274.02
123	0x467a0336	16000.803
124	0x47716433	61796.2
125	0x47263502	42549.008
126	0x474dda35	52698.207
127	0xc49cb7f2	-1253.7483
128	0xc7c3139e	-99879.234
129	0xc7c2883d	-99600.48
130	0x45c7bd95	6391.6978
131	0xc829d69e	-173914.47
132	0xc6a629e2	-21268.941
133	0xc7e9e260	-119748.75
134	0xc7d17421	-107240.26
135	0xc6078b29	-8674.79
136	0xc7bac3c1	-95623.51
137	0xc82f2dfd	-179383.95
138	0x80000004	-6e-45
139	0xc475e08f	-983.5087
140	0x00000004	6e-45
141	0x44c0a930	1541.2871
142	0xc5fb607c	-8044.0605
143	0xc6b58c5f	-23238.186
144	0xc81c2333	-159884.8
145	0x452bd7af	2749.4802
146	0x451f0380	2544.2188
147	0xc42ab6af	-682.85443
148	0xc6f4a89b	-31316.303
149	0x4527bb67	2683.7126
150	0xc6194a16	-9810.521
151	0xc801f601	-133080.02
152	0xc7a239ed	-83059.85
153	0xc77c0d95	-64525.582
154	0xc68dc866	-18148.2
155	0x45c482a6	6288.331
156	0xc7281b8d	-43035.55
157	0xc6899346	-17609.637
158	0xc7d1596e	-107186.86
159	0xc6acf05f	-22136.186

exp_avg_sq f4 [5, 32]
0	0x5162fdb2	6.093243e+10
1	0x5139ec9a	4.9908654e+10
2	0x507f25e4	1.7122693e+10
3	0x51c2146d	1.0419579e+11
4	0x50ff4769	3.426296e+10
5	0x50f12980	3.236823e+10
6	0x5118edfa	4.1051726e+10
7	0x50f6b719	3.3113557e+10
8	0x51a33c4f	8.7636435e+10
9	0x51b63fb1	9.784408e+10
10	0x4096947a	4.7056246
11	0x4cad8077	9.096492e+07
12	0x3eaa5c6e	0.33273643
13	0x4e50f32c	8.7639936e+08
14	0x4f4ef87f	3.472392e+09
15	0x5121aa1e	4.339649e+10
16	0x515c4611	5.912927e+10
17	0x5023bd67	1.0988396e+10
18	0x4d975880	3.1739494e+08
19	0x4bef18a6	3.1338828e+07
20	0x4fddc545	7.441386e+09
21	0x4fab00e5	5.737925e+09
22	0x4fcfa221	6.967018e+09
23	0x51191fa6	4.110381e+10
24	0x506a420c	1.5720788e+10
25	0x50a6df16	2.2397104e+10
26	0x5036a247	1.2256353e+10
27	0x50860dd1	1.799242e+10
28	0x513948a0	4.9736712e+10
29	0x50dbbd6e	2.9492998e+10
30	0x51300898	4.725365e+10
31	0x511a2164	4.1374073e+10
32	0x51872bdd	7.256956e+10
33	0x51592817	5.829253e+10
34	0x4f9f8a54	5.3532856e+09
35	0x51d5705d	1.1458915e+11
36	0x511e5dc1	4.251111e+10
37	0x5114d744	3.995417e+10
38	0x5133be57	4.8249532e+10
39	0x506c20a7	1.5846252e+10
40	0x51a70480	8.966688e+10
41	0x51ce813f	1.1086646e+11
42	0x3fe5e51d	1.7960545
43	0x4ced0df8	1.2428486e+08
44	0x3de13d41	0.109980114
45	0x4e4221b0	8.142469e+08
46	0x4f7539dc	4.1142098e+09
47	0x5147632e	5.3522653e+10
48	0x51806799	6.893674e+10
49	0x4f69bab8	3.921328e+09
50	0x4dc50b5e	4.1323206e+08
51	0x4c111b8f	3.80391e+07
52	0x4fe2ea00	7.6139725e+09
53	0x4efbd80f	2.1126204e+09
54	0x4f92c7a9	4.925117e+09
55	0x5132845e	4.792031e+10
56	0x5089be67	1.8487654e+10
57	0x507c6f7c	1.6940659e+10
58	0x50162cf3	1.0078113e+10
59	0x4fa1aa39	5.424575e+09
60	0x511abff2	4.154033e+10
61	0x508c1314	1.8800484e+10
62	0x5121a9bd	4.339609e+10
63	0x513282e1	4.7918748e+10
64	0x514522d5	5.291831e+10
65	0x5115042f	4.000127e+10
66	0x503d6af2	1.271161e+10
67	0x51705b2f	6.4520122e+10
68	0x50eed457	3.2055146e+10
69	0x505446a5	1.4245598e+10
70	0x50cedc4b	2.7764349e+10
71	0x509c8b39	2.1010958e+10
72	0x516d2d05	6.366641e+10
73	0x5166e5d6	6.1981155e+10
74	0x3fd9747f	1.6988677
75	0x4cc6e6f3	1.0428201e+08
76	0x3e177e02	0.14794162
77	0x4e013b13	5.420331e+08
78	0x4f3a4370	3.1249818e+09
79	0x5117867d	4.0674775e+10
80	0x50e87a70	3.1202705e+10
81	0x4f831727	4.398665e+09
82	0x4da7da40	3.520123e+08
83	0x4bc90496	2.634782e+07
84	0x4f1a3c74	2.587653e+09
85	0x4f724049	4.0642993e+09
86	0x4f1c6790	2.6240328e+09
87	0x5091cf94	1.9570401e+10
88	0x4ff3d150	8.181162e+09
89	0x4fe4a1e3	7.6716293e+09
90	0x4f8744ac	4.5388493e+09
91	0x50150d1b	1.0002656e+10
92	0x50d825f7	2.9010934e+10
93	0x5035144a	1.2152023e+10
94	0x506858c3	1.5592525e+10
95	0x510fdd60	3.86184e+10
96	0x50d49b8b	2.8535708e+10
97	0x50cc0bc9	2.7386595e+10
98	0x5036ebbe	1.2275612e+10
99	0x5189c80f	7.397087e+10
100	0x50452ae3	1.3231689e+10
101	0x50e9a907	3.136135e+10
102	0x50d8f1d2	2.9117813e+10
103	0x50cd58b8	2.7561148e+10
104	0x515bbf75	5.8988122e+10
105	0x517b87c7	6.7519672e+10
106	0x3fb42427	1.4073533
107	0x4c457f5e	5.177279e+07
108	0x3e4bc392	0.19898823
109	0x4e7cf50c	1.06097946e+09
110	0x4eb748df	1.5375031e+09
111	0x507730c5	1.6588674e+10
112	0x513b0711	5.020484e+10
113	0x50349e8f	1.2121161e+10
114	0x4d996f25	3.2177475e+08
115	0x4b1ef168	1.0416488e+07
116	0x4fc6922b	6.662936e+09
117	0x4f87c88e	4.5561354e+09
118	0x4fc27f9a	6.526285e+09
119	0x510c1777	3.760557e+10
120	0x504c815b	1.3724118e+10
121	0x50b44455	2.4195017e+10
122	0x5012a45e	9.840982e+09
123	0x5069bdb0	1.5686091e+10
124	0x5113b596	3.965042e+10
125	0x50da03cb	2.9261453e+10
126	0x511458c3	3.982152e+10
127	0x507eea39	1.7107052e+10
128	0x516fa485	6.4328585e+10
129	0x5146cb42	5.336335e+10
130	0x5041133b	1.2957052e+10
131	0x51c9b8eb	1.08298854e+11
132	0x50ffeec6	3.4350707e+10
133	0x51048cd1	3.5581137e+10
134	0x5129666c	4.547299e+10
135	0x50d55908	2.8635054e+10
136	0x51a4b594	8.842763e+10
137	0x51c1b8a0	1.0400327e+11
138	0x4019a5f4	2.400754
139	0x4cb9e9c7	9.7472056e+07
140	0x3dfd14a6	0.12357454
141	0x4e5371dc	8.868636e+08
142	0x4f510305	3.506636e+09
143	0x5122975f	4.364527e+10
144	0x5175454d	6.5839354e+10
145	0x50356a82	1.2174625e+10
146	0x4dc5883f	4.1425507e+08
147	0x4bcfc29f	2.723155e+07
148	0x4fd363c2	7.0930606e+09
149	0x4f8be422	4.693968e+09
150	0x4fc2ce56	6.5366047e+09
151	0x512ba877	4.607911e+10
152	0x50828f66	1.7523487e+10
153	0x50b4386b	2.418877e+10
154	0x501c6cf3	1.0497543e+10
155	0x5073ad56	1.6352893e+10
156	0x512f3dd4	4.7041036e+10
157	0x50daa54f	2.9346134e+10
158	0x5120d304	4.317094e+10
159	0x511850f2	4.0887067e+10

exp_avg f4 [5]
0	0x45e474a6	7310.581
1	0x4899cab6	314965.7
2	0xc7142a8b	-37930.543
3	0x47e94254	119428.66
4	0xc8c527cb	-403774.34

exp_avg_sq f4 [5]
0	0x5318581a	6.543131e+11
1	0x5323158a	7.0044103e+11
2	0x52ca8847	4.3493487e+11
3	0x52df13c5	4.790547e+11
4	0x53237c40	7.0216424e+11
