Reinforcement-Learning/Math-RL-Book-Code/log/REINFORCE/REINFORCE_model_v0.pth (torch, 17602 bytes, 12 tensors)

net.0.weight f4 [32, 25]
00000000: ba21 8d3d d762 d7bd ada3 49be 2a2b 21be
00000010: 2058 29bd d8e1 06bd c2e4 f23d 6058 23be
00000020: 00f8 9c3c 70c8 a7bd 30ab 89bc e0de 3cbd
00000030: dd26 0cbe 5803 d6bc d0df e7bc 4138 093e
00000040: d493 50bd cdaa 41be a0fa 4fbd 338f 13be
00000050: 4305 aebd 80ac 843c ad15 44be 736b 49be
00000060: f19a 163e b19a a13e 06c1 6e3e e1e3 c33e
00000070: 8190 843d aeec cb3d d3d7 b0be e126 273e
00000080: 5a70 3ebe f338 183f f4eb fdbc e0be 9cbe
00000090: 55e7 253e 4fb8 df3e fa64 8fbe 4ac7 9cbe
000000a0: 7f0a afbe d0a2 cabd bcb1 483f f461 613d
000000b0: f03f ac3c 78e5 9cbe 5bfb 293e 84af 0d3f
000000c0: f9e2 353e cf13 473e 24b9 25be aaca 89bd
000000d0: 33b3 17be efc2 8bbe 7e06 16bd d674 6f3e
000000e0: 42f7 e73d d0f8 8a3c f451 80be 8d01 c23d
000000f0: 2e85 053f 9a52 30be 0519 89be e7ed 7f3f
00000100: cdcf 92bd 82de cdbc a781 3dbe d50b 82be
00000110: 82c9 de3d 2357 f7bd f166 173f 780f 20bd
00000120: b007 2dbd 0d7a 7cbe 4ce6 57bd dfa5 8dbe
00000130: 1d28 85be 079e 85be ed6b 9f3e 3fd4 41bd
00000140: ad8b 363e d686 02be faec 8fbd 2b15 f93e
00000150: 9698 ac3e 9269 1ebd d85c d53c 880c 17bd
00000160: dd11 5e3f b3eb ed3d a53b 763e 2c8d 82bd
00000170: 3347 9c3e 7a56 c43d d982 223e d600 833e
00000180: 4bcf 363e 5f16 76be 6c3c 85be 2037 2fbe
00000190: e8bc 4dbd 4a44 85be 5f00 b1bd 27b5 dfbd
000001a0: 3ce9 25be 708c 7d3e 0074 76b9 601f 2fbd
000001b0: b83f 89be 24c1 ea3d 532e 923d 7e72 a43d
000001c0: dd7f 85be 6317 433d a485 5cbe c28d 2c3f
000001d0: 7af8 823d 2523 33be c071 c6bc 0253 14be
000001e0: 802d 153f b9cd 443e c5ba c93d d948 88be
000001f0: 9408 483d c5e8 edbe fa25 eebe 13e9 abbe
00000200: 046d 073f b2ab 973e 8958 e2be 4a27 17be
00000210: b9b8 1c3e 4287 eb3e 46a8 5a3e 6dbf 86be
00000220: b0a2 08be 89f4 b93e f7e8 733f dd81 dd3e
00000230: 9d42 d03c 6b0c 3cbe 42f7 273f bd37 dfbd
00000240: 70d8 dd3c 7170 12be ea07 81bd 2a8d e9be
00000250: e2c4 efbe e826 ae3c 5ca4 44be 07de a4be
00000260: 0a29 83bd 3921 123f 9226 5c3e eff0 c1be
00000270: 5826 01bd f26c bb3d 1e4b 6c3f 243d 563d
00000280: fe5d acbe d911 363e 4144 653f cc3a c6be
00000290: 96de c1be 18a6 9dbe a873 7cbd 5a1d 3c3f
000002a0: 8769 4bbe ae40 f33d ff4a c2be 00b0 0d3c
000002b0: 58d2 6bbe 9f11 82be edd3 c1bd 7973 173f
000002c0: 9e87 e43e ef88 0f3f 40a2 41be 76d9 5abe
000002d0: d65c cfbe 8dc2 bfbd 304e ba3c 708b bcbe
000002e0: 97b1 88bd 1ee0 d0be 7a0f 1fbe 5cde 41be
000002f0: 0559 103e da92 823d b059 c6be 6c69 92bd
00000300: 0dfb d0be 6a3d aabd fa3e d83d 5f97 b6be
00000310: 1d24 1dbe 340f 4e3f 5238 513e e1e1 413e
00000320: d017 4cbe 59b3 58be 38a7 01be 0778 183f
00000330: 1723 2e3e d800 59be 9817 043d b906 333e
00000340: 5245 203f bacd 043e 3b10 6bbe 7670 0bbe
00000350: 2cd5 123f be81 4bbe 253c 59be 9dd0 32be
00000360: 60bb d73b 3cbe 513f 092d 1f3e a066 19bc
00000370: 0925 1abe c945 393e 417b 58be 0f13 59be
00000380: 449e 96bd 6b3c 33be 409c 003d f856 63bd
00000390: 338a 363e d863 13bd 48f6 4bbd 1097 ac3c
000003a0: 685b 78bd 985c f93c 9c92 7a3d bad3 28be
000003b0: 85e5 153e 2d47 453e 3846 48be 9230 c23d
000003c0: 80aa a93a 1273 3dbe f53c 30be b21f f53d
000003d0: 692b 063e 60fc 1cbe ddda 103e bdc5 333e
000003e0: e9e1 043e b0ba 533c bc92 693e 6d50 c23e
000003f0: a31b 813e dff3 46be 8ccf b5bd 8ce2 6e3e
0.068911985 -0.10516899 -0.19691344 -0.15739122 -0.04134381 -0.032930225 0.11860038 -0.15951681
0.019161224 -0.08192527 -0.016805261 -0.046110988 -0.136867 -0.026124641 -0.028304964 0.13400365
-0.05092223 -0.18912812 -0.050776124 -0.14410095 -0.08497097 0.016195536 -0.19148894 -0.19669895
0.14707543 0.31563333 0.2331582 0.38259795 0.064728744 0.099572524 -0.3453966 0.16323425
-0.18597546 0.594619 -0.0309963 -0.30614376 0.16201527 0.43695304 -0.28006727 -0.30620795
-0.34187695 -0.09894335 0.783962 0.055025056 0.021026582 -0.3064382 0.16599791 0.5534594
0.17762364 0.1944115 -0.16183907 -0.06728108 -0.14814453 -0.2729716 -0.036627285 0.23384413
0.113264576 0.016964346 -0.25062525 0.09472952 0.5215634 -0.1721901 -0.267769 0.99972385
-0.07168541 -0.025130514 -0.1850649 -0.25399652 0.10878278 -0.12077167 0.5914145 -0.039077252
-0.04224366 -0.24655934 -0.052709863 -0.27665612 -0.26007167 -0.26097128 0.31137028 -0.047321554
0.1782672 -0.12746748 -0.070276216 0.48648962 0.33710164 -0.0386749 0.026045248 -0.036877185
0.8674601 0.11617222 0.2404619 -0.06374583 0.3052307 0.095868066 0.15870227 0.25586575
0.17852513 -0.24031971 -0.2602266 -0.17110872 -0.050228983 -0.26028663 -0.08642649 -0.10923224
-0.16202253 0.24760604 -0.00023503602 -0.04275453 -0.26806426 0.1146262 0.07137742 0.0802965
-0.26074114 0.047629725 -0.21535355 0.67403805 0.063950494 -0.17493875 -0.024224162 -0.1448479
0.5827255 0.19219102 0.098500766 -0.26618078 0.048836306 -0.46466652 -0.4651335 -0.3357626
0.5290072 0.2962318 -0.44208172 -0.14761081 0.15304841 0.4600163 0.21353254 -0.2631792
-0.1334331 0.36319378 0.9527735 0.4326314 0.025422389 -0.18364112 0.6561166 -0.10899303
0.027080745 -0.14300705 -0.063003376 -0.45615512 -0.46829897 0.021258786 -0.19203323 -0.32200643
-0.06404312 0.57081944 0.21499088 -0.3787913 -0.031530708 0.09151639 0.9230212 0.052304402
-0.3366546 0.17780246 0.8955727 -0.38716733 -0.37865132 -0.30790782 -0.061633736 0.73482287
-0.19864474 0.11877571 -0.37947842 0.008647919 -0.23029459 -0.2540407 -0.0946425 0.5916057
0.44634718 0.5606832 -0.1890955 -0.21372017 -0.40500516 -0.093632795 0.02274236 -0.36825132
-0.066744976 -0.40795988 -0.15533248 -0.1893248 0.14096458 0.06375666 -0.387403 -0.07149014
-0.40816537 -0.08312495 0.10558887 -0.35662362 -0.15345807 0.8049195 0.2043164 0.18933822
-0.19930959 -0.21162166 -0.12661445 0.5955815 0.17005573 -0.21191728 0.032249063 0.17483033
0.62605774 0.12969103 -0.2295541 -0.13617119 0.57356524 -0.19873711 -0.2121435 -0.17462392
0.006583616 0.819309 0.15544523 -0.009362847 -0.1505319 0.18093027 -0.21140768 -0.21198677
-0.073544055 -0.17503516 0.03139901 -0.05550286 0.17826156 -0.03598389 -0.04979542 0.021068126
-0.060634047 0.03043966 0.061174974 -0.16487017 0.14638336 0.19265433 -0.19558036 0.0948192
0.001294449 -0.18500927 -0.17210753 0.11968936 0.13102497 -0.15330648 0.1414599 0.175559
0.12976803 0.012922928 0.22809881 0.37951985 0.25216398 -0.19428967 -0.08877477 0.23328608

net.0.bias f4 [32]
00000000: b20d 20be bdb6 a43e ac63 813e 7532 813e
00000010: 8181 6f3e f0eb e93e d1ea be3e f00c c63e
00000020: 6560 463e 6f0d 4abe c297 363e 52be b33e
00000030: 7b33 ae3e 7688 b33e 3dcd e73e d87b db3e
00000040: 9e7e b83e 6572 8f3e 4b4c de3e 30ed b73e
00000050: 413b d03e 2c68 a73e 8e2b 6f3e e582 c73e
00000060: 33e8 d63e 5290 c03e 132e a43e c1ec a13e
00000070: 633e c73e 8761 e13e ace2 cc3e 834b db3e
-0.15630224 0.32170668 0.25271356 0.25233808 0.23389246 0.4568782 0.37288526 0.38681746
0.19372709 -0.19731687 0.17831329 0.3510614 0.3402365 0.3506505 0.45273772 0.42867923
0.360341 0.28016964 0.43417582 0.35923147 0.40670207 0.32696664 0.23356459 0.38967052
0.4197403 0.37610108 0.32066402 0.3162594 0.38914785 0.4401972 0.40016687 0.42831048

net.2.weight f4 [5, 32]
00000000: 429d 813d b4f1 1c3f b8ab 2ebf 42d2 543d
00000010: 2d93 21bf db18 a03e fa55 8a3f 3db8 27bf
00000020: b2f7 663f 582a 01be 4765 5fbe 2fde cfbe
00000030: 00da 36bf 6fc6 343f 1688 3bbf c748 a73e
00000040: fd20 a1be ae79 8dbe f0ca 6dbe 18c0 be3d
00000050: 7f93 2c3e c8f7 02bf 21ea b23d bdb0 043f
00000060: 6444 893f e114 c13e 7ce5 543f 5b14 3d3f
00000070: 58c3 97be a017 3abf 4d75 9f3e dfa9 c23e
00000080: 5c16 0abe 16c1 083f e11f 12bf 8690 40bf
00000090: 6211 87be e473 19bf fb31 46be 9ac9 743f
000000a0: d448 94be 8863 0ebe 3370 f53d 5243 0e3e
000000b0: 8302 a2be 7afb 2abf 611a 8e3f b46d 0ebf
000000c0: 6966 623f 0d7b 2cbf e08f c73e e992 57bf
000000d0: 6c25 3c3f 7200 853e de11 d1be e2e7 e63e
000000e0: 0e7b 31be fb48 1ebf 196b 4b3d f1b8 2abf
000000f0: 0764 323f 878c 133f 3d38 0cbf f96c d5be
00000100: 807c 33bc acfe 5abf 69dc cb3e 093d 40bd
00000110: e65f 3b3f a0c3 4abe df5e ffbe 78c5 38bf
00000120: 4095 c2be 7f5d 283e 5081 833e 1df4 a53e
00000130: 8164 7f3f 388c c83e 8ea4 f4bd 6f3c 093f
00000140: abf4 cbbe 98c8 7f3f f7c2 e53e 74db 24bf
00000150: d432 2dbf a10d f33d 4c3d 7f3f fc9e bdbe
00000160: 7438 2bbf f1b9 5a3f 0cb9 f3be 2578 6c3e
00000170: 0545 42bf 62c5 353e 18e6 81be 0ca3 583f
00000180: a2da a23d 23ba e6be b7ab 393f c0cf 003f
00000190: 355c 85bb 5406 1b3f 54ea 25bf 82a3 413d
000001a0: 6464 0fbe 9a57 e53d f274 15bf 6793 01bf
000001b0: 9b6e dbbe 0d48 3bbf 4f54 8dbe 6d24 10bf
000001c0: e122 a0be ae48 adbe 68a5 07bf 9628 6f3f
000001d0: a605 e9be a17a c63d 3b21 13bf deab 0bbf
000001e0: c221 2fbf ccc3 2ebf e518 36bf 36fe 33be
000001f0: 7862 5f3d cb14 c4be e57d 623f b919 dcbe
00000200: 40aa efbb 2df0 05bf 64ab d9bd b5c5 3abe
00000210: 2788 5fbe 5fc7 d9bd 19ad c5be 373a e7be
00000220: 02f3 7cbe 2cad 6c3d 0053 fa3d 9851 fc3d
00000230: 7ac5 5cbd 499b 3d3d d7f5 c5be dbba e33d
00000240: 8f77 4dbe e269 203d 2e16 763d 3a33 a2be
00000250: 9653 babe e1a5 1d3e 7dea d8bd b9ce a7be
00000260: 5bde 94be ac7c 57be ffa4 b0be 99dc c6be
00000270: 44b4 6fbe 15fa b9bd 35eb 05bf 536a 1cbe
0.06328823 0.6130631 -0.6823077 0.05195833 -0.631152 0.31268963 1.0807488 -0.655155
0.90221703 -0.12613809 -0.21815978 -0.405992 -0.7142639 0.70615286 -0.73254526 0.32672712
-0.3147048 -0.27631897 -0.23221946 0.09313983 0.1685314 -0.51159334 0.08736063 0.5183218
1.0723996 0.37711242 0.83162665 0.73859185 -0.29641223 -0.726923 0.3114418 0.38020226
-0.13485092 0.53419626 -0.57079893 -0.75220525 -0.2638045 -0.5994246 -0.19355004 0.9562012
-0.28961813 -0.13905156 0.11984291 0.13892868 -0.3164254 -0.6678997 1.11018 -0.55636144
0.88437515 -0.6737526 0.38976955 -0.8420854 0.734946 0.25976902 -0.40833944 0.45098788
-0.17332098 -0.6183011 0.049662683 -0.6668845 0.6968388 0.576363 -0.5477331 -0.41684702
-0.010954976 -0.8554485 0.39816597 -0.046933208 0.73193204 -0.19801188 -0.49877068 -0.72176313
-0.38004494 0.16441916 0.25684595 0.32412806 0.9976273 0.39169478 -0.11945449 0.5360784
-0.39835104 0.99915457 0.4487531 -0.6439736 -0.6765568 0.11867834 0.99702907 -0.37035358
-0.66883016 0.85439974 -0.47602117 0.23092707 -0.75886565 0.17751077 -0.2537086 0.8462379
0.07951857 -0.45063886 0.7252764 0.50317 -0.00406983 0.6055653 -0.6481068 0.047275074
-0.1400314 0.11198349 -0.5838157 -0.50615543 -0.42857823 -0.73156816 -0.27603385 -0.5630558
-0.3127661 -0.33844513 -0.52986765 0.93421304 -0.45512122 0.09691358 -0.5747258 -0.54559124
-0.68410885 -0.6826751 -0.71131736 -0.17577443 0.054537266 -0.38297114 0.8847335 -0.42988375
-0.0073139966 -0.52319604 -0.10628393 -0.18239482 -0.21829282 -0.1063373 -0.38608626 -0.45161602
-0.24702075 0.057782337 0.12222862 0.1232025 -0.053899266 0.04629067 -0.38664123 0.11119624
-0.20065139 0.039163478 0.060079746 -0.31679708 -0.36391896 0.15395309 -0.105916 -0.32774904
-0.29075894 -0.21043652 -0.34500882 -0.38840178 -0.2340861 -0.090809025 -0.5231202 -0.15274934

net.2.bias f4 [5]
00000000: d0e3 c0bc 7108 ebbd d192 ddbd 255c 1e3c
00000010: 0888 a73d
-0.02354613 -0.114762194 -0.10819019 0.009665524 0.08180243

exp_avg f4 [32, 25]
00000000: 0000 0000 0000 0000 0000 0000 0000 0000
00000010: 0000 0000 0000 0000 0000 0000 0000 0000
00000020: 0000 0000 0000 0000 0000 0000 0000 0000
00000030: 0000 0000 0000 0000 0000 0000 0000 0000
00000040: 0000 0000 0000 0000 0000 0000 0000 0000
00000050: 0000 0000 0000 0000 0000 0000 0000 0000
00000060: 0000 0000 a171 29bd e7cd e3bd ea1d 8dbd
00000070: 7080 97bc 0400 0080 0400 0000 0000 0000
00000080: 0000 0000 10c5 bbbb 0400 0080 29ee 243d
00000090: 0000 0000 dde0 bdbc 3666 5a3e 0400 0000
000000a0: 0400 0000 0000 0000 c29d b7bb 0000 0000
000000b0: 0000 0000 ff78 663c 0000 0000 179c 4abd
000000c0: 9a13 c2bd 0000 0000 1e3a d63c d577 8d3d
000000d0: 5950 313d b386 381d 0400 0000 d623 92bc
000000e0: 0000 0000 0000 0000 1524 933b 0400 0000
000000f0: cbf7 07bd 0000 0000 dd1b 851f 41b1 c9be
00000100: 0400 0080 bb62 fdbc 0000 0000 9271 9429
00000110: 0000 0000 0000 0000 bcd8 49bc 0000 0000
00000120: 9d35 0d3d bfb0 7c3d 0000 0000 9a84 0014
00000130: b7b8 e027 5259 b526 77b7 e0ba 0400 0080
00000140: 2c49 d4ba 0000 0000 0000 0000 862b 15ba
00000150: 0400 0000 8514 89b9 0000 0000 2c23 dabb
00000160: cf1e 44be 0400 0080 710e 63ba 0000 0000
00000170: 8d21 5bba 0000 0000 0000 0000 6eb5 71ba
00000180: 0000 0000 d90f 2f3d 1ed7 0e28 0000 0000
00000190: c5d3 133c 0400 0000 fb2a 04bb f3aa 833c
000001a0: 0400 0000 a5e7 d7bc 0000 0000 0000 0000
000001b0: 0400 0000 0400 0000 6bcb 41bd 0000 0000
000001c0: 0400 0000 5d7d cabd 0400 0000 faf1 39bd
000001d0: 0000 0000 15d7 973b 0000 0000 0000 0000
000001e0: 3f8b a4bc 0000 0000 0f6a 893c 0400 0000
000001f0: 0000 0000 0850 290d 35df 0e0d 68b4 e63d
00000200: c5c7 d8bb 0400 0080 4ed5 b83b 0000 0000
00000210: 0000 0000 61e5 03bb 0400 0080 b40b 573c
00000220: 0000 0000 2c4d 55bc 9018 34be 0400 0080
00000230: 3b72 423c 0000 0000 7a69 13bb 0000 0000
00000240: 0000 0000 28f1 943b 0000 0000 86e4 163d
00000250: 8fbc 8f08 0000 0000 4c7d 803c 0d55 a83c
00000260: eda8 ad3d 60ae b7bc 0400 0080 0091 9036
00000270: 0000 0000 0000 0000 c92b f5bb 0400 0080
00000280: e0bb 1a3d 0000 0000 8c0b 17bd b237 2c13
00000290: 0400 0000 5299 073d 0000 0000 430e 05bc
000002a0: 0000 0000 0000 0000 6e18 f935 0000 0000
000002b0: 642b 8b3b f4a2 b83d 0000 0000 f14e aebd
000002c0: e006 4cbe 2bf9 62be 7bfb 1e3b 0400 0000
000002d0: c6f1 3a0c 0000 0000 0000 0000 ac50 bc3a
000002e0: 0400 0000 c019 0000 0000 0000 3dbc 723c
000002f0: 3325 66be 0400 0000 f5b8 d627 0000 0000
00000300: 6b06 0000 0000 0000 0000 0000 5108 c33b
00000310: 0000 0000 e87f a7bd 23ce 89be 0000 0000
00000320: 4860 ec31 4ed6 900e 4d91 c73d a31f 92bc
00000330: 0400 0080 c283 730a 0000 0000 0000 0000
00000340: 96d3 bfbb 0400 0080 0400 0000 0000 0000
00000350: 2dfd f4bc 72c1 bb34 0400 0000 e568 e33c
00000360: 0000 0000 ac4a d0bb 0000 0000 0000 0000
00000370: 6d6f 183c 0000 0000 0400 0000 0400 0000
00000380: 0000 0000 0000 0000 0000 0000 0000 0000
00000390: 0000 0000 0000 0000 0000 0000 0000 0000
000003a0: 0000 0000 0000 0000 0000 0000 0000 0000
000003b0: 0000 0000 0000 0000 0000 0000 0000 0000
000003c0: 0000 0000 0000 0000 0000 0000 0000 0000
000003d0: 0000 0000 0000 0000 0000 0000 0000 0000
000003e0: 0000 0000 0000 0000 1f05 06bc 092e 4fbc
000003f0: a288 05bd 0000 0000 0400 0000 6b94 debb
0.0 0.0 0.0 0.0 0.0 0.0 0.0 0.0
0.0 0.0 0.0 0.0 0.0 0.0 0.0 0.0
0.0 0.0 0.0 0.0 0.0 0.0 0.0 0.0
0.0 -0.04136813 -0.11123257 -0.06890471 -0.018493861 -6e-45 6e-45 0.0
0.0 -0.005730279 -6e-45 0.04026619 0.0 -0.023178512 0.21328053 6e-45
6e-45 0.0 -0.005603523 0.0 0.0 0.014066934 0.0 -0.049465265
-0.09476395 0.0 0.02615076 0.06907622 0.043289516 2.4421835e-21 6e-45 -0.017839354
0.0 0.0 0.0044903853 6e-45 -0.0331953 0.0 5.637379e-20 -0.39393046
-6e-45 -0.030930867 0.0 6.5922216e-14 0.0 0.0 -0.01231974 0.0
0.034474958 0.061691996 0.0 6.4884996e-27 6.2372758e-15 1.2583608e-15 -0.001714452 -6e-45
-0.0016196123 0.0 0.0 -0.00056903844 6e-45 -0.00026145965 0.0 -0.006657025
-0.19152378 -6e-45 -0.0008661515 0.0 -0.00083591865 0.0 0.0 -0.00092204555
0.0 0.042739723 7.92923e-15 0.0 0.009022658 6e-45 -0.002016722 0.016072726
6e-45 -0.026355574 0.0 0.0 6e-45 6e-45 -0.047313135 0.0
6e-45 -0.098871924 6e-45 -0.045396782 0.0 0.004633794 0.0 0.0
-0.020085929 0.0 0.016774205 6e-45 0.0 5.217348e-31 4.4025804e-31 0.112648785
-0.0066156113 -6e-45 0.0056406623 0.0 0.0 -0.0020125734 -6e-45 0.013125349
0.0 -0.0130188875 -0.17587495 -6e-45 0.011868055 0.0 -0.002249329 0.0
0.0 0.0045453496 0.0 0.03683903 8.650829e-34 0.0 0.015684746 0.020548368
0.08479486 -0.022422016 -6e-45 4.3084146e-06 0.0 0.0 -0.0074820262 -6e-45
0.037776828 0.0 -0.036876246 2.1736912e-27 6e-45 0.033105202 0.0 -0.008121076
0.0 0.0 1.8559056e-06 0.0 0.004247116 0.09015456 0.0 -0.08511151
-0.19924498 -0.22165363 0.002425878 6e-45 1.4401675e-31 0.0 0.0 0.0014367304
6e-45 9.237e-42 0.0 0.014815387 -0.22475128 6e-45 5.9597463e-15 0.0
2.302e-42 0.0 0.0 0.005951919 0.0 -0.08178693 -0.26915082 0.0
6.87945e-09 3.570511e-30 0.09744511 -0.017837351 -6e-45 1.1724805e-32 0.0 0.0
-0.0058540804 -6e-45 6e-45 0.0 -0.02990588 3.4972214e-07 6e-45 0.027759979
0.0 -0.006356558 0.0 0.0 0.00930391 0.0 6e-45 6e-45
0.0 0.0 0.0 0.0 0.0 0.0 0.0 0.0
0.0 0.0 0.0 0.0 0.0 0.0 0.0 0.0
0.0 0.0 0.0 0.0 0.0 0.0 0.0 0.0
0.0 0.0 -0.008179932 -0.012645253 -0.032601006 0.0 6e-45 -0.006792595

exp_avg_sq f4 [32, 25]
00000000: 0000 0000 0000 0000 0000 0000 0000 0000
00000010: 0000 0000 0000 0000 0000 0000 0000 0000
00000020: 0000 0000 0000 0000 0000 0000 0000 0000
00000030: 0000 0000 0000 0000 0000 0000 0000 0000
00000040: 0000 0000 0000 0000 0000 0000 0000 0000
00000050: 0000 0000 0000 0000 0000 0000 0000 0000
00000060: 0000 0000 85fb f93f 65fa a740 e084 4740
00000070: e8ac ac3f 39ee db3b a0ad 1437 0000 0000
00000080: 0000 0000 c83c 5e3e c9fe ce3d 2504 903f
00000090: 0000 0000 4f26 1b40 cf3b 3641 5c4b 1b3e
000000a0: b15c fc37 0000 0000 0334 8e3e 0000 0000
000000b0: 0000 0000 26a2 243e 0000 0000 6730 8f40
000000c0: b779 f040 0000 0000 4e4b 043f 7eac 0c40
000000d0: 3a9c 7e3f 428c 2436 bbba c53b a825 af3e
000000e0: 0000 0000 0000 0000 a8ce 883d 7168 ef3d
000000f0: 7742 353f 0000 0000 e614 3538 f185 de41
00000100: 4801 ac3d 27c1 163f 0000 0000 14fc 423d
00000110: 0000 0000 0000 0000 3619 0e3e 0000 0000
00000120: 339b 1940 2549 1f40 0000 0000 2a93 f635
00000130: 0763 9c3d 53e9 ca3a 2ccd 0f3d 7b43 df3a
00000140: f3f7 633c 0000 0000 0000 0000 0d28 883c
00000150: 3933 093c 2931 2d3c 0000 0000 019e 1c3f
00000160: b9d6 ad40 105e e03c 8eb3 1f3d 0000 0000
00000170: 2271 5d3d 0000 0000 0000 0000 d43a 573c
00000180: 0000 0000 74cd 903f 0d2c 413d 0000 0000
00000190: 59ab 363e cdfd 4b34 67c0 333f 2f6d 723f
000001a0: 208a cf3a 70e9 713f 0000 0000 0000 0000
000001b0: cdde 0837 0afc 5c3d e320 953f 0000 0000
000001c0: 06eb ed3b 739e ea40 44be 9b3d 23ed 863f
000001d0: 0000 0000 36c1 353e 0000 0000 0000 0000
000001e0: cdee 993e 0000 0000 ab21 0140 6295 1e37
000001f0: 0000 0000 5167 ba3c 57f1 0a3e 676a 1e40
00000200: 759b 203e 7a82 733b 2640 e63c 0000 0000
00000210: 0000 0000 8b15 093d bf24 293c 4b19 003e
00000220: 0000 0000 3edc 7c3f 3ae8 ad40 e866 c83c
00000230: de03 e93d 0000 0000 133b a33d 0000 0000
00000240: 0000 0000 eb56 e13c 0000 0000 0bb7 043f
00000250: e79d 0c3b 0000 0000 99da 853e 1e2a 233f
00000260: 7944 6e40 1773 e83f 9f2c ab3c 7155 163e
00000270: 0000 0000 0000 0000 0c33 a83e c4e3 5a3e
00000280: 48e2 9d3f 0000 0000 2c31 9b40 5b73 373d
00000290: 2912 613e 0b91 773f 0000 0000 0c3a ee3e
000002a0: 0000 0000 0000 0000 907f 8f3d 0000 0000
000002b0: 58e8 9b3e d216 8441 0000 0000 8044 6940
000002c0: f88d 0a41 1cbb 3141 6256 ea3d c8ca 633c
000002d0: deab 833d 0000 0000 0000 0000 2469 903d
000002e0: f890 063d 7c47 0138 0000 0000 7c18 5340
000002f0: 51b4 2141 19fd 5e3d 89b4 ff3d 0000 0000
00000300: b101 6936 0000 0000 0000 0000 d00e 143d
00000310: 0000 0000 9b2b d240 71ec 1e42 0000 0000
00000320: e679 113e 0b74 a23e 4e58 4640 da5f 873f
00000330: 605f 2f3c 024c 6d3c 0000 0000 0000 0000
00000340: f686 293e f77b b73d 7a81 2036 0000 0000
00000350: 1d2f 3a40 8e82 dc40 020e a23d 2ee8 1e3f
00000360: 0000 0000 32fc 863e 0000 0000 0000 0000
00000370: 4c30 e13d 0000 0000 d776 3036 fdee d137
00000380: 0000 0000 0000 0000 0000 0000 0000 0000
00000390: 0000 0000 0000 0000 0000 0000 0000 0000
000003a0: 0000 0000 0000 0000 0000 0000 0000 0000
000003b0: 0000 0000 0000 0000 0000 0000 0000 0000
000003c0: 0000 0000 0000 0000 0000 0000 0000 0000
000003d0: 0000 0000 0000 0000 0000 0000 0000 0000
000003e0: 0000 0000 0000 0000 b9f2 183d 817a b93d
000003f0: 8fa2 9c3e 0000 0000 c153 ef3b 598f f83c
0.0 0.0 0.0 0.0 0.0 0.0 0.0 0.0
0.0 0.0 0.0 0.0 0.0 0.0 0.0 0.0
0.0 0.0 0.0 0.0 0.0 0.0 0.0 0.0
0.0 1.9529883 5.2493157 3.117485 1.3490267 0.006711748 8.861913e-06 0.0
0.0 0.21702874 0.1010719 1.1251265 0.0 2.4242132 11.389602 0.15165466
3.0083904e-05 0.0 0.27774057 0.0 0.0 0.1607748 0.0 4.4746585
7.514858 0.0 0.51677406 2.198028 0.9945713 2.4519545e-06 0.006034223 0.34208417
0.0 0.0 0.066800416 0.116898425 0.7080454 0.0 4.3173226e-05 27.815401
0.08398682 0.5888848 0.0 0.04760368 0.0 0.0 0.13876805 0.0
2.4000976 2.4888394 0.0 1.8371259e-06 0.076360755 0.0015480913 0.035107777 0.001703366
0.013914096 0.0 0.0 0.01662066 0.008374029 0.010570803 0.0 0.61178595
5.4324613 0.027388602 0.038989596 0.0 0.05406297 0.0 0.0 0.013136584
0.0 1.1312699 0.04716115 0.0 0.17838801 1.899818e-07 0.7021546 0.9469785
0.0015834011 0.9449682 0.0 0.0 8.1581065e-06 0.0539513 1.1650661 0.0
0.007260683 7.331842 0.0760465 1.0541118 0.0 0.17749485 0.0 0.0
0.30065003 0.0 2.01768 9.452315e-06 0.0 0.022754343 0.13568626 2.4752443
0.15684302 0.0037156628 0.02810676 0.0 0.0 0.03346781 0.010323702 0.12509649
0.0 0.9877356 5.434598 0.024463132 0.11377691 0.0 0.07970252 0.0
0.0 0.027507266 0.0 0.518418 0.0021456422 0.0 0.2614334 0.6373614
3.7229292 1.8160123 0.0208953 0.14681031 0.0 0.0 0.32851446 0.21375948
1.233468 0.0 4.8497524 0.044787746 0.21979584 0.96705693 0.0 0.4652866
0.0 0.0 0.070067525 0.0 0.30450702 16.511143 0.0 3.644806
8.65966 11.108181 0.114422575 0.013903327 0.064292654 0.0 0.0 0.07051304
0.032853097 3.082257e-05 0.0 3.2983694 10.106523 0.05444059 0.12485606 0.0
3.472069e-06 0.0 0.0 0.03614694 0.0 6.567823 39.7309 0.0
0.14206657 0.3172916 3.0991397 1.0576127 0.0107038915 0.014483454 0.0 0.0
0.1655539 0.08959191 2.3917223e-06 0.0 2.9091256 6.890937 0.07912828 0.6207303
0.0 0.26364285 0.0 0.0 0.1099554 0.0 2.6295218e-06 2.502603e-05
0.0 0.0 0.0 0.0 0.0 0.0 0.0 0.0
0.0 0.0 0.0 0.0 0.0 0.0 0.0 0.0
0.0 0.0 0.0 0.0 0.0 0.0 0.0 0.0
0.0 0.0 0.037340853 0.09056569 0.30592772 0.0 0.0073036854 0.030341791

exp_avg f4 [32]
00000000: 0000 0000 13c1 1abe d604 7fbe 8e1f 26be
00000010: 7c2e 46be 2077 77bc 8f7d 583e 0b4e 87bf
00000020: 8db0 983d 0000 0000 ea3b f9bd bbc3 3fbe
00000030: ca70 323c 1795 d53e 3d24 7dbf 505d 823e
00000040: 57ad 23bf 01ad 72bd 6def 90be f01e b1bd
00000050: fa3c 0abf bd33 c6be e57b 3d3c 6d97 70be
00000060: 5620 173f 58fc 113f 5430 c13c 807b 803e
00000070: b90a 37bf fab0 10bf b421 c7bd d334 293d
0.0 -0.15112714 -0.24904189 -0.16222975 -0.1935367 -0.015104085 0.21141647 -1.0570692
0.074555494 0.0 -0.12169631 -0.18727009 0.010891149 0.4171531 -0.9888342 0.25461817
-0.6393637 -0.05924702 -0.28307667 -0.08648479 -0.5399929 -0.38711348 0.011565183 -0.23495264
0.59033716 0.5702567 0.023582615 0.25094223 -0.71500736 -0.56520045 -0.09723225 0.041310143

exp_avg_sq f4 [32]
00000000: 0000 0000 886d 1b42 2185 1842 4f94 eb40
00000010: c5d0 6c41 79bb 2041 4d3a fc41 e804 a642
00000020: 89fb 7a41 0000 0000 b289 2e40 d6af a940
00000030: ebe8 cd41 5f05 0242 2f43 ae42 670b 2e41
00000040: 045d 2e42 374a 3a41 1f5b 1441 5564 2242
00000050: be43 f941 eaaf 5f41 b6df 8841 6adf 6941
00000060: a170 4242 a7db f841 4353 8841 367f 5941
00000070: 9c24 2142 f34e 1142 b0ae e741 022b 4a41
0.0 38.856964 38.13001 7.361854 14.800969 10.04577 31.528467 83.00958
15.68641 0.0 2.7271543 5.3027143 25.73873 32.505245 87.13122 10.877784
43.590836 11.643119 9.272246 40.59798 31.158077 13.980448 17.109234 14.617044
48.60999 31.107252 17.040655 13.593557 40.28575 36.3271 28.960297 12.6355

exp_avg f4 [5, 32]
00000000: 0000 0000 4899 f83d 6a50 a73e f475 7d3e
00000010: 0c60 e83d 23bb 943e d004 41bc 6b26 9b3e
00000020: cc8e 09bd 0000 0000 337d c53d d250 113e
00000030: 2b70 b73d b93a 0d3d 9d33 ad3e 2389 303d
00000040: a27c 733e 8065 4f3d 8b66 433e 3ba4 a63e
00000050: 1e66 233e b715 523e 54ed 1c3d 29d0 1a3e
00000060: ca76 7c3c 45cb 1d3d f441 1e3d e476 d3bb
00000070: f456 943e 23d1 983e 8393 a03e 5cee 0f3d
00000080: 0000 0000 debb aebe 385f 1ebd 5862 9f3c
00000090: 4ad6 2fbd 2828 343c 1490 a0bd 53d0 eebe
000000a0: f187 a4ba 0000 0000 9170 3cbe 8b7a 87be
000000b0: 2adf 8dbd 9fb3 72bd 89e3 28bf e970 91bd
000000c0: 52b0 0ebf 3b72 753b 317d bebe 0df1 6bbb
000000d0: 9d52 e6be c8af 86be b244 3abc 58d4 d4be
000000e0: b44d d0bd 05f2 b0bc 64c4 2dbe 72d5 0dbc
000000f0: fbf3 fcbe e1c6 10bf 43ae b2bc 87a9 85bb
00000100: 0000 0000 c27f c83d 52a8 1f3d 8224 393d
00000110: d490 26bd 28e8 c43d 6969 323d 5421 1a3e
00000120: 05dc ad3c 0000 0000 1015 67bb e691 66bc
00000130: 3e69 dcbd d24b 40bd 8f91 e73d 7a89 6dbd
00000140: 9dd1 fc3d fea9 e6bd 362e efbb 400f 053e
00000150: 0066 f13d 40a0 1b3d 9597 a9bd 6071 c63d
00000160: f6b2 583d aed3 b4bd 0e4f 5b3d a034 02bd
00000170: 5e57 183e c8a7 553d 4733 d73d 22ec d9bd
00000180: 0000 0000 37e5 c03c a21d e2be 564a cbbe
00000190: c182 bdbd 6987 febe 028c 853c d8c6 11be
000001a0: f075 c83b 0000 0000 7b9d 8e3c 213d e23c
000001b0: 28f5 183c 718e 493c 3a95 b63b 8bc3 5e3c
000001c0: 9382 443d b6dc 8d3b 3106 293d 98ea 0bbf
000001d0: d3f2 403d c2c8 b8bd 1e28 c73b e7ec 453d
000001e0: 356f 96bb fca6 713a 0f0d bf3c 1d02 1a3c
000001f0: d9c0 d2bd aa17 bf3c 4a6a 00bf b467 1d3c
00000200: 0000 0000 fb99 c93d 4d90 ea3d 9ed0 ad3d
00000210: df55 803d 02c1 cb3d e555 f83c 93f8 1e3e
00000220: 168c f53b 0000 0000 cff4 963d 998a df3d
00000230: 7ab9 9f3d cd5b 733d 68a8 4f3e bc16 943d
00000240: 2bba 173e 70db 5c3d ceca 163e 8902 c23d
00000250: ef4d 003e a18b e13d 44ed 4b3d 4c45 f43d
00000260: 9291 1b3d 4e45 903d 12f4 5d3d 8493 193d
00000270: 0342 223e 8f2b 443e fa79 d63d 9fa0 863d
0.0 0.12138611 0.3267854 0.24752027 0.113464445 0.29049024 -0.011780933 0.30302748
-0.033583447 0.0 0.096430205 0.14190987 0.08956941 0.03447983 0.3382844 0.043099534
0.23778012 0.050633907 0.19082086 0.32547173 0.15956923 0.20516096 0.03831227 0.1511847
0.015409181 0.03852393 0.038637117 -0.006453382 0.2897259 0.2984706 0.31362543 0.035139427
0.0 -0.34127706 -0.038665026 0.019456074 -0.04292897 0.010995902 -0.07839981 -0.46643314
-0.0012552721 0.0 -0.18402316 -0.2646068 -0.06927331 -0.05925333 -0.6597219 -0.07101614
-0.55737793 0.003745212 -0.37204888 -0.0036001832 -0.44984904 -0.26305985 -0.011368917 -0.41568255
-0.10171071 -0.021599779 -0.16969448 -0.008656846 -0.49404892 -0.56553465 -0.02181161 -0.004079047
0.0 0.09789993 0.038978882 0.045200832 -0.040665463 0.09614593 0.04355756 0.15051776
0.021223078 0.0 -0.0035260357 -0.014072871 -0.10762261 -0.046947308 0.1130706 -0.057992436
0.12344668 -0.11262892 -0.00729921 0.12994099 0.11787033 0.037994623 -0.08280865 0.09689593
0.052905045 -0.08829437 0.05354219 -0.03178847 0.14877078 0.05216196 0.10507827 -0.10640742
0.0 0.023546798 -0.44163233 -0.3970515 -0.09253455 -0.49712685 0.016302112 -0.14236009
0.006117575 0.0 0.017409077 0.02761704 0.009335794 0.012302027 0.0055719884 0.013596426
0.047976088 0.0043292893 0.04126567 -0.54654837 0.047106575 -0.090226665 0.0060777804 0.04832163
-0.0045908936 0.0009218303 0.023321657 0.009399918 -0.10290689 0.023326714 -0.50162184 0.009607244
0.0 0.098438226 0.114533044 0.08487056 0.062663786 0.09948923 0.030314395 0.15524511
0.007493506 0.0 0.07370912 0.10915107 0.07799049 0.05941372 0.20279086 0.07230899
0.14817111 0.05392021 0.14725801 0.0947314 0.1252973 0.1101296 0.04978682 0.1192728
0.037980624 0.07044469 0.05418784 0.037494197 0.15845494 0.19157241 0.10472484 0.06573605

exp_avg_sq f4 [5, 32]
00000000: 0000 0000 0efa a640 aaa9 a241 8ec1 7c41
00000010: 994f d53f c386 d841 f712 a840 46b6 2041
00000020: e423 0340 0000 0000 5eff 7c3f f2e3 1640
00000030: aa4c 9d3f f024 a73f a323 bd41 f44e 0c40
00000040: 0c78 8641 cc46 8d3f 70ae de40 4abc f441
00000050: 6d6a 0541 b3a4 8340 c9ec 773f bde2 7b41
00000060: dc90 3e40 587a 3e40 2be5 9140 852e 5140
00000070: 3e00 3941 09ab 6c41 80a9 de41 eb8a 2740
00000080: 0000 0000 ecc2 2541 1f51 973f 408b 2d3f
00000090: 585c 043f ae71 d73f ba59 2140 c6f4 9241
000000a0: 2f2d 273f 0000 0000 3bc9 1640 5602 9d40
000000b0: e85a 233f af27 c73e 7d5d 3b42 b6b3 953f
000000c0: 79ab 0642 e1c3 b53d d18b 5d41 a050 b63f
000000d0: 6cfa 8e41 2da9 bb40 628b d53d 8713 c141
000000e0: 49de ca3f a972 683f 4612 9340 1209 8e3f
000000f0: fa87 b141 64a4 f041 2b04 1840 a807 0c3f
00000100: 0000 0000 def6 4640 f3f2 f240 58a9 b340
00000110: 2da2 d33f e863 1a41 d66e 0940 0181 c340
00000120: faf2 6c3f 0000 0000 abeb 7f3f 4741 2940
00000130: a7b3 5e40 f0ba d13f 8c9c df40 21b1 2e40
00000140: 290f 9840 57c6 2d40 562e a940 e4e6 2541
00000150: b57b 8a40 c86f f73f ce1a da3f 6bc4 6540
00000160: ca78 b23f c47b 5b40 f18c b53f 1827 0140
00000170: 91da b240 7b7f b940 7e72 1841 35a4 8840
00000180: 0000 0000 4ab3 043f 7add f941 9f03 bf41
00000190: 9a6b ec3f 53e3 1942 5dd6 283f 84e2 bc40
000001a0: add3 8d3e 0000 0000 f010 9a3d 89d2 513e
000001b0: b9c0 ec3d e8be c83d 0458 2040 e53c 973e
000001c0: 36f8 a83f 159d 5c3d 8ed0 353f 96ab 3842
000001d0: a194 363f ae31 0d40 968f 583d ca48 9d3f
000001e0: 312e aa3e 80a7 9f3e b590 b43e 8689 c83e
000001f0: 4aca 7e40 4fd0 b53f 2ae7 1f42 7e83 623e
00000200: 0000 0000 c070 6740 8970 9c40 eee8 6a40
00000210: ba3a 763f 3ec9 c840 56f7 5a3f aad4 e740
00000220: c3ff 9e3e 0000 0000 9906 a13f 08b8 3040
00000230: 68e1 1e40 7053 7a3f d9f2 8441 11a5 da3f
00000240: aada 3741 801a de3f 1456 c840 8b97 dd40
00000250: 2916 cf40 0268 3b40 bc41 613f a9a9 0641
00000260: de5d 773f 942e eb3f 76ca 0740 38af 673f
00000270: 3bbe 0241 fe0c 3f41 d1b5 cb40 e381 2940
0.0 5.2180243 20.332844 15.797255 1.6664916 27.065802 5.252315 10.0445
2.0490656 0.0 0.9882716 2.3576627 1.2289021 1.3058147 23.6424 2.192319
16.808617 1.103723 6.9587936 30.591938 8.338483 4.113855 0.9684568 15.742856
2.9775915 2.9762173 4.5592246 3.2684643 11.562559 14.791757 27.832764 2.6178539
0.0 10.360088 1.1821631 0.67790604 0.51703405 1.6831567 2.5211015 18.369518
0.6530332 0.0 2.3560321 4.906535 0.63810587 0.38897464 46.841297 1.1695468
33.667454 0.088752516 13.846635 1.4243355 17.872276 5.8644013 0.10426976 24.134535
1.5849086 0.9079996 4.5959806 1.1096518 22.191395 30.080269 2.3752544 0.5469918
0.0 3.1088176 7.592157 5.614422 1.6533867 9.649391 2.14739 6.1094975
0.9255825 0.0 0.99968976 2.6446092 3.479715 1.6385174 6.9878597 2.729561
4.7518506 2.7152307 5.2869062 10.36887 4.327601 1.9330988 1.703943 3.5901134
1.3943112 3.429429 1.4183637 2.018011 5.5891805 5.7968116 9.527952 4.270045
0.0 0.51836073 31.233143 23.876768 1.8470337 38.471996 0.6595209 5.902651
0.27700558 0.0 0.07522762 0.20490469 0.115601964 0.098020375 2.505372 0.29538646
1.3200748 0.053860743 0.71021354 46.167564 0.7132054 2.2061572 0.05287131 1.2287838
0.33238366 0.3118248 0.35266653 0.39167422 3.9810967 1.4204196 39.975746 0.22120473
0.0 3.6162567 4.888737 3.670467 0.9618336 6.2745657 0.85533655 7.24471
0.31054506 0.0 1.2580138 2.7612324 2.4825077 0.97783566 16.618578 1.7081624
11.490885 1.7351837 6.2605076 6.924749 6.471455 2.9282231 0.8799093 8.416421
0.96627605 1.837359 2.1217322 0.9050174 8.171443 11.940672 6.3659444 2.6485527

exp_avg f4 [5]
00000000: c102 f03e af69 0abf e97c d03d 50d5 96be
00000010: 9985 873e
0.468771 -0.5406751 0.10180075 -0.2945962 0.26469114

exp_avg_sq f4 [5]
00000000: a8a7 0642 6118 0342 16f0 7f41 846e c341
00000010: b976 9641
33.663727 32.773808 15.996115 24.428963 18.80797
