Pytorch/RNN/char-rnn-generation/generation_model.pt (torch, 201058 bytes, 6 tensors)

i2h.weight f4 [128, 205]
0	0x3de2503f	0.11050462
1	0xbdeda492	-0.11603655
2	0x3d0c9504	0.0343218
3	0x3b8e90d4	0.004350761
4	0x3c7715af	0.015080853
5	0x3d789d59	0.060696933
6	0x3e7705ff	0.24123381
7	0x3e48f25e	0.19623706
8	0x3d3c3e65	0.04595794
9	0x3e0dab10	0.13834786
10	0x3cae396b	0.021267613
11	0xbe779696	-0.24178538
12	0x3dcccc63	0.09999921
13	0x3de6e275	0.11273662
14	0x3e6411f5	0.22272475
15	0xbcfccc23	-0.030859059
16	0x3d3dde6b	0.046354692
17	0xbdaba31c	-0.0838072
18	0xbd29f406	-0.041492485
19	0xbd21b9db	-0.039483886
20	0x3df2d94c	0.11857852
21	0x3d41fe1a	0.04736147
22	0x3e2583b6	0.16163525
23	0x3dad12e1	0.084508665
24	0x3e006ba8	0.12541068
25	0xbe38a791	-0.18032672
26	0x3be030c7	0.006841752
27	0x3d5a8ac7	0.053355005
28	0xbe5fc5ab	-0.21852748
29	0x3e844716	0.25835484
30	0x3d77cb1b	0.06049643
31	0xbd3c1118	-0.04591474
32	0xbe3d3426	-0.18476924
33	0x3e06cd59	0.13164271
34	0xbcb3060f	-0.021853475
35	0x3d1ca04e	0.038238816
36	0x3dbc3c5b	0.091911994
37	0x3e157b3c	0.14597791
38	0xbd908faa	-0.07058652
39	0xbd0f1db0	-0.03494042
40	0x3ea92e66	0.33043212
41	0x3d2b19d7	0.04177269
42	0xbd8cc39b	-0.06873246
43	0xbd4dee8d	-0.050276328
44	0x3e9355f7	0.28776523
45	0x3e0cee62	0.13762811
46	0xbda247de	-0.07923864
47	0x3d921617	0.071331196
48	0x3e261ba0	0.16221476
49	0x3e0a0f92	0.13482502
50	0x3bdd1ef7	0.006748076
51	0x3c4875f4	0.0122351535
52	0x3daeb695	0.085309185
53	0xbd4aa708	-0.0494757
54	0xbdaf92ce	-0.08572923
55	0xbb6e66d6	-0.0036377213
56	0x3e305173	0.1721857
57	0x3e327852	0.17428711
58	0x3dc5047f	0.09619998
59	0x3cc9ff6e	0.024657931
60	0xbd3afc2f	-0.045650657
61	0xbdf549ff	-0.11977004
62	0xbda7c9ff	-0.081928246
63	0x3b99f058	0.0046978407
64	0xbd4d36fc	-0.050101265
65	0xbcb8ec30	-0.02257356
66	0x3e0faa1c	0.14029735
67	0xbd3a46b2	-0.045477577
68	0xbd9a1c6e	-0.07524954
69	0x3d2b8bbd	0.04188131
70	0x3d015775	0.031577546
71	0x3d83740f	0.06418621
72	0xbd5984a2	-0.053105004
73	0x3ce90fd8	0.028449938
74	0x3d773543	0.06035353
75	0xbcec157e	-0.028818842
76	0xbd5f1992	-0.054467745
77	0x3e0ee8cf	0.13955997
78	0xbdccddd3	-0.10003247
79	0xbde92c9f	-0.11385464
80	0xbd111290	-0.035418093
81	0xbd4e5b1b	-0.050379854
82	0xbd39547c	-0.045246586
83	0xbd647202	-0.05577279
84	0xbe6d423f	-0.23169802
85	0xbda1b33a	-0.07895513
86	0x3d85d755	0.06535212
87	0x3e12e176	0.14343819
88	0x3dbb1b43	0.09136059
89	0x3d98e62d	0.074657775
90	0xbde819b2	-0.11333026
91	0xbd2c5835	-0.04207631
92	0xbcafc85c	-0.021457843
93	0xbded93b5	-0.116004385
94	0xbdc76edc	-0.097379416
95	0x3cac0a79	0.021001088
96	0x3cfa5f3f	0.030562995
97	0x3dd60769	0.10450632
98	0x3c426c30	0.011866614
99	0x3d961ea4	0.07330063
100	0x3dcb2cda	0.09920664
101	0x3dfc279c	0.123122424
102	0xbdb8279d	-0.08991931
103	0xbd82483c	-0.06361434
104	0x3d58fa95	0.05297335
105	0x3c7d1378	0.015446536
106	0xbdb5b74a	-0.0887285
107	0xbe1c36e5	-0.15255316
108	0xbdb13f2e	-0.08654629
109	0xbcac0659	-0.02099912
110	0xbe58e90c	-0.2118265
111	0x3da9c332	0.08289184
112	0x3d192c90	0.037396014
113	0xbd81d27a	-0.06338973
114	0x3e4770eb	0.19476669
115	0x3e28ed3a	0.16496745
116	0xbd145781	-0.036216263
117	0x3bc683ba	0.0060581835
118	0xbccc35b3	-0.02492795
119	0xbd84b3d1	-0.0647961
120	0x3df964a7	0.12177401
121	0xbd910d46	-0.0708261
122	0x3bb8bd12	0.0056377733
123	0x3e09fd1d	0.13475461
124	0x3e182361	0.14857246
125	0xbe15cc43	-0.14628701
126	0xbdf0e2ea	-0.117620304
127	0xbe3e91c7	-0.18610297
128	0xbdf5249f	-0.119698755
129	0x3e780d3a	0.24223796
130	0x3d987752	0.074446335
131	0x3c960d83	0.01831699
132	0xbdaf7357	-0.08566921
133	0x3d6d8818	0.057991117
134	0xbdf8f4c8	-0.12156063
135	0xbcd0a335	-0.025468448
136	0x3b7f0a8a	0.0038916194
137	0x3e3ab8fb	0.18234627
138	0x3e208746	0.15676603
139	0xbe459603	-0.19295506
140	0x3e076ca8	0.13225043
141	0xbd8bc8f9	-0.06825442
142	0x3ce8c1de	0.028412756
143	0x3d17e588	0.037084132
144	0xbeb7eb93	-0.35921916
145	0xbe223221	-0.15839435
146	0xbbf2d109	-0.007410173
147	0x3d85c982	0.06532575
148	0xbdc8fd08	-0.09813887
149	0x3e5b88cb	0.21438901
150	0x3dc735dd	0.097270705
151	0x3d94b319	0.07260723
152	0xbdf9776e	-0.121809825
153	0xbe471652	-0.19442108
154	0x3dece2da	0.11566706
155	0x3e0cec4c	0.13762015
156	0x3e057ec6	0.13036641
157	0x3da6c231	0.08142508
158	0x3decec20	0.11568475
159	0x3d87b56b	0.066263996
160	0x3d5fcf6b	0.05464117
161	0xbcfee5a5	-0.031115362
162	0xbe2a6a7c	-0.16642183
163	0x3ded7bf5	0.115959086
164	0x3d3d0f89	0.046157394
165	0x3e05fa60	0.13083792
166	0x3c83d047	0.016090525
167	0x3dc7228e	0.09723388
168	0x3d15815e	0.036500327
169	0xbdf2bba0	-0.11852193
170	0x3d9e82d8	0.077398
171	0xbdbf7a3d	-0.09349487
172	0x3ea62867	0.324527
173	0x3d4b820c	0.04968457
174	0xbdffcf34	-0.12490693
175	0x3e16c9bc	0.14725393
176	0x3e1d3e89	0.15355887
177	0x3df0c939	0.1175713
178	0x3de54e2f	0.11196553
179	0xbdec4a25	-0.115375794
180	0xbd1aad55	-0.03776296
181	0xbb98209b	-0.0046425587
182	0x3e589b97	0.21153103
183	0xbbe3187b	-0.0069304085
184	0xbe65136d	-0.22370692
185	0xbde702a3	-0.112798
186	0xbd778f85	-0.060439605
187	0xbb7165e6	-0.0036834418
188	0x3d99636a	0.07489665
189	0xbc9de79d	-0.01927548
190	0x3db4444b	0.08802088
191	0x3d31e1fe	0.043428414
192	0xbe0dcab7	-0.13846861
193	0x3d5f304c	0.05448942
194	0x3df48d48	0.1194101
195	0x3e32f437	0.17475973
196	0xbd5d0925	-0.0539638
197	0xbde84d47	-0.113428645
198	0xbd841eaf	-0.06451165
199	0xbdf32520	-0.118723154
200	0xbe018814	-0.12649566
201	0x3cdd8c9e	0.02704459
202	0x3e5538cb	0.20822446
203	0x3db96003	0.09051516
204	0xbddce7ab	-0.10786375
205	0x3d2dbbd6	0.042415462
206	0x3e12b7eb	0.14327972
207	0x3dab7809	0.08372504
208	0x3dc09db1	0.09405077
209	0x3e2038a4	0.15646607
210	0x3dd428d8	0.10359353
211	0x3dd8a640	0.10578585
212	0x3e4b7d98	0.19872129
213	0xbcf1c07e	-0.029510733
214	0x3d9254dd	0.07145093
215	0x3d3c07e9	0.04590598
216	0xbeaae9d7	-0.3338153
217	0xbdaf6e6d	-0.08565984
218	0x3d473ccc	0.048641965
219	0xbd4588cb	-0.04822616
220	0xbdac6368	-0.08417398
221	0x3e6f6d15	0.23381455
222	0xbe57e447	-0.21083175
223	0xbeacd3cb	-0.33755335
224	0x3e9dce95	0.30821672
225	0x3e74be50	0.23900723
226	0x3ec48594	0.38383162
227	0x3bf7b82e	0.0075597977
228	0x3e71dd33	0.23619537
229	0x3eccb6ef	0.39983317
230	0x3e965b8a	0.29366714
231	0xbee3575e	-0.44402593
232	0x3b898885	0.0041971826
233	0x3e10df79	0.14147748
234	0x3eb17d4b	0.34665903
235	0x3ee2598d	0.44208947
236	0xbed99de3	-0.4250327
237	0xbf01f756	-0.5076803
238	0x3e27e2f0	0.16395164
239	0xbc6f4fa0	-0.014606386
240	0x3ec9f487	0.39444372
241	0x3d7f105e	0.06227147
242	0x3eb25d07	0.348366
243	0xbde322cc	-0.11090621
244	0x3df5f438	0.12009472
245	0x3f3c023b	0.73440903
246	0x3c49de7b	0.01232111
247	0x3eab0250	0.33400202
248	0x3e99f784	0.30071652
249	0xbef781a1	-0.48341087
250	0x3eb116b1	0.34587625
251	0x3e7e59de	0.24838969
252	0x3e23d045	0.15997417
253	0xbeaa26b0	-0.3323264
254	0x3e8ecc98	0.27890468
255	0xbd8a6624	-0.06757763

i2h.bias f4 [128]
0	0xbddddbaf	-0.10832917
1	0x3da9e885	0.08296303
2	0x3e11b13e	0.14227769
3	0x3c81e827	0.01585777
4	0x3e0c9529	0.13728775
5	0x3d64a87b	0.055824738
6	0x3d20ab48	0.039225847
7	0x3e01b90c	0.12668246
8	0x3d20429f	0.039126035
9	0xbd213fec	-0.0393676
10	0xbdd3731c	-0.1032469
11	0xbd874ad2	-0.06606068
12	0xbd58669f	-0.052832242
13	0xbb90b9dd	-0.004416688
14	0xbe82fa75	-0.2558171
15	0xbcfd5760	-0.030925453
16	0x3c2aa736	0.010415843
17	0x3d87d1cb	0.06631812
18	0xbc90ff00	-0.017699718
19	0xbe8d924a	-0.27650672
20	0xbd59345f	-0.05302846
21	0x3c49d6d1	0.012319283
22	0xbdfd039e	-0.123542055
23	0xbd33e051	-0.043915097
24	0xbcadd0fe	-0.02121782
25	0x3d82182a	0.06352265
26	0x3d906426	0.07050352
27	0xbd938b6b	-0.07204326
28	0xbe107144	-0.14105707
29	0x3db1de5e	0.08684991
30	0x3e176661	0.14785148
31	0x3df1c386	0.11804871
32	0xbe536804	-0.20645148
33	0x3dcf599c	0.101245135
34	0xbdc93773	-0.09825029
35	0x3dd75f31	0.10516203
36	0x3db2d6e4	0.087323934
37	0xbd3e17bd	-0.046409357
38	0xbdd5ff30	-0.10449064
39	0x3d994c94	0.07485309
40	0x3d0e4fa4	0.03474392
41	0x3d4df744	0.05028464
42	0x3e580a07	0.21097575
43	0xbe3e08aa	-0.18557993
44	0xbc4bbef3	-0.012435663
45	0x3c9ea11e	0.019363936
46	0xbc2fadfb	-0.0107226325
47	0xbdda2dce	-0.10653268
48	0x3e1fdea7	0.15612279
49	0x3c6cd4b0	0.0144550055
50	0x3d445581	0.047933105
51	0x3dda2bbd	0.10652874
52	0xbe1796d4	-0.1480363
53	0xbd13fad3	-0.036127876
54	0xbcca9509	-0.024729269
55	0x3dd967ed	0.106155254
56	0x3c178f8e	0.009250535
57	0x3dad7d9d	0.084712245
58	0x3df6dc3e	0.120537266
59	0x3d9330c1	0.071870334
60	0xbcb74bd6	-0.022375029
61	0xbcce26e4	-0.025165029
62	0x3e35ea18	0.17765081
63	0xbe2fa23b	-0.1715173
64	0x3ca84e6b	0.020545205
65	0x3db6e0be	0.08929585
66	0xbcb7565b	-0.022380045
67	0x3d443e0d	0.04791074
68	0x3dda9052	0.10672058
69	0xbd96931e	-0.07352279
70	0xbe075733	-0.13216858
71	0x3d8f7b47	0.07005935
72	0xbe37e33e	-0.1795778
73	0xbb06eb4e	-0.002058703
74	0xbd88c602	-0.06678392
75	0x3cd1bc84	0.025602587
76	0x3d65ac26	0.056072377
77	0xbd9e9ab3	-0.0774435
78	0xbdd0d053	-0.10195985
79	0x3bf9c439	0.0076222685
80	0xbdc44c76	-0.09584896
81	0x3d20c2ca	0.039248265
82	0x3d533ab4	0.051569656
83	0xbded704c	-0.115936846
84	0xbd57b61f	-0.05266392
85	0x3e0408f8	0.12894046
86	0xbe1bc141	-0.1521044
87	0x3b88204d	0.004154241
88	0xbe06fed7	-0.13183151
89	0x3dce853a	0.10084005
90	0xbd35c8f4	-0.044381097
91	0xbd32bef3	-0.043639135
92	0x3dff84a5	0.12476472
93	0xbd044af3	-0.03229804
94	0x3ddf22d6	0.10895316
95	0xbdf3895a	-0.11891432
96	0xbe56e353	-0.20985155
97	0xbbaa4ea7	-0.0051973644
98	0xbdcee496	-0.10102193
99	0xbe05a105	-0.13049705
100	0xbd8934dc	-0.06699535
101	0x3c4e8721	0.012605459
102	0x3e7e278a	0.2481977
103	0xbc37b452	-0.011212425
104	0xbd5b343f	-0.053516623
105	0xbe8000cf	-0.25000617
106	0x3e478097	0.19482647
107	0x3d0e9a29	0.034814987
108	0x3ca56bc8	0.020192996
109	0x3c324d20	0.010882646
110	0x3e0485fe	0.12941739
111	0xbd45ff9b	-0.048339467
112	0x3d481819	0.048851106
113	0xbde22e81	-0.11044026
114	0xbd827112	-0.06369223
115	0x3e01b9d9	0.12668552
116	0xbca6dc55	-0.020368734
117	0xbcd148f9	-0.025547491
118	0xbdf3f74c	-0.119124025
119	0x3db36ad4	0.0876061
120	0x3da2b289	0.07944209
121	0x3e2fe08a	0.17175499
122	0x3e1b372e	0.15157768
123	0x3e079fe4	0.13244587
124	0x3e1c2e13	0.15251951
125	0xbdbb5cd0	-0.09148562
126	0xbddbfb4a	-0.10741289
127	0x3db07188	0.08615404

i2o.weight f4 [59, 205]
0	0xbf515b4a	-0.8177992
1	0x3d9e544d	0.07730923
2	0x3cb4a41e	0.022050913
3	0x3df1eddd	0.11812947
4	0x3e54f0b9	0.20794953
5	0x3d676fed	0.056503225
6	0x3dc6adee	0.09701143
7	0xbe10c10d	-0.14136143
8	0xbe71fde0	-0.23632002
9	0x3e91a813	0.28448543
10	0xbf2449e9	-0.6417528
11	0x3ed782e8	0.4209206
12	0xbad0ec21	-0.0015939513
13	0x3e25b7a1	0.1618333
14	0xbee10d9e	-0.43955702
15	0x3e9289a1	0.28620628
16	0x3e82b35c	0.25527465
17	0xbf1c58ec	-0.61073184
18	0x3f7b8728	0.9825311
19	0xbe4e9a91	-0.2017615
20	0xbdb1fbd4	-0.086906105
21	0xbed3e1e4	-0.41383278
22	0x3f59deef	0.85105795
23	0xbe374d2c	-0.17900532
24	0xbf024bd7	-0.5089697
25	0xbebbeae3	-0.36702642
26	0xbe478a19	-0.19486274
27	0xbb5feff0	-0.0034170114
28	0xbe64a52d	-0.22328635
29	0xbed43a41	-0.41450694
30	0xbf014b20	-0.50505257
31	0x3e73cbdf	0.2380824
32	0x3f585745	0.8450816
33	0xbe05630c	-0.13026065
34	0x3c250af6	0.010073414
35	0xbf2d6cbd	-0.67744046
36	0xbec0ae8e	-0.37633175
37	0xbeaceb24	-0.33773148
38	0xbd40509f	-0.046951886
39	0xbd062890	-0.032753527
40	0xbf2c1eeb	-0.6723468
41	0x3d81cfb8	0.06338447
42	0x3e644174	0.22290593
43	0xbeb9bcc6	-0.36276835
44	0x3f077fca	0.52929366
45	0xbf42420b	-0.75882024
46	0xbe59a8cb	-0.21255796
47	0xbd8f8a20	-0.07008767
48	0x3ea10dec	0.31455934
49	0xbefa9c44	-0.48947346
50	0xbe06c515	-0.13161118
51	0xbe58b2fb	-0.21162026
52	0x3ebd1258	0.36928058
53	0xbe897b08	-0.26851678
54	0x3e44d8b5	0.19223292
55	0xbf055310	-0.5207987
56	0xbebb76e1	-0.36614135
57	0xbe167c68	-0.14695895
58	0x3f2268f5	0.634414
59	0xbf6d7d76	-0.92769563
60	0xbdbc0d77	-0.09182256
61	0x3de7f7fa	0.11326595
62	0xbe5b719d	-0.21430059
63	0xbe452ab6	-0.19254574
64	0x3f11bcff	0.5692901
65	0xbf08059a	-0.5313355
66	0xbeb7364a	-0.35783607
67	0x3f43cfb6	0.76488817
68	0x3da1efdf	0.0790708
69	0xbf129535	-0.5725892
70	0x3d6f65e8	0.058446795
71	0xbd5218a7	-0.05129304
72	0xbd79c10b	-0.060975116
73	0x3d27f2d4	0.041003063
74	0xbd8551ff	-0.0650978
75	0x3c856719	0.016284512
76	0x3d69a222	0.057039388
77	0x3dcc42a1	0.09973646
78	0x3e02c53e	0.12770554
79	0xbe107d22	-0.14110234
80	0x3df1c1f9	0.118045755
81	0xbd4b7872	-0.049675412
82	0x3d291074	0.041275457
83	0x3ccbc5ce	0.024874594
84	0x3bd14e88	0.0063875355
85	0xbdd4d800	-0.10392761
86	0xbd6d37c4	-0.05791451
87	0x3d77a987	0.06046441
88	0x3e239a7e	0.15976903
89	0x3e3826af	0.17983507
90	0xbd0d8609	-0.034551654
91	0xbd9f97e4	-0.07792643
92	0xbeb02833	-0.3440567
93	0x3c8bd73d	0.017070407
94	0xbe377e18	-0.17919195
95	0x3e087c74	0.13328725
96	0xba973440	-0.0011535957
97	0x3e8f9520	0.2804346
98	0x3dee3c7b	0.116326295
99	0x3db0878d	0.08619604
100	0x3d75a37f	0.059970375
101	0xbc937a5a	-0.018002678
102	0xbd819903	-0.06328013
103	0x3dbdc7ea	0.09266646
104	0x3c9f6a36	0.019459825
105	0xbc73ad58	-0.014872871
106	0xbd69baed	-0.057063032
107	0xbcd4a8cf	-0.0259594
108	0xbc7f114d	-0.01556809
109	0xbe2de276	-0.16980919
110	0xbded59d9	-0.11589403
111	0xbdb5687c	-0.088578194
112	0xbd2f33d8	-0.04277405
113	0xbe399e02	-0.18126681
114	0x3de118b7	0.10991042
115	0x3e39c8cc	0.18143004
116	0x3ac2e7ce	0.0014870109
117	0xbe8011aa	-0.25013477
118	0x3cc2c35a	0.023774792
119	0x3d785ee6	0.060637377
120	0xbcf0c89e	-0.029392537
121	0x3d0a4b89	0.033763442
122	0xbe861dee	-0.2619471
123	0xbd953977	-0.07286351
124	0x3dd04b5b	0.10170623
125	0x3dcb35c1	0.09922362
126	0xbc4eca1f	-0.012621432
127	0xbe256ed3	-0.16155557
128	0xbd73d175	-0.059525926
129	0x3d4a9bb3	0.049464893
130	0xbc0cbc79	-0.008589857
131	0x3e098043	0.13427834
132	0x3dc2fb8b	0.09520634
133	0xbd648941	-0.055794958
134	0xbda0c437	-0.07849925
135	0xbc627114	-0.013820905
136	0x3e21cd48	0.15800965
137	0x3d882e01	0.066493995
138	0x3de042b4	0.109502226
139	0xbe5cc827	-0.21560727
140	0x3e480b59	0.19535579
141	0xbd8b69b6	-0.06807272
142	0xbdc0641f	-0.093940966
143	0x3e8643ee	0.262237
144	0xbd9ff681	-0.07810689
145	0x3e6a4e4b	0.22881429
146	0x3d10b7a3	0.03533138
147	0x3da747b4	0.08167973
148	0x3df5b276	0.11996929
149	0x3d071957	0.03298315
150	0xbe152432	-0.14564589
151	0x3d51150e	0.05104547
152	0xbdb95dca	-0.09051092
153	0xbd8b2fbf	-0.06796216
154	0x3daed8f4	0.08537474
155	0x3e039fb8	0.12853897
156	0x3df4a4bb	0.11945482
157	0xbe24f418	-0.1610874
158	0x3e0af50d	0.13570042
159	0xbe5bb63d	-0.21456237
160	0x3d3fcb84	0.046824947
161	0x3cc69278	0.024239764
162	0x3c96fe7e	0.018431898
163	0xbd602244	-0.05472018
164	0xbce5caf0	-0.02805087
165	0x3c74e260	0.01494655
166	0x3d21306d	0.039352823
167	0x3e2bac95	0.16765054
168	0x3b824710	0.0039757565
169	0xbd3038d7	-0.043022957
170	0x3c77b25d	0.015118209
171	0x3cc358d8	0.023846075
172	0xbd8ada2a	-0.06779893
173	0xbe19f8b8	-0.15036285
174	0x3d2ae723	0.041724335
175	0x3d81d35b	0.06339141
176	0xbe869acf	-0.26289985
177	0xbda7147e	-0.081582054
178	0xbe1298d9	-0.14316119
179	0x3dce6378	0.10077566
180	0xbda0fa33	-0.07860222
181	0xbe32a302	-0.17444995
182	0xbd41cb20	-0.047312856
183	0xbd45004f	-0.048095997
184	0xbcc991cb	-0.024605652
185	0x3e4a046a	0.19728246
186	0x3caac6ab	0.020846685
187	0x3cac0683	0.020999199
188	0xbb891f00	-0.0041846037
189	0x3c355ed1	0.011069969
190	0x3cb585f7	0.022158606
191	0xbe4e62e0	-0.20154905
192	0xbd5fc06c	-0.054626867
193	0xbcc8afee	-0.024497952
194	0x3e07c64e	0.13259241
195	0xbe2130cb	-0.1574127
196	0x3e6ca86c	0.23111123
197	0xbcbd9fe9	-0.02314754
198	0x3d8a73e7	0.06760388
199	0xbcb6083d	-0.022220725
200	0xbe749bd9	-0.23887576
201	0xbc8449e0	-0.016148508
202	0x3ae139e4	0.001718339
203	0x3da173c4	0.07883409
204	0xbe7a14a8	-0.24421942
205	0xbd08da92	-0.03341157
206	0x3e4557c3	0.1927176
207	0x3e976d4e	0.2957558
208	0x3e9f5a2a	0.31123477
209	0x3ed9bdfa	0.42527753
210	0x3ec41ee9	0.38304833
211	0x3e865578	0.26237082
212	0x3eb84b0e	0.35994762
213	0x3d092142	0.033478983
214	0x3e975a5a	0.2956112
215	0xbe3eeb22	-0.18644384
216	0xbec362a3	-0.3816119
217	0xbe8d1b7b	-0.27560028
218	0x3ed61682	0.41814047
219	0x3e52cd3b	0.20586102
220	0x3e96bd0a	0.294411
221	0x3efcc698	0.49370265
222	0x3db4bc96	0.088250324
223	0xbf14e3e1	-0.58160216
224	0x3eb8bd0b	0.36081728
225	0x3e3f6b03	0.18693165
226	0x3ecc2be7	0.39877245
227	0x3cff209f	0.031143485
228	0x3e21bce5	0.15794714
229	0x3eda3e76	0.4262578
230	0x3f2ae74b	0.66759175
231	0xbf03ab86	-0.514336
232	0x3d9986f1	0.07496441
233	0x3e844e01	0.25840762
234	0x3f00a724	0.50255036
235	0x3ea85193	0.32874736
236	0xbf1a495f	-0.60268205
237	0xbeeb8a2e	-0.4600386
238	0x3de5218b	0.111880384
239	0xbc0c70c3	-0.008571806
240	0x3f0fe175	0.56203395
241	0x3e1ec220	0.1550374
242	0x3eba8f61	0.36437514
243	0xbe97ccf4	-0.29648554
244	0x3daea1b2	0.08526935
245	0x3f2dce54	0.67892957
246	0x3d7c23d8	0.06155762
247	0x3e951921	0.29120734
248	0x3e5ec2a4	0.21753937
249	0xbf2f609b	-0.68506783
250	0x3f6d9c3d	0.92816526
251	0x3e94ed2e	0.29087204
252	0x3e4691c3	0.19391541
253	0xbe43884f	-0.19094966
254	0x3f21586b	0.6302554
255	0x3e2ded0d	0.16984959

i2o.bias f4 [59]
0	0xbe2b7da4	-0.16747147
1	0x3f0f51c1	0.5598412
2	0x3eadee19	0.33970717
3	0xbeceadf3	-0.40367088
4	0x3dcc838a	0.099860266
5	0x3eb267d6	0.34844846
6	0x3ebbdea7	0.36693308
7	0xbe560519	-0.20900382
8	0x3efe34df	0.49649712
9	0x3e8d2081	0.2756386
10	0xbf34e280	-0.7065811
11	0x3dc06550	0.09394324
12	0x3de3b255	0.111179985
13	0x3e664181	0.22485925
14	0x3eea2ec0	0.45738792
15	0xbf485441	-0.7825356
16	0x3e7a8c92	0.24467686
17	0xbe6b55eb	-0.22981994
18	0x3f0927e7	0.5357651
19	0x3ef4876f	0.47759578
20	0x3d5ce2f2	0.05392737
21	0x3f0d32bb	0.55155534
22	0xbea79260	-0.32728863
23	0xbf2b1bf8	-0.6683955
24	0xbf34a453	-0.7056324
25	0xbd1b1bd4	-0.037868336
26	0x3efa7083	0.48913965
27	0x3ee87f82	0.4540978
28	0xbefa88e8	-0.48932576
29	0xbe6679df	-0.22507428
30	0xbf07b898	-0.5301604
31	0x3efb1c74	0.49045146
32	0xbeeb37e1	-0.4594107
33	0xbed88dea	-0.42295772
34	0xbea6be23	-0.32566938
35	0xbf23539a	-0.6379944
36	0x3f207753	0.62682074
37	0xbe3b9c5f	-0.1832137
38	0xbe8e303a	-0.2777117
39	0xbd166ac5	-0.036722917
40	0x3eaf0d1a	0.34189683
41	0x3f23fa2d	0.6405361
42	0xbf0c6eef	-0.5485677
43	0x3d3aae98	0.04557666
44	0x3b035122	0.0020037373
45	0x3ee12f91	0.43981603
46	0x3f08192e	0.5316342
47	0x3e9a95df	0.30192468
48	0x3ef68c35	0.48153844
49	0xbe80533d	-0.25063506
50	0x3e4a5389	0.19758429
51	0xbecb1e99	-0.39671782
52	0x3ed02f69	0.4066117
53	0x3f08e7bc	0.534786
54	0x3eac3f09	0.33641842
55	0xbf40c653	-0.7530262
56	0x3dacff26	0.08447103
57	0x3d89e30b	0.06732758
58	0xbf094600	-0.53622437

o2o.weight f4 [59, 187]
0	0x3ce1c494	0.027559556
1	0x3edb5b7a	0.4284323
2	0x3c817fa0	0.015807927
3	0x3e3acb59	0.18241633
4	0x3dd03e88	0.10168177
5	0x3f0313d5	0.51202136
6	0xbe1065d3	-0.14101343
7	0x3d697b41	0.05700231
8	0xbe09b1a0	-0.13446665
9	0xbe1e206c	-0.15442055
10	0x3e29c6d5	0.16579755
11	0x3e52a55c	0.20570892
12	0xbd1f0928	-0.03882709
13	0xbee6f73c	-0.451105
14	0xbe232c3a	-0.1593484
15	0xbe942273	-0.28932533
16	0x3e1d984a	0.15390125
17	0xbd06dc1b	-0.032924753
18	0x3d2e6c67	0.04258385
19	0xbeda1723	-0.42595777
20	0x3e12f662	0.143518
21	0xbe94b36e	-0.29043144
22	0xbec7a62a	-0.3899396
23	0x3ddfa742	0.10920574
24	0x3e825923	0.2545863
25	0x3dab355f	0.08359789
26	0x3eb2a62f	0.34892413
27	0x3e74a562	0.23891214
28	0xbe99fdef	-0.30076548
29	0xbc12e744	-0.008966271
30	0x3ea9613c	0.33081996
31	0x3e92739c	0.28603828
32	0xbdb29cb4	-0.08721295
33	0xbdf4111b	-0.11917325
34	0xbe17bd63	-0.14818339
35	0x3ea7025a	0.32618982
36	0x3ec4aaa4	0.38411438
37	0x3eb81c73	0.35959205
38	0xbdd063f2	-0.10175313
39	0x3ead4f64	0.33849633
40	0xbebd3915	-0.36957613
41	0x3d8b14cd	0.06791077
42	0xbd12c22b	-0.035829704
43	0xbe3cd61c	-0.18441051
44	0x3e58a298	0.21155775
45	0x3e4faeab	0.20281474
46	0xbe160d1c	-0.14653438
47	0x3d3758bd	0.04476236
48	0x3e70f162	0.2352958
49	0x3e743290	0.23847413
50	0xbd98ad65	-0.074549474
51	0x3cb4fb21	0.022092404
52	0xbd3232e3	-0.04350556
53	0x3e5a8bb7	0.2134236
54	0x3e1f234f	0.15540813
55	0x3ecafbba	0.39645177
56	0xbdf59061	-0.11990429
57	0xbd005fc5	-0.031341333
58	0x3d8f1d43	0.06988003
59	0x3eb88080	0.36035538
60	0xbe8d607c	-0.27612674
61	0x3ec44857	0.3833644
62	0xbcf588f3	-0.029972529
63	0xbe3a0aa9	-0.18168129
64	0x3da22025	0.07916287
65	0x3dad5588	0.084635794
66	0x3ecb94fd	0.39762107
67	0xbd8bb86c	-0.06822285
68	0x3e457f2a	0.1928679
69	0x3def6203	0.11688616
70	0xbe21687a	-0.15762511
71	0x3ef0c870	0.47027922
72	0xbe09abef	-0.13444494
73	0x3e17673c	0.14785475
74	0xbe496e81	-0.1967106
75	0x3e81e019	0.25366285
76	0xbd88837f	-0.06665706
77	0xbdf6bad2	-0.12047352
78	0x3d92d5df	0.07169699
79	0x3f125a5b	0.5716912
80	0xbd8c30b4	-0.06845227
81	0x3edca2d5	0.4309298
82	0x3dacff6e	0.08447157
83	0x3db6f1c9	0.089328356
84	0xbe9ed95f	-0.31025216
85	0x3e5e3a2e	0.21701881
86	0xbe554b22	-0.20829442
87	0xbda5c688	-0.080945075
88	0xbe9f76bb	-0.31145272
89	0x3e67814b	0.22607915
90	0xbe99383a	-0.2992571
91	0xbe37acd7	-0.17937027
92	0xbe0ca003	-0.13732915
93	0xbe9e627f	-0.30934522
94	0x3e91f0c3	0.28504
95	0x3e3068da	0.17227498
96	0xbe0c3e4b	-0.13695638
97	0x3e56c6c5	0.20974262
98	0x3d77b8aa	0.060478844
99	0xbebc90d0	-0.36829233
100	0x3e8373d0	0.25674295
101	0x3e8bdee5	0.27318493
102	0x3ed60ef0	0.4180827
103	0xbed2e980	-0.4119377
104	0xbe9b1405	-0.3028871
105	0xbe7d8596	-0.2475799
106	0x3ea2401e	0.31689543
107	0xbcc96eda	-0.024588991
108	0xbec557bc	-0.385435
109	0xbe8b9328	-0.2726071
110	0x3e337ba9	0.17527641
111	0xbe1f4d77	-0.15556894
112	0xbe296a38	-0.16544425
113	0xbe61f67c	-0.22066683
114	0xbbdc0ca3	-0.0067153736
115	0x3ef04238	0.4692552
116	0xbe06f1b2	-0.13178137
117	0x3eaf50ed	0.3424143
118	0xbea64e5d	-0.3248166
119	0x3ed66dd5	0.4188067
120	0x3ee8d563	0.454753
121	0x3e758f81	0.23980524
122	0xbdc10121	-0.094240434
123	0x3d90d71d	0.070722796
124	0x3e2404d3	0.16017465
125	0xbe362d6d	-0.17790766
126	0xbe13e667	-0.1444336
127	0xbd8ba8ab	-0.0681928
128	0xbf37df9c	-0.71825576
129	0x3eaafb1c	0.33394706
130	0x3ebc0c2c	0.36728036
131	0xbd4d478f	-0.05011707
132	0x3e22fbd0	0.15916371
133	0x3e8f87c3	0.28033265
134	0x3e4de2b8	0.20106018
135	0x3ec17cc2	0.37790495
136	0x3ecc4753	0.39898166
137	0xbca9c1ba	-0.020722259
138	0xbeaaff17	-0.33397743
139	0xbd3c3a32	-0.045953937
140	0xbd9f25ae	-0.07770859
141	0x3ec5c67a	0.38627988
142	0x3f005db9	0.5014301
143	0xbe873b57	-0.2641246
144	0x3f060621	0.523531
145	0xbee2becd	-0.44286194
146	0x3a61a1cb	0.0008607178
147	0x3f0402c5	0.51566726
148	0x3ef3beb2	0.47606426
149	0x3e06ed7b	0.13176529
150	0xbdd4c88a	-0.10389812
151	0xbf0b1511	-0.5432902
152	0xbeec3e14	-0.46141112
153	0x3c8fb8ce	0.017544176
154	0x3ec58b48	0.38582826
155	0x3efd4689	0.49467877
156	0xbd58a7b6	-0.052894317
157	0xbf10c92d	-0.5655697
158	0xbf0e2be1	-0.55535704
159	0x3f061ee1	0.5239087
160	0xbe2e1c9e	-0.17003104
161	0xbf17df7b	-0.5932538
162	0xbf0cd130	-0.55006695
163	0xbee0f596	-0.43937367
164	0x3ef6dd44	0.48215687
165	0xbebf4a2c	-0.37361276
166	0x3d4521f5	0.048128087
167	0x3c670354	0.014099915
168	0x3e39f02d	0.18158026
169	0x3f16378f	0.58678526
170	0xbebb5c03	-0.36593637
171	0xbdf05d42	-0.117365375
172	0x3e10df4a	0.14147678
173	0x3e8c08fa	0.273506
174	0x3e8947fb	0.2681273
175	0x3e9b1a2b	0.30293402
176	0x3d86adb7	0.06576102
177	0xbd5eab32	-0.054362483
178	0x3f02e905	0.5113681
179	0xbeb4d0d2	-0.35315567
180	0x3e3bba66	0.18332824
181	0x3f0605ba	0.5235249
182	0x3e57f34a	0.21088901
183	0xbeb433dc	-0.35195816
184	0xbeee8aff	-0.4659042
185	0x3e87ef59	0.26549795
186	0xbee89f46	-0.45434016
187	0x3e910368	0.2832291
188	0xbe6d6203	-0.2318192
189	0xbeafb031	-0.3431411
190	0x3b6ec6bc	0.0036434373
191	0xbe9f62ea	-0.31130153
192	0xbe66cc37	-0.2253884
193	0xbf1d2c64	-0.6139586
194	0xbe79c778	-0.24392498
195	0xbe2e9674	-0.17049581
196	0xbe9438ba	-0.2894953
197	0xbe3ab37e	-0.18232533
198	0x3e9bda8e	0.30440181
199	0x3e1dbaa9	0.15403236
200	0xbf0a4dc8	-0.54024935
201	0x3da8d3ca	0.082435206
202	0xbda219d6	-0.07915084
203	0xbe93551f	-0.2877588
204	0xbea0064a	-0.31254798
205	0xbdb8bb16	-0.09020059
206	0x3dedd4cd	0.11612854
207	0x3e9fdeb8	0.31224608
208	0x3e179a6d	0.14805003
209	0xbeb09690	-0.3448987
210	0x3e70f408	0.2353059
211	0x3e9250b7	0.28577206
212	0x3d8f7f59	0.070067115
213	0xbcebc95a	-0.028782535
214	0x3db007a0	0.08595204
215	0x3e2d2296	0.16907725
216	0xbea79ccc	-0.32736814
217	0xbebc0e29	-0.36729553
218	0xbe897708	-0.26848626
219	0x3caebfbf	0.021331666
220	0xbe832a3e	-0.25618166
221	0x3d631c3f	0.05544686
222	0x3efccb36	0.49373788
223	0xbe9db07e	-0.30798715
224	0x3ee9f896	0.4569747
225	0x3eae6090	0.34058046
226	0xbefb53b3	-0.49087295
227	0x3e40a907	0.18814479
228	0x3ea9c995	0.33161607
229	0xbe5ac29b	-0.21363299
230	0x3e38a0c8	0.18030083
231	0x3eccccb1	0.39999917
232	0xbe41f55f	-0.18941258
233	0x3e565734	0.20931703
234	0x3ec7af4f	0.39000937
235	0xbe68a122	-0.22717717
236	0x3e1c5341	0.15266134
237	0xbe4f39e4	-0.20236927
238	0xbe91134e	-0.2833504
239	0x3dccedfd	0.1000633
240	0x3e92e4ba	0.2869013
241	0xbeb680b3	-0.35645065
242	0xbe0ee5c2	-0.13954833
243	0x3e9968d5	0.29962793
244	0xbe92efa1	-0.28698447
245	0xbebd5bf4	-0.36984217
246	0x3ec70ff8	0.3887937
247	0x3e1cf848	0.15329087
248	0x3eea1878	0.45721793
249	0xbda7a3b4	-0.08185521
250	0x3f0dd818	0.5540786
251	0x3da8af0d	0.08236513
252	0x3d5cdf78	0.053924054
253	0x3eaa498b	0.33259234
254	0xbe3ac48b	-0.18239038
255	0x3d94aa0e	0.07258998

o2o.bias f4 [59]
0	0x3e4c200d	0.19934101
1	0xbe50b1d9	-0.20380343
2	0xbf858561	-1.0431329
3	0xbe5bcfa8	-0.21465933
4	0xbd3fbd06	-0.046811126
5	0xbfd82cf2	-1.6888716
6	0xbfa7d795	-1.3112665
7	0xbed1c8c3	-0.40973482
8	0x3e7d8972	0.24759462
9	0xbfcf354d	-1.6188141
10	0xbf419a96	-0.75626504
11	0x3e079748	0.13241303
12	0xbf3f8f1b	-0.74827737
13	0x3e42b53c	0.19014448
14	0x3ea3828a	0.3193553
15	0xbfb0274b	-1.3761991
16	0xbfbfb987	-1.4978493
17	0xbcfde27b	-0.030991783
18	0xbe92b49f	-0.28653428
19	0xbf63df6e	-0.890128
20	0x3e382e81	0.1798649
21	0xbf5720ad	-0.84034234
22	0xbfa44c13	-1.2835716
23	0xbfc923fe	-1.5714109
24	0xbfb8241a	-1.4386017
25	0xbfc25079	-1.5180808
26	0xbfd556ad	-1.6667076
27	0xbfc666aa	-1.550008
28	0xbfbfb718	-1.4977751
29	0xbfbfdb93	-1.4988884
30	0xbfdb867d	-1.7150418
31	0xbfd0337c	-1.6265712
32	0xbfc8a922	-1.5676615
33	0xbfc646a4	-1.5490308
34	0xbfcd4630	-1.6037045
35	0xbfd5fa71	-1.6717054
36	0xbfe1ad08	-1.763093
37	0xbfdcf121	-1.7261087
38	0xbfc0bc50	-1.5057468
39	0xbfddb467	-1.732068
40	0xbfd8eb3a	-1.6946785
41	0xbfc81054	-1.5629983
42	0xbfd5e099	-1.6709167
43	0xbfc7c8ee	-1.5608194
44	0xbfcf6162	-1.6201594
45	0xbfcf8676	-1.6212909
46	0xbfe281fc	-1.7695918
47	0xbfd3b05a	-1.6538193
48	0xbfc7ef5b	-1.561992
49	0xbfdabe47	-1.7089318
50	0xbfdccf9c	-1.7250857
51	0xbfd2ebfa	-1.6478264
52	0xbfccd9a5	-1.600392
53	0xbfca12a7	-1.5786942
54	0xbfccd803	-1.6003422
55	0xbfce249f	-1.6104926
56	0xbf0b0081	-0.54297644
57	0xbfc6c830	-1.5529842
58	0xbece7174	-0.40320933
